results/palindrome/ql_0.pt (torch, 84325 bytes, 6 tensors)

model.0.weight f4 [128, 25]
0	0xbf7cfad5	-0.9882024
1	0x409da9ab	4.9269614
2	0xbf28fc94	-0.66010404
3	0x3c6ab2a6	0.01432482
4	0xbf8c7ed4	-1.0976205
5	0xbe3ceae8	-0.18448985
6	0xbe07f1f4	-0.13275892
7	0x3d98c18a	0.0745879
8	0x3d3f9ec7	0.04678228
9	0x3e034a05	0.12821205
10	0x3e16c03b	0.14721768
11	0xbc6d7b00	-0.0144946575
12	0xbde78bc3	-0.11305954
13	0x3d364793	0.044501852
14	0xbdffdd73	-0.1249341
15	0xbe1b0b17	-0.15140949
16	0x3d4e769a	0.050406076
17	0x3e2c83f2	0.16847208
18	0xbe1064ad	-0.14100905
19	0x3bd7209a	0.0065651657
20	0x3dfedff3	0.12445059
21	0x3df1de93	0.11810031
22	0xbded483d	-0.11586044
23	0xbdc628d0	-0.09675753
24	0x3e230e77	0.15923487
25	0xbeee2b24	-0.4651729
26	0xbeecc538	-0.46244216
27	0xbecd81b0	-0.40138006
28	0x40d76f98	6.7323723
29	0x3f3855c3	0.7200586
30	0xbf8ac99d	-1.0842777
31	0xbf80ca8b	-1.0061811
32	0xbe0a2e80	-0.13494301
33	0x3dd37877	0.10325711
34	0x3dfed31a	0.12442608
35	0xbe0fadca	-0.14031139
36	0xbbfe2800	-0.007756233
37	0x3bddc700	0.0067681074
38	0xbe107b7a	-0.14109603
39	0x3ca6308d	0.020286823
40	0xbe2b9b3f	-0.1675844
41	0x3e151d05	0.14561851
42	0x3d83a5d7	0.06428116
43	0xbe4cb358	-0.19990289
44	0xbd22a9e0	-0.039712787
45	0x3df1b1bd	0.11801479
46	0x3d48fc33	0.04906864
47	0x3e4ac232	0.19800642
48	0xbd6e2c93	-0.058147978
49	0x3de58ca0	0.11208463
50	0x3fa6e31d	1.303806
51	0xbf7ac5fc	-0.9795835
52	0x3fa85163	1.3149837
53	0xc023a8d7	-2.5571802
54	0x4006a04c	2.1035337
55	0x3ed51c54	0.41623175
56	0x3eee1cf6	0.4650647
57	0xbd218cc7	-0.039440896
58	0x3cdbec4d	0.026846075
59	0x3e40b5df	0.18819378
60	0xbdbded4a	-0.09273775
61	0xbe404938	-0.1877793
62	0x3dbb83b3	0.09155979
63	0x3ca621a7	0.020279719
64	0x3d46ed4d	0.04856615
65	0x3de785da	0.11304827
66	0xba29d333	-0.00064783095
67	0x3e1551ed	0.14582033
68	0xbe4ab668	-0.19796145
69	0xbe46ae87	-0.19402514
70	0xb9653333	-0.00021858215
71	0x3d5e751a	0.054310896
72	0xbd581dad	-0.052762676
73	0xbddb83c3	-0.10718491
74	0x3d9330e3	0.07187059
75	0x3f1cc16c	0.6123264
76	0x3aae1cac	0.0013283691
77	0xbfab06f8	-1.3361502
78	0x3e061d1b	0.1309704
79	0xc02e93c5	-2.7277691
80	0x3eb440a0	0.35205555
81	0x3ee7f3c4	0.45303166
82	0x3df2e95a	0.118609145
83	0xbde0f0fd	-0.10983465
84	0xbcbdd7cd	-0.02317419
85	0xbd403e87	-0.04693463
86	0x3d6ba353	0.057528805
87	0xbdb2c6ea	-0.08729346
88	0xbe1d75bb	-0.15376942
89	0x3e4c156d	0.19930048
90	0x3e34846a	0.17628637
91	0xbd938ca3	-0.07204559
92	0x3d1450ed	0.03620999
93	0x3e22005a	0.15820447
94	0xbd643ded	-0.05572312
95	0xbe3e3608	-0.18575299
96	0x3d54c100	0.05194187
97	0xbe36314b	-0.17792241
98	0xbc3d0be7	-0.011538482
99	0x3e2342f5	0.15943511
100	0xbf820bf4	-1.0159898
101	0xbf54bcee	-0.83100784
102	0xbf20771d	-0.6268175
103	0xbe93c627	-0.28862116
104	0xc01a8f81	-2.4150088
105	0x3f3e375c	0.7430322
106	0x3f5871f4	0.8454888
107	0xbd45535a	-0.048175193
108	0xbd3d5373	-0.04622216
109	0xbc82ffc0	-0.015991092
110	0x3dc9ee07	0.09859853
111	0x3c478e00	0.0121798515
112	0xbe16d52d	-0.14729758
113	0xbe1d3087	-0.15350543
114	0x3dfa138d	0.1221076
115	0x3e2ccec2	0.16875747
116	0x3ca228b3	0.019794798
117	0x3dfcc1fd	0.12341688
118	0xbe1994bb	-0.14998142
119	0x3da2cbc7	0.07949024
120	0x3d0ddd87	0.034635093
121	0x3dd17287	0.102269225
122	0xbdced2ad	-0.10098777
123	0x3d88f3a7	0.06687098
124	0xbda937ca	-0.08262594
125	0x3ddd6e2b	0.108120285
126	0xbf2edd16	-0.683061
127	0xbf19f89f	-0.6014499
128	0xbc89af98	-0.016807362
129	0x408ee87c	4.4658794
130	0x3f0708a8	0.52747583
131	0x3e9533f9	0.29141214
132	0xbd480893	-0.048836302
133	0xbe0d09db	-0.13773291
134	0xbd6797b3	-0.056541156
135	0xbe010583	-0.12599759
136	0xbe351f35	-0.17687686
137	0x3e0afff8	0.13574207
138	0xbe0d3d4f	-0.13792919
139	0xbe01218f	-0.12610458
140	0xbd235ec0	-0.039885283
141	0x3b830200	0.003998041
142	0x3cc746e7	0.024325801
143	0xbe11facf	-0.14255832
144	0x3c0bba80	0.008528352
145	0x3e441b03	0.19150929
146	0xbdab9930	-0.083788276
147	0x3d595f0d	0.053069163
148	0xbe1e2b0d	-0.1544611
149	0x3dce85d0	0.100841165
150	0xbfdf5aa2	-1.7449534
151	0x3f50a63d	0.8150366
152	0x3f9b0ebd	1.2113873
153	0xbf608e5f	-0.8771724
154	0x3fe5e6be	1.7961042
155	0xbe31aa1f	-0.17350052
156	0xbea5e5da	-0.32401925
157	0x3d9df14d	0.0771204
158	0x3c609367	0.013707018
159	0x3e4303c0	0.190444
160	0xbe0d49da	-0.13797703
161	0x3e21795b	0.1576895
162	0x3d9f594d	0.07780705
163	0xbd82506a	-0.06362994
164	0x3cc273b3	0.02373681
165	0x3de75ff7	0.11297601
166	0x3d937d9d	0.07201693
167	0x3dd8c56a	0.10584529
168	0xbdec8d33	-0.11550369
169	0xbe493090	-0.19647431
170	0xbd1cf633	-0.03832073
171	0xbe11fc42	-0.14256385
172	0xbe354c2d	-0.1770484
173	0xbd9aa9ba	-0.07551904
174	0xbd2f1ec0	-0.042753935
175	0xbf9d8ad3	-1.2307991
176	0xbf94d5a0	-1.1627693
177	0xbeee19d0	-0.46504068
178	0x3ebd6847	0.3699362
179	0x4011a91a	2.2759461
180	0xbcdc7f73	-0.026916241
181	0x3e936fb2	0.28796154
182	0x3d80def0	0.06292522
183	0x3df0ebc3	0.11763718
184	0x3de6634d	0.11249409
185	0x3ce65d1a	0.028120566
186	0xbd20d7da	-0.039268352
187	0x3e383ee8	0.17992747
188	0x3e10a0d0	0.14123845
189	0xbe084a77	-0.13309656
190	0xbe199f8a	-0.15002266
191	0x3da30de3	0.07961633
192	0xbdcd83b7	-0.10034888
193	0xbded35f3	-0.115825556
194	0xbd2c61a0	-0.04208529
195	0xbcb2170d	-0.021739507
196	0x3dbcad0a	0.09212692
197	0x3e390aca	0.18070522
198	0x3e1f9247	0.15583144
199	0x3d8ae440	0.067818165
200	0x3f58a4f7	0.84626716
201	0x3faacc45	1.3343588
202	0xc02f56ed	-2.7396805
203	0xbfa67c53	-1.3006691
204	0xc0642c09	-3.5651877
205	0x3eb23dbc	0.34812725
206	0x3e743b7a	0.23850814
207	0xbdf24373	-0.11829271
208	0xbdcc28d3	-0.09968724
209	0x3de6120a	0.112339094
210	0x3e3913b8	0.18073928
211	0xbd76903a	-0.06019614
212	0x3e29e882	0.16592601
213	0xbe12e680	-0.14345741
214	0xbd1d5fad	-0.03842132
215	0xbcf6c473	-0.030122971
216	0xbe195a82	-0.14975932
217	0xbdf306b7	-0.11866515
218	0x3d56a827	0.052406456
219	0xbe1a57ff	-0.1507263
220	0xbd6bb9fa	-0.057550408
221	0x3e1e0df7	0.15435015
222	0xbe493d4d	-0.1965229
223	0x3d550a40	0.05201173
224	0x3e2759dd	0.16342874
225	0x3ec7aa02	0.38996893
226	0xbec0a291	-0.37624028
227	0xbf09c23d	-0.5381201
228	0x3e692c31	0.22770764
229	0x404dee93	3.2176864
230	0x3f47c55b	0.78035516
231	0x3f4a77f5	0.7908929
232	0x3da3af17	0.0799238
233	0x3d36ac7a	0.04459808
234	0x3daf2fd3	0.085540436
235	0x3e38d1ba	0.18048754
236	0x3df979f0	0.12181461
237	0xbc1714e7	-0.009221292
238	0x3c84fa00	0.01623249
239	0xbe407e00	-0.18798065
240	0x3e217ee5	0.15771063
241	0x3e25304f	0.1613171
242	0xbdf39857	-0.11894291
243	0x3e2fe9c5	0.1717902
244	0x3e3dc8e2	0.18533662
245	0x3d9782e0	0.07398009
246	0xbe03cf6a	-0.12872091
247	0x3d21b613	0.03948028
248	0x3de3b75d	0.11118958
249	0x3e46caad	0.19413252
250	0x3fead232	1.8345397
251	0xbfed37f2	-1.8532698
252	0xbf056cae	-0.5211896
253	0x3f18dd5b	0.5971276
254	0xc01fea07	-2.498659
255	0xbed30d73	-0.41221198

model.0.bias f4 [128]
0	0x3d948e5f	0.07253718
1	0xbf6487f4	-0.8926995
2	0x3ebc59ee	0.3678736
3	0x3e7fe33e	0.2498903
4	0x3f2c5a13	0.6732494
5	0x3f138d69	0.5763765
6	0xbe5ef66d	-0.21773691
7	0xbcab7d87	-0.02093388
8	0x3f0d11e6	0.55105436
9	0x3f2cf47f	0.6756057
10	0xbf25ab0e	-0.64714134
11	0x3f6d64e0	0.9273205
12	0x3f8cf06d	1.1010872
13	0xbea6010b	-0.3242267
14	0x3e3c918d	0.18414898
15	0x3ddaa07d	0.10675142
16	0xbe9b67b0	-0.30352545
17	0x3eeb9a86	0.4601633
18	0xbe214359	-0.15748347
19	0x3e91575e	0.28386968
20	0xbe1d45f3	-0.15358715
21	0x3e21568f	0.15755676
22	0xbe3dd609	-0.18538679
23	0xbf947367	-1.1597718
24	0x3ec9d0cd	0.39417115
25	0x3f837ab2	1.0271819
26	0x3e6a2587	0.22865878
27	0xbf1db66e	-0.6160649
28	0xbf0cda83	-0.5502092
29	0xbf93309c	-1.149921
30	0xbeb5d376	-0.35512894
31	0x3eb50178	0.35352683
32	0x3bae6cf5	0.0053230473
33	0xbf3ab083	-0.72925586
34	0xbd4382ff	-0.04773235
35	0xc0428fcc	-3.0400267
36	0x3f6b9b56	0.920339
37	0xbe89966a	-0.2687257
38	0x3ddca491	0.10773576
39	0xbf7fa0e6	-0.99854887
40	0xbe41f238	-0.18940055
41	0x3f0ffa7c	0.56241584
42	0x3eab4d01	0.33457187
43	0xbe1ad4a8	-0.15120184
44	0x3ea5c4d8	0.32376742
45	0x3d867422	0.06565119
46	0x3ed1d8dc	0.40985763
47	0xbf239e26	-0.6391319
48	0xbf3f11a7	-0.7463631
49	0x3d4fc76b	0.05072729
50	0xbf10477e	-0.5635909
51	0x3f85097c	1.0393519
52	0x3efb9d55	0.49143472
53	0xbf99a74d	-1.2004181
54	0xbdf47ac5	-0.11937479
55	0x3dd7c2bd	0.1053519
56	0x3fa3ef9b	1.2807497
57	0x3f1ed94b	0.6205031
58	0xbf0f4042	-0.55957425
59	0x3f0c6874	0.5484688
60	0xbf3e9828	-0.7445092
61	0x3efed092	0.49768502
62	0xbf53d566	-0.82747495
63	0xbfc66538	-1.549964
64	0x3f1d2c15	0.6139539
65	0xbdd0fa5b	-0.102040015
66	0x3de1a525	0.11017827
67	0xbea5cfa4	-0.3238498
68	0xbf609b99	-0.87737423
69	0xbf8c1b50	-1.0945835
70	0xbee84271	-0.4536319
71	0xbf304d57	-0.6886801
72	0xbe2fc46d	-0.17164774
73	0x3eb15333	0.34633788
74	0xbebaa549	-0.36454228
75	0xbf713dde	-0.94235027
76	0x3f7527d1	0.9576388
77	0x3f5e4e3c	0.86838126
78	0x3daff88d	0.08592329
79	0xbee27e95	-0.442372
80	0x3ffd1e55	1.9774882
81	0xbe5996fd	-0.21249004
82	0x3f001634	0.5003388
83	0x3ea90a5f	0.33015725
84	0xbf50f817	-0.81628555
85	0x3f8a4f59	1.0805465
86	0xbf679597	-0.9046263
87	0xbe51eb13	-0.2049983
88	0xbe66eb02	-0.22550586
89	0xbec9df15	-0.3942801
90	0x3d934fc8	0.071929514
91	0x3d1e9ef5	0.038725812
92	0xbee644d7	-0.44974396
93	0xbf1c1b12	-0.60978806
94	0xbd827266	-0.06369476
95	0x3f0ca961	0.5494595
96	0xbd6858e6	-0.056725405
97	0x3f07010c	0.5273597
98	0xbed82c69	-0.42221382
99	0xbf353938	-0.70790434
100	0xbf7dc963	-0.99135417
101	0xbcc11c56	-0.023573082
102	0x3f4a9849	0.7913862
103	0xbeed4191	-0.46339086
104	0x3f3e4ab9	0.7433277
105	0x3e82e3cf	0.2556443
106	0xbf20914b	-0.627217
107	0xbec56292	-0.38551766
108	0x3f06ca92	0.5265285
109	0xbebb0641	-0.3652821
110	0x3e85d9ab	0.2614263
111	0x3f147e08	0.5800481
112	0x3f420bcc	0.7579925
113	0x3f56c3ac	0.8389232
114	0xbf73e6c1	-0.9527398
115	0xbfa8e1e4	-1.3193936
116	0xbdb2aeb2	-0.08724727
117	0x3f04864e	0.5176743
118	0x3f72e870	0.9488592
119	0xbe5a101d	-0.21295209
120	0x3f4fc9d4	0.8116734
121	0x3cd239b6	0.025662284
122	0xbe90e7ef	-0.2830195
123	0xbf4b0973	-0.79311293
124	0xbf1b8a67	-0.6075806
125	0x3f1b2317	0.6060042
126	0xbdb5072e	-0.0883926
127	0xbe958b90	-0.2920804

model.2.weight f4 [128, 128]
0	0x3fc51707	1.5397652
1	0xbe930901	-0.28717807
2	0x3ebd5c92	0.36984688
3	0x3f237182	0.63845074
4	0xbeb579f1	-0.35444596
5	0xbf7391ba	-0.95144236
6	0xbf4125fc	-0.75448585
7	0xbde70543	-0.112803005
8	0x3ecb0b17	0.39656898
9	0x3f9f8c08	1.2464609
10	0x3e69f3bb	0.22846882
11	0xbf140028	-0.5781274
12	0xbe77a8d6	-0.241855
13	0x3f4c8e5c	0.79904723
14	0x3f6b56b3	0.9192917
15	0x3f285f9b	0.6577088
16	0xbec7f7c6	-0.39056224
17	0xbf43845b	-0.76373833
18	0xbe4fd524	-0.2029615
19	0x3e412a0c	0.18863696
20	0xbf19fa2c	-0.60147357
21	0x3f8428b4	1.0324922
22	0x3fceb132	1.6147826
23	0x3edb977f	0.4288902
24	0xbea38883	-0.31940088
25	0xbe043a4a	-0.1291286
26	0x3f5f648b	0.8726279
27	0x3f52a6b1	0.822856
28	0xbebfdaee	-0.37471718
29	0xbdba8023	-0.091064714
30	0xbe5e97bc	-0.2173757
31	0x3f08a4a3	0.53376216
32	0x3f0b2efa	0.54368556
33	0xbcedfa5f	-0.02905005
34	0xbf0d2c22	-0.55145466
35	0x3ef02667	0.469043
36	0xbf19c77d	-0.6007002
37	0x3ed5c6a5	0.41753116
38	0x3edab9a5	0.4271976
39	0xbe953017	-0.29138252
40	0x3ed1b8ab	0.40961203
41	0x3f445aac	0.76700854
42	0x3fa1908d	1.2622238
43	0xbe63ef04	-0.22259146
44	0x3f837880	1.0271149
45	0x3e4a5b26	0.19761333
46	0x3f88c437	1.068488
47	0xbf6f2dcc	-0.93429255
48	0xbec243c9	-0.3794234
49	0x3e8d174a	0.2755683
50	0xbe05d852	-0.13070801
51	0x3e403753	0.18771105
52	0xbd35c0e3	-0.044373404
53	0xbe7fabf9	-0.24967946
54	0x3e0293aa	0.12751642
55	0xbec069f3	-0.37580833
56	0x4000dde0	2.0135422
57	0x3f50e79e	0.8160342
58	0x3eb13c19	0.34616163
59	0x3ed046b1	0.40678933
60	0x3e605588	0.21907628
61	0xbfc2dc65	-1.5223509
62	0x3e7f7715	0.2494777
63	0xbd8a7ebb	-0.06762453
64	0xbebca943	-0.36847886
65	0x3d9c24f8	0.07624239
66	0xbe93accc	-0.2884277
67	0x3df2abde	0.11849187
68	0xbda621e4	-0.08111933
69	0x3eb5d74e	0.35515827
70	0xbf752023	-0.9575216
71	0x3e8353c1	0.25649837
72	0x3fad6226	1.3545578
73	0x3fc92fb9	1.5717689
74	0xbf41a560	-0.7564297
75	0xbfca72f0	-1.5816326
76	0xbdbfaaf3	-0.09358778
77	0x3e3521c1	0.17688657
78	0xbf1ac948	-0.6046338
79	0xbf451559	-0.769857
80	0x3af5a40e	0.0018740909
81	0x3df1c284	0.11804679
82	0x3e2fb1f9	0.17157735
83	0x3f8e4053	1.111338
84	0x3dbc891b	0.09205838
85	0x3e425ff2	0.18981913
86	0x3e73908c	0.23785609
87	0xbf77d062	-0.9680234
88	0xbf01bd22	-0.5067922
89	0xbf84fb75	-1.0389239
90	0xbf3faba5	-0.74871284
91	0xbf847758	-1.0348921
92	0x3f3faff6	0.7487787
93	0xbcc2deed	-0.02378794
94	0x3f66fb93	0.9022762
95	0xbe9018f3	-0.28144035
96	0x3e7c180b	0.24618547
97	0x3da99b6d	0.08281598
98	0x3ea9c1bd	0.33155623
99	0x3fff70f4	1.9956346
100	0x3f0174cc	0.5056884
101	0x3f149819	0.5804458
102	0x3eadb3d3	0.33926257
103	0x3fdb5c1f	1.7137488
104	0xbe9e6bd6	-0.30941647
105	0x3f487154	0.78297925
106	0xbf69abad	-0.9127758
107	0x3f7bc465	0.9834655
108	0xbe7a4a28	-0.24442351
109	0xbe19d1aa	-0.15021387
110	0x3fedc418	1.8575468
111	0x3e5b8629	0.21437897
112	0xbd8a7b39	-0.06761784
113	0x3f2626f6	0.649032
114	0x3fde58b3	1.7370819
115	0x3f06fbe5	0.5272811
116	0x3f912e3a	1.1342232
117	0x3f144a09	0.5792547
118	0xbd3c5ec9	-0.04598883
119	0xbda43b3a	-0.08019109
120	0x3d1425eb	0.036168974
121	0x3f29d056	0.6633352
122	0xbf8d9f11	-1.1064168
123	0xbe12e2e6	-0.14344367
124	0xbfa1e9da	-1.2649491
125	0xbf19f8df	-0.6014537
126	0x3da19a0a	0.07890709
127	0xbe803167	-0.2503769
128	0x3fc495a2	1.5358164
129	0xbf796fb8	-0.97436094
130	0x3ee3e90a	0.44513732
131	0x3ecf2602	0.40458685
132	0xbef74a58	-0.48298907
133	0xc0121123	-2.282296
134	0xbdea8ede	-0.11453031
135	0x3f01a101	0.506363
136	0x3f3db9ca	0.74111617
137	0x3e968c1f	0.2940378
138	0x3fc0198e	1.5007799
139	0xbe431991	-0.19052722
140	0xbf92059f	-1.1407965
141	0x3fb20497	1.3907651
142	0x3e440815	0.19143708
143	0x3fe6e261	1.8037835
144	0xbf66a1f5	-0.90090877
145	0xbf85dcd9	-1.0458022
146	0x40273d58	2.6131191
147	0x3f235482	0.63800824
148	0xbfb20088	-1.3906412
149	0x3ea2666e	0.31718773
150	0x3ffdee32	1.9838316
151	0x3f22f50e	0.63655174
152	0xbf9423a3	-1.1573375
153	0xbfb4ba48	-1.4119349
154	0x3d8bbf1f	0.06823563
155	0x3fc22330	1.5166988
156	0xbe159269	-0.14606632
157	0xbeeedfe7	-0.466552
158	0xbe757ca6	-0.23973331
159	0xbec22f80	-0.37926865
160	0x3eaa5c25	0.33273426
161	0x3dbba6ab	0.09162649
162	0x3fa928cd	1.3215576
163	0x3f2beceb	0.67158383
164	0xbf28454f	-0.65730757
165	0x3fb0f9c3	1.3826221
166	0xbeec1c95	-0.46115556
167	0x3f5047fb	0.81359833
168	0xbed1a8fa	-0.4094923
169	0x3f3c06fe	0.7344817
170	0x401dc45a	2.4651093
171	0xbf56ef8c	-0.8395927
172	0x3fd8ed45	1.6947409
173	0xbf1c074c	-0.60948634
174	0x3f23b417	0.6394667
175	0xc0025780	-2.0365906
176	0x3ea06348	0.31325746
177	0xc017e04c	-2.373065
178	0x3fe71022	1.8051798
179	0xbf8e650e	-1.112459
180	0x3fc7d8fe	1.5613096
181	0xbf50770a	-0.8143164
182	0x3ebbefe7	0.36706468
183	0xbeedd392	-0.46450478
184	0x3f3210a6	0.69556653
185	0x3f910e1e	1.1332433
186	0x3fa09c6b	1.2547735
187	0x3f94cd06	1.1625068
188	0x3fc501b4	1.5391145
189	0x3ed2d4db	0.4117802
190	0xbf9abe93	-1.2089409
191	0x3e8c42f5	0.27394834
192	0x3f748672	0.9551765
193	0x3f190c6b	0.59784573
194	0xbf041c62	-0.5160581
195	0xbf348937	-0.70521873
196	0xbec61662	-0.38688952
197	0x3f0c5afe	0.54826343
198	0xbf7728df	-0.9654674
199	0x3fba9946	1.4578025
200	0x3fde72f0	1.7378826
201	0x3eafe965	0.34357753
202	0xc0007a8b	-2.0074794
203	0xbf037a8d	-0.5135887
204	0x3f23218e	0.63723075
205	0xbf06d5eb	-0.5267016
206	0xbee6ff87	-0.45116827
207	0xbecfd4b9	-0.40591982
208	0xbea55006	-0.32287616
209	0x3ea5bff7	0.3237302
210	0x3f34c3d2	0.706113
211	0x3e0dc4af	0.1384456
212	0xbee1c9a7	-0.4409916
213	0x3f448482	0.7676469
214	0x3f40ce37	0.7531466
215	0xbfce041a	-1.6095002
216	0xbe2845e8	-0.16432917
217	0xbf231c71	-0.63715273
218	0xbf3e7353	-0.7439472
219	0x3e00db3d	0.12583633
220	0x3b8079df	0.003920778
221	0x3e4fab14	0.20280105
222	0xbcb1451a	-0.021639396
223	0xbf79f7e2	-0.97643864
224	0x3ed85cf9	0.42258433
225	0x3f86d46e	1.0533578
226	0xbf19d38a	-0.6008841
227	0xbf02bcdb	-0.5106942
228	0x3fc8f983	1.5701145
229	0xc06ae20e	-3.6700473
230	0xbfd1c5e9	-1.6388522
231	0x3ed74d5c	0.42051208
232	0x3eece9d7	0.46272156
233	0x3f85e631	1.0460874
234	0xbe96c2ec	-0.2944559
235	0x3f5f35eb	0.8719165
236	0xbef0fa4f	-0.4706597
237	0xbf79a1d5	-0.9751256
238	0xbe76164d	-0.24031945
239	0x3dd70504	0.104990035
240	0xc00210e3	-2.0322807
241	0x3e38f746	0.18063077
242	0xbed4f528	-0.4159329
243	0xbf9ec597	-1.240405
244	0x3fcd6e62	1.6049311
245	0xc003049d	-2.0471566
246	0xbf9c5226	-1.221257
247	0x3fb28bfd	1.3948971
248	0x3eb7cca8	0.35898328
249	0x3ee64796	0.4497649
250	0xbe5fe7f4	-0.21865827
251	0x3f3fcaa4	0.7491858
252	0xc03aa0f5	-2.916074
253	0xbf57d1cd	-0.84304506
254	0xbf5e44f5	-0.8682397
255	0xbe313397	-0.17304836

model.2.bias f4 [128]
0	0x3dbd2cc4	0.09237054
1	0xbea17d94	-0.3154112
2	0xbf142e7b	-0.57883424
3	0xbf10a3ad	-0.5649975
4	0x3ee77a31	0.45210412
5	0x3e9a952a	0.30191928
6	0xbf791032	-0.9729034
7	0x3d59b647	0.05315235
8	0x3f2ac568	0.6670747
9	0xbe9fee98	-0.3123672
10	0x3f6c9b16	0.9242414
11	0x3f015e74	0.5053475
12	0x3ee1e3e0	0.44119167
13	0xbf1893a9	-0.5960031
14	0x3dcd16ae	0.100140914
15	0xbdd91b05	-0.10600857
16	0xbf3facff	-0.74873346
17	0x3f4270c7	0.75953335
18	0x3d5d9cbb	0.054104548
19	0x3bc5b39e	0.006033375
20	0xbefe9221	-0.49720863
21	0x3d3459ef	0.04403108
22	0x3c9a147e	0.0188086
23	0xbec7599f	-0.38935563
24	0x3ecdb67c	0.40178287
25	0x3eeb3545	0.4593908
26	0x3cab6474	0.020921923
27	0x3e5b32c7	0.21406089
28	0xbc1a6dfd	-0.009425637
29	0x3f5a0a4d	0.8517197
30	0xbe735fd0	-0.23767018
31	0xbea5c774	-0.32378733
32	0xbf249238	-0.6428561
33	0x3d893bbd	0.06700847
34	0xbd79769d	-0.060904134
35	0xbf9a10f4	-1.2036424
36	0x3da0a8a1	0.078446634
37	0x3ea94299	0.33058622
38	0xbf34738d	-0.70488816
39	0x3f3b0462	0.7305356
40	0x3e7a238b	0.24427621
41	0x3e84e2a9	0.25954178
42	0xbe0be14e	-0.13660166
43	0x3f4846a1	0.7823277
44	0xbf1f626c	-0.62259555
45	0xbed52977	-0.41633198
46	0xbedfbf84	-0.43700802
47	0xbedf957c	-0.43668735
48	0xbecd4d78	-0.40098166
49	0x3eb45ad6	0.35225552
50	0xbee5fbd1	-0.44918683
51	0x3eb29edb	0.34886822
52	0x3e43c1ac	0.19116849
53	0x3ea23f35	0.31688848
54	0xbe983b71	-0.2973285
55	0x3f0f8414	0.5606091
56	0x3f01ec74	0.50751424
57	0xbf1ff33a	-0.6248051
58	0x3ed759b8	0.42060637
59	0x3d63c395	0.055606443
60	0xbf2d7338	-0.67753935
61	0x3c898368	0.016786292
62	0x3f093d14	0.5360882
63	0xbee11376	-0.4396016
64	0x3e334981	0.17508508
65	0x3e0c3d04	0.1369515
66	0xbdb10732	-0.086439505
67	0xbe930a40	-0.28718758
68	0x3ea1bcd6	0.31589383
69	0x3f275a32	0.65372
70	0x3f049407	0.5178837
71	0xbed2e9d0	-0.4119401
72	0xbe8b4025	-0.27197376
73	0xbd1f19da	-0.038843013
74	0x3f0adf0b	0.54246587
75	0xbd040a6b	-0.032236498
76	0x3f0a0f0b	0.53929204
77	0x3e741396	0.23835596
78	0x3eb82bb1	0.35970834
79	0xbe8bffe9	-0.2734368
80	0x3eb15c70	0.34640837
81	0x3da9295f	0.08259844
82	0xbeb721b3	-0.35767898
83	0xbebc167f	-0.36735913
84	0x3eca684f	0.39532706
85	0xbeee1997	-0.46503899
86	0xbd56bcc0	-0.0524261
87	0x3e265f1d	0.1624722
88	0x3f36fd14	0.71479917
89	0x3dd2cf5d	0.10293458
90	0x3f1a1e8c	0.6020286
91	0xbed6dca9	-0.41965225
92	0xbf048093	-0.5175869
93	0xbeee04e2	-0.464881
94	0xbf3a69c9	-0.72817665
95	0xbe6a41e8	-0.22876704
96	0x3e92ffa7	0.28710672
97	0xbd15dced	-0.036587644
98	0x3f5455eb	0.829436
99	0x3e2dd627	0.16976224
100	0xbe474cf9	-0.19462956
101	0x3d2c1481	0.04201174
102	0xbf38722a	-0.720492
103	0xbec1a23b	-0.37819085
104	0xbe43c9f8	-0.19120014
105	0xbea33422	-0.31875712
106	0xbdb9d4e2	-0.09073807
107	0xbe5f0bda	-0.21781865
108	0xbf3fa758	-0.7486472
109	0x3cfc680c	0.030811332
110	0x3da33e13	0.07970824
111	0x3f0b2695	0.54355747
112	0xbf0351a4	-0.5129645
113	0xbe255cae	-0.16148636
114	0xbed49006	-0.4151613
115	0xbdd4c53e	-0.103891835
116	0xbf32aa57	-0.6979117
117	0x3f1ba154	0.6079304
118	0xbf438794	-0.7637875
119	0xbe5495cf	-0.20760272
120	0xbe13c50e	-0.14430639
121	0xbee889d4	-0.45417655
122	0x3e763927	0.2404524
123	0xbf0dee8c	-0.5544212
124	0xbf1e2971	-0.61781985
125	0xbf4867b9	-0.7828327
126	0xbeb22a5e	-0.3479795
127	0x3ea7bf61	0.32763198

model.4.weight f4 [5, 128]
0	0x420df947	35.493435
1	0xc1126644	-9.149967
2	0xc1d0e761	-26.112978
3	0x3f54aa2c	0.8307216
4	0x41e13f45	28.155893
5	0x4195555e	18.666683
6	0xc19f7a2d	-19.934656
7	0xc0421d4d	-3.0330384
8	0x41af10ef	21.883268
9	0xc1c373c6	-24.43153
10	0x41d7af1a	26.960499
11	0x4205557f	33.333492
12	0x40f1aa2b	7.5520225
13	0xc1dbb654	-27.464027
14	0xc1f1fc51	-30.248201
15	0xc1eaba63	-29.34101
16	0xc1cb00a6	-25.375317
17	0x41d32193	26.391394
18	0x3e528d41	0.20561697
19	0xbf76d56a	-0.96419394
20	0x409faa59	4.9895444
21	0x41d0e661	26.11249
22	0x41aa0391	21.251741
23	0xc1cf6125	-25.922434
24	0x41aff2a5	21.993479
25	0x41de8c3e	27.818478
26	0x41bfcde0	23.975525
27	0xbf9675cd	-1.17547
28	0x3fe56041	1.7919999
29	0x41ca08fb	25.254385
30	0xc197b22e	-18.962002
31	0xc1d8cbc3	-27.099493
32	0xc0d64127	-6.695453
33	0xc1b32035	-22.390726
34	0xc0724a52	-3.7857862
35	0xc1d6c269	-26.844927
36	0x4186b289	16.837175
37	0x41027c68	8.155373
38	0xc206560e	-33.584038
39	0x41c84d64	25.037788
40	0x40be6339	5.949612
41	0x41c9c656	25.221844
42	0xc1cf53c0	-25.915894
43	0x41d594a2	26.697575
44	0xc1cd4da8	-25.662918
45	0xc1e5f4a6	-28.744457
46	0xc20c7b2e	-35.120293
47	0xc1e5be19	-28.717821
48	0x3fc54e58	1.5414534
49	0x40123119	2.2842467
50	0xc1da9a29	-27.325274
51	0x41e9286b	29.144735
52	0x41cffe94	25.999306
53	0x410d352c	8.825481
54	0xc1babbf9	-23.341784
55	0x41eb199a	29.3875
56	0x41df6171	27.922579
57	0xc1c45037	-24.539167
58	0x41a4f9db	20.622
59	0x40311521	2.7669146
60	0xc2102948	-36.040314
61	0x41dda819	27.707079
62	0x41d9c2a6	27.220043
63	0xc1f0301d	-30.023493
64	0xc004c7de	-2.074699
65	0x40dacebf	6.8377376
66	0xc1e02bc4	-28.02137
67	0x3f1fded5	0.6244939
68	0x41e06d08	28.053238
69	0x41ff7751	31.93326
70	0x3d1b59f7	0.037927594
71	0xc1c9e6b2	-25.237644
72	0x41c428fa	24.520008
73	0xc14b7ad6	-12.717489
74	0x41dcd1db	27.602468
75	0xc1d5965c	-26.698418
76	0x41ab897c	21.442131
77	0x41c7335b	24.900076
78	0x41d2fd3a	26.373646
79	0xc1e5562a	-28.667072
80	0x41d469fe	26.551754
81	0x41c7d30e	24.978054
82	0xc2144978	-37.071747
83	0xc13ca803	-11.7910185
84	0x41de5773	27.7927
85	0xc1e18e19	-28.194384
86	0xbfe8a7d6	-1.817622
87	0xc035cf93	-2.8407943
88	0x41d3948e	26.447536
89	0x40f009f0	7.501213
90	0x41d78611	26.940462
91	0xc1c3c12d	-24.469324
92	0xc213b0ad	-36.922535
93	0xc1d3189b	-26.387014
94	0x40a09c0e	5.0190496
95	0xc1c231cc	-24.274315
96	0x40c84511	6.258431
97	0x41f1ede9	30.241167
98	0x41d3c561	26.471376
99	0x41c03a66	24.028515
100	0xc0b5e7ff	-5.68457
101	0xc0a90f29	-5.2831006
102	0xc1d16ac8	-26.17714
103	0xc1dd16dd	-27.636164
104	0xc1b9a6fb	-23.206533
105	0xc18cf241	-17.618288
106	0x4118fa1f	9.561065
107	0x3f45d0c4	0.77271676
108	0xc1d4e29f	-26.610655
109	0xc1aeb4e6	-21.83833
110	0xc1dae767	-27.36299
111	0x41b702f5	22.876444
112	0xc1bd77c2	-23.683475
113	0xc1aaafd1	-21.335848
114	0xc1d19da9	-26.201982
115	0xc2060669	-33.50626
116	0xc15604f6	-13.376211
117	0x41bdb3e6	23.712841
118	0xc1d561e3	-26.672796
119	0xc0756390	-3.8342018
120	0xc1d6281e	-26.769588
121	0xc1c73334	-24.900002
122	0xc1f14edb	-30.163504
123	0xc0e9e5c1	-7.309296
124	0xc1c3705c	-24.429863
125	0xc1fbd0a8	-31.476883
126	0xc1dab663	-27.339056
127	0x4001ea3b	2.0299213
128	0x42333314	44.79988
129	0xc00a4402	-2.1604009
130	0xc1c84ed8	-25.038498
131	0xc11e335b	-9.887538
132	0x41fb08f7	31.379377
133	0x41a04f7e	20.038815
134	0xc1924e85	-18.28834
135	0xc187a222	-16.954166
136	0x41aaf5b9	21.369982
137	0xc1f14c6d	-30.162317
138	0x41eb843b	29.439566
139	0x41f4d355	30.60319
140	0x40b1a61e	5.551528
141	0xc1ccffe5	-25.624949
142	0x40fd049a	7.9068117
143	0xc2008404	-32.12892
144	0xc1c45f1b	-24.546438
145	0x41ec8a45	29.567514
146	0xc1b8748f	-23.056913
147	0xc040f108	-3.0147114
148	0xc234718a	-45.110878
149	0x423fb5b7	47.927456
150	0x41a12750	20.144196
151	0xc1d53d9c	-26.655083
152	0x41b1c7e5	22.222605
153	0x41e13a07	28.153334
154	0xc1e69b51	-28.825838
155	0x422c174a	43.022743
156	0xbf2c6723	-0.67344874
157	0x41e052fd	28.040522
158	0xc19a0263	-19.251165
159	0xc1e5cfd0	-28.72647
160	0xc02d5193	-2.708104
161	0x4186d75a	16.855152
162	0x41857ec5	16.6869
163	0xc1d311f5	-26.383768
164	0x41b5c1ca	22.719624
165	0x412d64ff	10.837157
166	0xc1fc4667	-31.534376
167	0x41dd5c49	27.670061
168	0x40e60db4	7.1891727
169	0x41d0e670	26.112518
170	0xc1f467b2	-30.550632
171	0x41d23941	26.277956
172	0xc1cf96b2	-25.948582
173	0xc1dd0d21	-27.63141
174	0xc22b10fd	-42.76659
175	0xc1f9b62d	-31.213953
176	0x42375675	45.83443
177	0x40ea57ea	7.3232317
178	0xc1ce1d8d	-25.76443
179	0xc19b7664	-19.432808
180	0xc0e222a3	-7.066728
181	0x41851bff	16.63867
182	0x41900221	18.00104
183	0x4202ebc1	32.73023
184	0x41f900d3	31.125402
185	0xc1dd5bfb	-27.669912
186	0x419fc363	19.970404
187	0x4096003b	4.687528
188	0xc201afbc	-32.421616
189	0x3edebf76	0.43505448
190	0x41d8ee35	27.116312
191	0x4185e4b0	16.736664
192	0xc0989bc8	-4.7690163
193	0xc0f04877	-7.508846
194	0x40b045dd	5.508528
195	0xc209340b	-34.300823
196	0xc1c09784	-24.073982
197	0xc076a592	-3.8538556
198	0x422ea497	43.660732
199	0xc1cfeacb	-25.989645
200	0xc207d93e	-33.96215
201	0xc181d993	-16.231237
202	0x41e446ff	28.534666
203	0x41a228f1	20.26999
204	0x41b65d73	22.79563
205	0x42165afa	37.588844
206	0x41f092e9	30.071733
207	0xc2151e40	-37.27954
208	0x41d2f2fe	26.368649
209	0x41c4e1d9	24.610277
210	0xc22025be	-40.036858
211	0xc130f4a9	-11.0597315
212	0x41d90caf	27.131193
213	0xc21fc934	-39.946487
214	0xc0ec2f9a	-7.3808107
215	0xc021b2fa	-2.5265489
216	0x41edd24b	29.727682
217	0xc0c3db24	-6.1205006
218	0x41e02cd7	28.021894
219	0xc1662a87	-14.385383
220	0xbef6b935	-0.48188177
221	0xc1d0f609	-26.120134
222	0xc23439ab	-45.056316
223	0xc1b2ab7f	-22.333738
224	0xc169b211	-14.605973
225	0x41ffe2f2	31.985813
226	0x41ec1fcb	29.515524
227	0x420153af	32.331722
228	0xc03b10a0	-2.9228897
229	0xc10c9253	-8.785724
230	0xc1fc91a2	-31.57111
231	0xc1facbd0	-31.349518
232	0x41c2dfd6	24.359295
233	0xc19b06c4	-19.378304
234	0x414779f6	12.467276
235	0x4039e462	2.9045644
236	0xc1ecd065	-29.601755
237	0xc1cd1b19	-25.638231
238	0x414ac5a0	12.673248
239	0x41c1ec76	24.24046
240	0xc1ca6af9	-25.302233
241	0xc1e4ef2a	-28.61678
242	0x420b69fd	34.853504
243	0x412e45c1	10.89203
244	0xc102e03b	-8.179744
245	0x41dec1ce	27.844631
246	0xc1eb7d69	-29.436235
247	0xc1419e5e	-12.101164
248	0xc1d19315	-26.196817
249	0xc1c81098	-25.008102
250	0x41a466a3	20.550116
251	0xc110540f	-9.020522
252	0xc1dd7cd1	-27.685946
253	0xc1f2646a	-30.29903
254	0xc1cd4bcd	-25.662012
255	0x4229702f	42.359554

model.4.bias f4 [5]
0	0x41fa194b	31.26235
1	0x4202f741	32.74146
2	0x41d6e289	26.860613
3	0x41e99f32	29.202732
4	0x42b9656e	92.698105
