results/palindrome/ql_1.pt (torch, 84325 bytes, 6 tensors)

model.0.weight f4 [128, 25]
0.23300761 -1.3358305 0.76473874 0.74616987 1.9031959 -0.08096106 -0.40530026 0.06888495
0.18517475 0.10647052 -0.07295606 0.016270448 0.18587382 0.119210176 0.15837923 0.16113329
0.06307957 0.09175265 -0.015922237 -0.09544795 0.06154411 -0.19180714 0.058757376 -0.12809329
0.034836866 -0.59981996 -0.11968062 -0.9966127 -0.36309543 4.058373 0.6281145 0.3589744
-0.17937885 0.18167213 -0.05465093 -0.03349788 -0.124027394 -0.15976389 -0.15762892 -0.1807674
0.15207115 -0.0019159078 -0.17442086 -0.13138466 0.13588873 0.083531216 -0.09385698 0.006706882
0.06473126 0.041724633 3.0810342 2.5649722 0.31246933 0.767953 -1.2815055 1.4773308
1.5507962 -0.11650982 -0.034994412 -0.056784417 -0.01761496 0.049684834 -0.02708497 -0.13253072
-0.03527496 -0.078469634 -0.19907205 -0.056127217 -0.14579745 0.041294884 0.13657747 0.18839954
0.1427677 -0.18526557 -0.12854548 -0.26780763 1.4702154 1.3254058 -1.6970376 -0.34079638
-0.10642421 -0.030617962 -0.08611875 0.14958298 -0.08126836 -0.0370281 0.054965187 0.0029871464
0.13968001 0.021650745 -0.10876685 0.03108852 -0.12411139 0.015133834 -0.004122019 -0.02625432
0.059489846 -0.08971467 0.059794452 0.11956239 -0.88497376 6.318935 2.8720448 -0.39908576
-1.4073007 0.18691532 0.11706884 0.13428767 -0.07645426 0.18547182 0.08153482 -0.017595077
0.08890543 -0.1339145 0.18433367 0.16722369 0.117957495 0.006509233 0.07987392 0.04837661
0.11423445 0.056895208 -0.0031800747 -0.116595246 0.17706518 2.847683 -1.3537934 0.5153926
-0.629517 -2.501588 0.034318477 -0.11949431 -0.17241302 0.06326168 0.072547935 0.11489797
0.03818505 -0.1857913 0.12347038 -0.036021758 0.011717248 -0.1729317 0.05904627 -0.009699369
-0.012478805 -0.19979306 0.0650511 0.009281707 0.14931877 -0.15572706 -0.24145377 -0.19427158
0.9077029 -0.05432386 1.0142851 -0.46801516 -0.20969017 -0.0013331891 0.037585642 -0.18754224
-0.17255592 -0.011126518 -0.03365314 0.077253245 -0.08094969 0.034637023 0.053829264 0.16825302
0.17429622 -0.165656 0.07425573 0.13984425 0.13121752 0.068003796 -0.06912613 -0.28886968
-1.2273172 -0.286748 -1.9020647 -0.38013452 1.0415605 0.89063835 0.103207946 0.18569267
-0.003140092 0.028431727 0.10004318 -0.11563621 0.07373893 0.16869222 0.15638427 -0.0986706
-0.02632947 -0.0073402645 -0.036721516 -0.08963206 -0.048526336 0.039750528 -0.1346681 0.16556199
0.018756859 -0.4635736 0.8453721 0.59298605 -1.2037898 -0.3092963 -0.66619134 0.17740022
0.09033942 -0.09029394 -0.1308723 0.066196464 -0.061368752 -0.06290722 0.14286053 0.0023514032
0.16076687 -0.17537086 -0.0038858892 0.037765574 0.118420124 0.13351195 0.06728869 -0.09535074
0.068082504 1.7003456 1.951195 -0.5306564 0.13640599 -0.57086325 -1.123182 -0.8619526
0.0967191 -0.06164646 -0.13152073 0.01062913 -0.13180614 -0.14423166 0.033939388 0.14170237
0.12580016 0.007810116 0.12926586 -0.094996765 -0.088975005 0.027761746 -0.13215959 -0.1234165
0.15703757 0.016030265 -0.9671582 1.2671866 -0.33305463 -0.8981723 0.5167265 0.91105974
00000000: 8c99 6e3e 7efc aabf ebc5 433f fd04 3f3f
00000010: ec9b f33f eace a5bd 8483 cfbe 8d13 8d3d
00000020: 739e 3d3e 370d da3d fd69 95bd 9a49 853c
00000030: b555 3e3e 7724 f43d 2a2e 223e 2000 253e
00000040: dd2f 813d d0e8 bb3d 5a6f 82bc 377a c3bd
00000050: ad15 7c3d 1769 44be 93ab 703d e32a 03be
00000060: 1ab1 0e3d cd8d 19bf 1d1b f5bd 0322 7fbf
00000070: a5e7 b9be 31de 8140 1dcc 203f 7ecb b73e
00000080: 17af 37be 4208 3a3e a7d9 5fbd 1335 09bd
00000090: 1302 febd 2599 23be 7a69 21be 171b 39be
000000a0: 8ab8 1b3e 331f fbba 629b 32be b389 06be
000000b0: 6a26 0b3e 6a12 ab3d 1738 c0bd 67c5 db3b
000000c0: d391 843d 73e7 2a3d aa2f 4540 8128 2440
000000d0: fbfb 9f3e 9198 443f 5f08 a4bf 2d19 bd3f
000000e0: 7d80 c63f b39c eebd 4d56 0fbd c796 68bd
000000f0: 404d 90bc 5382 4b3d 4de1 ddbc 22b6 07be
00000100: 7a7c 10bd b0b4 a0bd 8bd9 4bbe a7e5 65bd
00000110: ed4b 15be d324 293d f7da 0b3e cfeb 403e
00000120: b231 123e 42b6 3dbe 6da1 03be 151e 89be
00000130: 0530 bc3f e6a6 a93f 8738 d9bf dd7c aebe
00000140: f0f4 d9bd 85d2 fabc 075f b0bd 482c 193e
00000150: 0770 a6bd c7aa 17bd 2d23 613d 00c4 433b
00000160: 4708 0f3e e75c b13c 27c1 debd 5aad fe3c
00000170: 1d2e febd e7f3 773c 0012 87bb 4d13 d7bc
00000180: a0ab 733d 53bc b7bd 07eb 743d 20dd f43d
00000190: a48d 62bf b734 ca40 95cf 3740 f854 ccbe
000001a0: 6e22 b4bf bb66 3f3e cac1 ef3d b582 093e
000001b0: 0d94 9cbd 53ec 3d3e bafb a63d 8d23 90bc
000001c0: 0d14 b63d e220 09be f7c1 3c3e b03c 2b3e
000001d0: b393 f13d 674b d53b f094 a33d 8d26 463d
000001e0: c0f3 e93d f30a 693d cd68 50bb 7dc9 eebd
000001f0: 9350 353e 7040 3640 1a49 adbf c5f0 033f
00000200: 0728 21bf 051a 20c0 8891 0c3d 6fb9 f4bd
00000210: 0a8d 30be 578f 813d 0394 943d a04f eb3d
00000220: ed67 1c3d 1340 3ebe 0ade fc3d 8d8b 13bd
00000230: b3f9 3f3c 0215 31be 80da 713d 1aea 1ebc
00000240: e773 4cbc 8d96 4cbe 8339 853d 4d12 183c
00000250: 05e7 183e ea76 1fbe a83f 77be 21ef 46be
00000260: 385f 683f b282 5ebd 18d4 813f af9f efbe
00000270: 05b9 56be 67be aeba 67f3 193d 130b 40be
00000280: 80b2 30be 004c 36bc e0d7 09bd f336 9e3d
00000290: f3c8 a5bd 8ddf 0d3d 137c 5c3d 854a 2c3e
000002a0: b57a 323e baa1 29be 6313 983d 5533 0f3e
000002b0: e35d 063e 9345 8b3d 0092 8dbd bae6 93be
000002c0: bb18 9dbf a2d0 92be db76 f3bf fea0 c2be
000002d0: db51 853f e000 643f b05e d33d 3826 3e3e
000002e0: 00ca 4dbb a7e9 e83c 70e3 cc3d add2 ecbd
000002f0: 7004 973d a7bd 2c3e 3323 203e d013 cabd
00000300: e7b0 d7bc 9a86 f0bb 4d69 16bd 0391 b7bd
00000310: 8dc3 46bd 73d1 223d 6fe6 09be 1589 293e
00000320: fca7 993c 8559 edbe 4e6a 583f efcd 173f
00000330: c915 9abf 165c 9ebe 848b 2abf 67a8 353e
00000340: e003 b93d 07ec b8bd 6303 06be 0392 873d
00000350: cd5d 7bbd 80d5 80bd 084a 123e 001a 1a3b
00000360: 12a0 243e 6b94 33be 67aa 7ebb 13b0 1a3d
00000370: 4086 f23d 5bb7 083e a7ce 893d 4047 c3bd
00000380: d76e 8b3d eda4 d93f c2c0 f93f 19d9 07bf
00000390: 03ae 0b3e 1824 12bf 6ec4 8fbf eda8 5cbf
000003a0: aa14 c63d 0081 7cbd 5fad 06be cd25 2e3c
000003b0: 30f8 06be 77b1 13be 0704 0b3d 6d1a 113e
000003c0: c2d1 003e 00ec ff3b 455e 043e aa8d c2bd
000003d0: 8738 b6bd 9a6c e33c d854 07be cac1 fcbd
000003e0: 75ce 203e e751 833c ae97 77bf 2c33 a23f
000003f0: 2386 aabe 9fee 65bf 3048 043f 363b 693f

model.0.bias f4 [128]
-0.30053934 0.69825697 1.4102045 -0.15060793 0.27471495 -0.15464729 -0.42848578 0.77010036
-0.67094314 -1.0519909 0.9072856 1.7819177 0.48390347 -0.8070109 -0.18262672 -0.81195676
-0.5225652 -0.7253384 0.18616545 -0.8214859 -1.1784635 -0.45920417 -0.38303527 -0.5685171
-0.32824394 -0.048488393 0.7178114 0.26205662 -0.024345664 -0.70564204 0.33659792 1.8312942
-0.2916247 0.2805751 -0.8042513 -0.49232298 0.41371936 -0.18721637 0.5054629 -0.67773384
0.29555568 -0.16636103 -0.9117675 0.40924558 0.55008423 -0.019727482 0.9045755 -0.45550528
-0.54224735 -0.352186 0.051629182 0.15462857 1.2196277 -0.2188945 -0.0033564747 -0.08931288
-0.64346236 -1.0155311 0.18223625 -0.2332103 0.10369411 -0.799584 0.29966453 0.1260018
0.13176996 -0.42395625 0.39037898 -0.12356009 0.77533656 -0.866436 -0.47539005 -0.4085007
0.36834654 -0.754006 -0.6264326 -0.21756272 -0.052980565 -0.06626655 0.12343354 0.24333172
0.54490364 0.5278553 0.524842 -0.4399558 -0.75956815 0.55800706 0.21135202 0.18607773
0.24187542 -0.628604 -0.87929094 -0.3055647 0.20766 0.38231957 0.4470956 -0.41955757
-0.4217169 -0.90953374 0.22846025 -0.08919928 0.19500498 0.45482388 -0.1967293 0.5203413
0.27748245 1.0857716 -0.36768502 -1.0178739 0.5001994 -0.22013102 -0.63892967 0.17124727
-0.48489058 0.82976013 -0.32326457 -0.44579357 0.34305245 0.23854503 -0.45155355 -0.41587472
-0.04507755 -0.83829206 0.35640988 -0.020326722 -0.78167355 0.8038066 0.45977423 0.4278363
00000000: 4be0 99be f8c0 323f 9581 b43f f738 1abe
00000010: 70a7 8c3e dc5b 1ebe 7d62 dbbe 4c25 453f
00000020: eec2 2bbf a3a7 86bf de43 683f e115 e43f
00000030: 32c2 f73e 4498 4ebf 8002 3bbe 66dc 4fbf
00000040: d5c6 05bf c7af 39bf 28a2 3e3e e64c 52bf
00000050: e4d7 96bf cf1c ebbe 331d c4be 568a 11bf
00000060: 970f a8be c49b 46bd 7dc2 373f 492c 863e
00000070: 8f70 c7bc f5a4 34bf 9056 ac3e d967 ea3f
00000080: d54f 95be 8aa7 8f3e 6ae3 4dbf c211 fcbe
00000090: 06d3 d33e a6b5 3fbe 0466 013f f77f 2dbf
000000a0: 1353 973e 8c5a 2abe 9869 69bf a388 d13e
000000b0: 52d2 0c3f 879b a1bc 4392 673f fd37 e9be
000000c0: b9d0 0abf b951 b4be 1f79 533d f456 1e3e
000000d0: c31c 9c3f e125 60be 4df8 5bbb ace9 b6bd
000000e0: f3b9 24bf ecfc 81bf 249c 3a3e aece 6ebe
000000f0: 945d d43d 89b1 4cbf a16d 993e 9e06 013e
00000100: b4ee 063e cb10 d9be c1df c73e 130d fdbd
00000110: 757c 463f c0ce 5dbf 5366 f3be 0127 d1be
00000120: eb97 bc3e 8a06 41bf e35d 20bf c3c8 5ebe
00000130: 2602 59bd c2b6 87bd b9ca fc3d f32b 793e
00000140: ce7e 0b3f 8621 073f 0c5c 063f e341 e1be
00000150: 0f73 42bf 8dd9 0e3f aa6c 583e 298b 3e3e
00000160: 31ae 773e 31ec 20bf 3619 61bf fa72 9cbe
00000170: d3a4 543e 64bf c33e b7e9 e43e 40d0 d6be
00000180: 47eb d7be 34d7 68bf 7cf1 693e 1dae b6bd
00000190: 63af 473e adde e83e 6873 49be 1635 053f
000001a0: 2e12 8e3e 90fa 8a3f 3641 bcbe b149 82bf
000001b0: 110d 003f 076a 61be e590 23bf 725b 2f3e
000001c0: 9443 f8be 296b 543f ef82 a5be 0e3f e4be
000001d0: 92a4 af3e 2645 743e 0732 e7be 88ed d4be
000001e0: 3da3 38bd 4f9a 56bf 5b7b b63e 3a84 a6bc
000001f0: c21b 48bf 45c6 4d3f 8767 eb3e 5c0d db3e

model.2.weight f4 [128, 128]
0.5601901 0.17761797 0.53651917 -1.1949452 0.56385833 -0.30329424 0.30355823 -1.3247474
0.15790476 0.6235683 -0.19500308 0.5334496 -0.4678522 -0.21905383 -0.2772947 0.46625233
-0.93177146 1.052848 -0.38622248 0.0850892 -0.19847949 -0.65523005 0.3050743 -0.5797562
1.436178 0.5242781 -0.05000221 0.84119326 -0.24780507 -0.26475027 -0.16210935 0.6397807
-1.0260787 0.9391847 -0.2858545 -0.29844123 0.2554858 -0.066701405 -0.17052981 -0.17880465
-0.016055137 -0.36869013 0.63359374 0.40367374 0.65127385 -0.7562085 0.19650379 -1.102142
-0.5651153 -0.09121667 0.49632263 0.52828795 0.38779575 -0.17395777 -0.45605266 -0.18161757
0.46115345 -0.013196787 0.97879136 -0.17473982 -0.26320255 -0.4723434 0.03603901 -0.049024384
0.8370773 -0.12471625 0.5553254 0.13280512 -0.005223448 0.388443 0.2147347 0.18624432
-0.36424458 0.043322116 -0.113205954 0.115474515 -0.40613803 0.06991009 -0.46206632 0.0524129
-0.17246963 -0.03893549 -0.11650787 -0.8130501 -0.50860333 -0.1962522 -0.6730646 -1.4570961
0.8119937 -0.4672501 -0.78719777 0.042105164 -0.24617036 -1.1803055 -0.3572483 0.04055909
-0.34989998 -0.019583574 -0.43055394 -0.010338967 0.82650715 -1.6183213 0.25565514 0.020687269
-0.05168286 0.11214963 -0.12120709 0.13942079 -0.029713687 0.6517238 -0.09216794 0.7657276
-0.30905426 0.17002754 -0.20846066 -0.69407666 -0.3172147 -0.3185408 -0.25736517 1.2142692
0.22959904 -0.20112373 -0.6719777 0.51522285 0.4249659 -0.21558852 0.8011902 0.18749975
0.09807927 1.95255 0.26156124 0.5701133 0.4187612 -1.3645916 0.34477258 0.12397161
0.16581027 -0.41344112 -0.06251959 0.32942244 0.6473378 -0.11827359 0.5017813 -0.51644325
-1.3580053 -0.45654202 0.80592763 -1.0301998 -1.5701886 -0.27140346 0.11611471 -0.18659408
-0.4435778 0.23460215 1.0741452 1.041187 -0.23771298 -0.9868385 -0.08371208 0.3348991
-0.049835045 0.093898475 -0.2677381 -1.7769599 0.17578822 -0.06747992 0.9233658 -0.16062461
-0.23114023 -0.15551405 -2.0238001 0.9735347 0.29852852 0.16198978 2.182177 -1.370992
-0.27190652 0.13556446 -0.7131402 0.56082034 0.33924618 0.13241723 -0.44138592 -0.506444
0.62584347 -0.88756394 -0.06934846 0.32436612 -0.27140427 -0.3309514 0.36566532 0.6720106
-0.56314933 0.044755578 0.17883705 -1.3095683 1.2821326 -0.44476894 -0.49026442 0.21338919
-0.63875806 -1.4782364 -0.21610482 0.7501203 0.15546636 1.1419806 -0.27171543 -0.30932966
0.5610868 -0.012758974 -0.5664868 -0.16856307 -0.27293357 -0.20842132 -0.2015587 0.12809625
1.2417969 -0.22490548 -0.33986858 1.6916131 -0.82529026 0.51697165 -0.052548606 0.41426915
0.1287578 0.7224328 0.28892362 -0.6265682 -0.016753322 0.23208614 0.42961186 0.9077812
-1.2927648 1.3609053 -0.09167661 1.3070915 -0.2283154 0.20854451 -0.14549008 -0.259624
0.027402028 0.24149925 -0.06943364 -0.24912284 0.8364638 0.00063859264 -0.31778908 -0.6980786
1.082902 -0.16409646 0.6331777 -0.29532927 -0.067814656 2.647067 0.2838531 -0.104201995
00000000: 9e68 0f3f 7ce1 353e 5259 093f f7f3 98bf
00000010: 0559 103f 6249 9bbe fc6b 9b3e 5391 a9bf
00000020: c9b1 213e 2ca2 1f3f e3ae 47be 2790 083f
00000030: 538a efbe a64f 60be 92f9 8dbe a0b8 ee3e
00000040: 9388 6ebf b9c3 863f f4be c5be 3f43 ae3d
00000050: 353e 4bbe 28bd 27bf b332 9c3e e76a 14bf
00000060: aed4 b73f 1737 063f 1ecf 4cbd 7158 573f
00000070: 9dc0 7dbe 598d 87be feff 25be abc8 233f
00000080: 8c56 83bf 696e 703f 855b 92be 4acd 98be
00000090: 09cf 823e bf9a 88bd 5e9f 2ebe 9118 37be
000000a0: 1086 83bc f4c4 bcbe 3333 223f 53ae ce3e
000000b0: e2b9 263f e196 41bf 4a38 493e fd12 8dbf
000000c0: 65ab 10bf cecf babd 001e fe3e e13d 073f
000000d0: 2a8d c63e fc21 32be bc7f e9be f5f9 39be
000000e0: 4e1c ec3e 5637 58bc 1292 7a3f ffee 32be
000000f0: 7cc2 86be fed6 f1be a49d 133d cbcd 48bd
00000100: b34a 563f 3c6b ffbd ce29 0e3f 11fe 073e
00000110: 7529 abbb 00e2 c63e 6ae3 5b3e d5b6 3e3e
00000120: 447e babe 8872 313d 86d8 e7bd e77d ec3d
00000130: 53f1 cfbe 052d 8f3d f593 ecbe e9ae 563d
00000140: e19b 30be d27a 1fbd ae9b eebd 0d24 50bf
00000150: d433 02bf 56f6 48be f64d 2cbf 2082 babf
00000160: d2de 4f3f 683b efbe cb85 49bf 7776 2c3d
00000170: 1514 7cbe 4014 97bf 40e9 b6be 4a21 263d
00000180: 1726 b3be bb6d a0bc 9171 dcbe c564 29bc
00000190: f995 533f 2725 cfbf 3be5 823e 5978 a93c
000001a0: 68b1 53bd b5ae e53d 6c3b f8bd 53c4 0e3e
000001b0: 1e6a f3bc 5fd7 263f 8cc2 bcbd b906 443f
000001c0: 5c3c 9ebe b31b 2e3e b676 55be 02af 31bf
000001d0: f769 a2be c817 a3be 5ec5 83be 2c6d 9b3f
000001e0: 031c 6b3e 61f3 4dbe bb06 2cbf a5e5 033f
000001f0: 2195 d93e 3dc3 5cbe cd1a 4d3f efff 3f3e
00000200: c9dd c83d 29ed f93f 5beb 853e f2f2 113f
00000210: de67 d63e f0aa aebf 0886 b03e d4e4 fd3d
00000220: 2bca 293e 8eae d3be 450a 80bd 0faa a83e
00000230: eeb7 253f 6d39 f2bd bd74 003f a035 04bf
00000240: 1ed3 adbf e0bf e9be 4651 4e3f 96dd 83bf
00000250: f1fb c8bf 65f5 8abe 8dcd ed3d 8512 3fbe
00000260: a11c e3be 8c3b 703e 977d 893f 9e45 853f
00000270: 086b 73be 73a1 7cbf 3d71 abbd e577 ab3e
00000280: d51f 4cbd d84d c03d f814 89be 6c73 e3bf
00000290: d401 343e ea32 8abd b361 6c3f c77a 24be
000002a0: 06b0 6cbe 133f 1fbe f185 01c0 9239 793f
000002b0: bbd8 983e a6e0 253e caa8 0b40 aa7c afbf
000002c0: 5537 8bbe 69d1 0a3e 5b90 36bf ec91 0f3f
000002d0: adb1 ad3e 6298 073e 56fd e1be 50a6 01bf
000002e0: 4737 203f 6437 63bf 9106 8ebd 5113 a63e
000002f0: 80f5 8abe 7672 a9be 7c38 bb3e e308 2c3f
00000300: 8e2a 10bf a051 373d 0f21 373e ef9f a7bf
00000310: ec1c a43f c1b8 e3be f003 fbbe b282 5a3e
00000320: a685 23bf da36 bdbf 954a 5dbe e207 403f
00000330: 9332 1f3e 6c2c 923f 491e 8bbe 7560 9ebe
00000340: 62a3 0f3f 040b 51bc 4705 11bf cc9b 2cbe
00000350: f3bd 8bbe 666c 55be 6765 4ebe aa2b 033e
00000360: 33f3 9e3f 9f4d 66be 4103 aebe c786 d83f
00000370: 3946 53bf 4158 043f 353d 57bd 161b d43e
00000380: 16d9 033e 5bf1 383f cced 933e c666 20bf
00000390: 433e 89bc fda7 6d3e 16f6 db3e 5964 683f
000003a0: 5179 a5bf 2532 ae3f f2c0 bbbd c64e a73f
000003b0: 83cb 69be b18c 553e 5afb 14be 70ed 84be
000003c0: 387a e03c 944b 773e 3933 8ebd 0f1a 7fbe
000003d0: 7e22 563f 3a67 273a 40b5 a2be 47b5 32bf
000003e0: 889c 8a3f e708 28be ef17 223f 6635 97be
000003f0: 69e2 8abd 8c69 2940 3255 913e db67 d5bd

model.2.bias f4 [128]
0.49295652 0.18463401 0.21771385 0.55377436 -0.12051306 0.34632835 -0.78658694 -0.44974294
0.2697429 -0.22110067 0.16388457 -0.2773554 -0.21117723 -0.25496644 0.4885528 -0.28642836
-0.2474182 -0.5740422 0.2609063 0.21992578 0.3473499 0.9697059 -0.018376714 -0.2757351
-0.12342187 0.5045361 -0.21275684 -0.012014694 -0.7993681 0.37297267 -0.23563106 0.6747782
0.4370087 -0.21542415 0.5956274 -0.4303183 -0.9532946 -0.052389085 0.155589 0.5454828
0.18851995 0.28988582 0.9430595 1.0502844 0.055659343 0.21369986 0.5061177 0.56244296
-1.0940065 0.57654387 0.14376995 0.31735525 -0.27271986 0.38280034 0.03890204 0.2615295
0.22574015 0.21271423 0.32050386 -0.1433115 -0.34849912 -0.23492728 0.04293065 0.286026
0.69098926 -0.8098219 0.6905493 0.22480243 0.5504097 -0.3077628 -0.70360065 -0.056084394
-0.5537372 0.9333637 0.10269555 -0.15387936 -0.32692686 -0.25040713 -0.4914834 0.52733463
-0.14100233 0.35599312 0.58279055 0.37443665 0.4518721 -0.35308146 0.5598953 0.12217295
0.33206406 -0.22924303 -0.29988065 0.033522446 0.581639 0.0124640325 -0.68632215 -0.10138285
0.12191597 -0.64294916 0.07220391 -0.3615137 -0.11320522 -0.4152531 -0.19133845 0.03521885
-0.2204806 -0.22039944 0.33033368 0.22344725 0.2739451 0.24263693 -0.1562294 -0.4160434
0.1209244 -0.18711922 -0.32658216 0.07350692 -0.47295126 -0.20238344 0.004949348 0.40300846
-0.33266845 0.22146867 -0.29728478 -0.42240772 -0.44047743 -0.40400815 -0.182072 0.6640412
00000000: cc64 fc3e b310 3d3e 61f0 5e3e 28c4 0d3f
00000010: 8dcf f6bd f351 b13e c35d 49bf b544 e6be
00000020: be1b 8a3e 3768 62be 5bd1 273e 8701 8ebe
00000030: d83e 58be f68a 82be 9823 fa3e bda6 92be
00000040: 325b 7dbe 6ef4 12bf 8395 853e 3934 613e
00000050: d9d7 b13e a53e 783f c38a 96bc 272d 8dbe
00000060: 9bc4 fcbd 4729 013f eedc 59be 47d9 44bc
00000070: 63a3 4cbf 46f6 be3e 4549 71be 44be 2c3f
00000080: 9bbf df3e 2698 5cbe 0a7b 183f ae52 dcbe
00000090: 1d0b 74bf f095 56bd b952 1f3e c3a4 0b3f
000000a0: 600b 413e ea6b 943e 596c 713f b86f 863f
000000b0: 0dfb 633d 23d4 5a3e ee90 013f 43fc 0f3f
000000c0: 6808 8cbf 6198 133f 6e38 133e 637c a23e
000000d0: f0a1 8bbe 68fe c33e bf57 1f3d 32e7 853e
000000e0: 6d28 673e c2d1 593e 1519 a43e 40c0 12be
000000f0: 7a6e b2be c790 70be 0dd8 2f3d 0072 923e
00000100: ace4 303f 7d50 4fbf d7c7 303f 9c32 663e
00000110: a6e7 0c3f 1693 9dbe 2c1f 34bf c0b8 65bd
00000120: b9c1 0dbf ecf0 6e3f 0b52 d23d 8d92 1dbe
00000130: f562 a7be 5d35 80be b6a3 fbbe 67ff 063f
00000140: ea62 10be bb44 b63e c331 153f 29b6 bf3e
00000150: c85b e73e 18c7 b4be 4c55 0f3f d035 fa3d
00000160: 4d04 aa3e afbe 6abe f589 99be d54e 093d
00000170: 4be6 143f f135 4c3c cfb2 2fbf d0a1 cfbd
00000180: 15af f93d 5198 24bf a5df 933d 5318 b9be
00000190: 23d8 e7bd 0e9c d4be 3aee 43be a441 103d
000001a0: abc5 61be 64b0 61be 7f21 a93e 5bcf 643e
000001b0: 8842 8c3e d175 783e 9afa 1fbe a403 d5be
000001c0: 36a7 f73d 2e9c 3fbe c735 a7be cc8a 963d
000001d0: ab26 f2be 9b3d 4fbe 242e a23b 2057 ce3e
000001e0: 8553 aabe afc8 623e b635 98be d345 d8be
000001f0: 4286 e1be 28da cebe 1571 3abe 9bfe 293f

model.4.weight f4 [5, 128]
-8.653318 3.1481073 -2.1572855 0.7004651 1.3443769 -5.455327 0.556664 -0.66072124
0.890752 1.4143256 -9.2324095 -5.581084 9.418251 -3.0061772 1.7817794 12.470973
-3.7485166 -0.8259536 1.5427707 7.290188 1.8580878 4.7021956 -0.8973293 -4.4966373
-2.5738199 -2.4658725 1.5572433 -4.3756 -3.9353137 -13.751435 0.72534287 4.989374
6.7876854 -3.5220237 -2.05892 -3.8293455 -4.456796 -1.4516864 2.3045342 8.742101
-0.584957 3.1280568 4.9225793 5.1652083 -9.199953 1.353936 6.6216893 4.0497966
-4.5111413 4.1556635 1.581424 3.9746592 -2.5882409 2.989822 3.0480473 2.1500003
3.025435 -7.769345 -0.09647829 -1.4428389 12.712925 -1.7054245 -0.43731615 -0.31656492
4.1002707 -3.2548125 10.641087 4.0005 -11.467543 -2.0846019 -3.0914214 -1.6870852
-3.2961354 4.6267705 -1.6822488 1.3952167 -3.6210458 -1.9678396 -3.5685618 3.88585
-2.6932003 3.7749636 3.8021843 3.8199472 2.4553344 -3.2755327 5.510016 6.0522184
2.1833231 -0.80193925 0.98343307 -1.5815747 3.4168606 -0.30753845 -3.688486 -9.427219
13.156277 0.7476464 6.9529953 -1.7922924 -2.909758 6.2841887 -2.649929 3.4352171
-0.0834155 15.334177 2.1805978 1.1465063 4.4141665 -0.06842467 -0.63395077 -3.5549104
16.20159 0.8750753 -3.993157 -12.5496645 -2.7350254 -2.2908306 8.892153 -9.747429
13.44188 3.0166643 -3.4940078 5.432804 -12.543635 4.377013 -3.9821272 6.484057
16.277954 5.2346077 3.4318557 1.3394111 -2.7051466 4.0731363 -1.1899071 0.11663979
-14.253425 0.3734996 -10.395123 -13.154934 1.9046208 -3.5518923 0.17737274 11.39711
-3.2361605 -0.23493342 3.268645 3.2912433 3.2103224 2.0994549 9.356358 -4.832203
-3.0291739 -1.3969045 -0.44441146 -6.676119 -1.9856392 3.0094879 -0.8867675 -17.773287
4.6484294 -11.643181 -0.41135383 9.977847 -1.7775419 -1.5099669 0.5620274 -16.605764
0.17553404 2.7513957 2.3933125 2.002193 -10.574682 8.567315 3.0884602 1.1277562
-1.9331398 1.4466372 1.3445879 3.7193265 0.5637399 3.327163 1.9099715 2.1962454
3.098476 18.40545 1.6848887 -5.0404863 -11.771527 -1.9294156 -2.573183 0.939453
1.5475821 -0.1297366 8.592007 4.5368795 10.261296 -3.1402583 -2.6731045 -1.5668718
-1.4078662 2.0789819 -0.5455822 1.1517681 -3.2535613 -1.5517421 7.7280755 1.4469935
1.9972143 3.7173593 1.0860701 3.6965418 0.43819574 -2.2615933 13.982478 3.3736002
3.0228355 -2.7302136 -1.0148902 -0.13855933 1.7836117 0.8747389 -1.8999751 16.9242
2.6761425 11.14906 1.5071226 3.1324193 -1.8159492 -3.6358395 -1.7105523 3.2536914
-1.044476 1.3919083 1.6107988 0.23078646 3.4013793 -1.9749855 7.5500116 6.3706756
-5.6792097 12.316559 -6.087786 -12.13581 7.510867 -1.9433421 -2.826538 -9.723476
-7.04616 2.533866 -2.6231437 -1.059273 -6.8587046 16.711617 -4.121544 2.0209572
00000000: fe73 0ac1 977a 4940 f710 0ac0 ae51 333f
00000010: 8b14 ac3f 0a92 aec0 8881 0e3f 0725 29bf
00000020: 5308 643f 9f08 b53f f3b7 13c1 3d98 b2c0
00000030: 28b1 1641 3565 40c0 5911 e43f 1b89 4741
00000040: b2e7 6fc0 b271 53bf 8379 c53f 3849 e940
00000050: d2d5 ed3f 6378 9640 5fb7 65bf 74e4 8fc0
00000060: 77b9 24c0 dbd0 1dc0 c053 c73f ea04 8cc0
00000070: 2edc 7bc0 e105 5cc1 12b0 393f f4a8 9f40
00000080: b834 d940 d668 61c0 58c5 03c0 ff13 75c0
00000090: 139e 8ec0 dcd0 b9bf 7d7d 1340 a5df 0b41
000000a0: bebf 15bf 1532 4840 c585 9d40 6349 a540
000000b0: 0233 13c1 c64d ad3f e1e4 d340 ef97 8140
000000c0: 455b 90c0 32fb 8440 1a6c ca3f d160 7e40
000000d0: bda5 25c0 3e59 3f40 3513 4340 9b99 0940
000000e0: baa0 4140 799e f8c0 6996 c5bd f2ae b8bf
000000f0: 2468 4b41 5a4b dabf e7e7 dfbe cc14 a2be
00000100: 6b35 8340 d94e 50c0 e441 2a41 1904 8040
00000110: 0e7b 37c1 1e6a 05c0 d9d9 45c0 68f2 d7bf
00000120: e2f3 52c0 810e 9440 ee53 d7bf 7696 b23f
00000130: 37bf 67c0 2be2 fbbf 5163 64c0 c4b1 7840
00000140: 655d 2cc0 0199 7140 fd56 7340 047a 7440
00000150: 3324 1d40 54a2 51c0 0d52 b040 c6ab c140
00000160: 91bb 0b40 e44b 4dbf 45c2 7b3f 0a71 cabf
00000170: d8ad 5a40 ae75 9dbe 2810 6cc0 e4d5 16c1
00000180: 1c80 5241 c165 3f3f f07e de40 d669 e5bf
00000190: 7a39 3ac0 1318 c940 7098 29c0 99da 5b40
000001a0: bfd5 aabd ca58 7541 ea8e 0b40 b8c0 923f
000001b0: da40 8d40 3c22 8cbd 994a 22bf a783 63c0
000001c0: db9c 8141 ef04 603f e28f 7fc0 6dcb 48c1
000001d0: a80a 2fc0 f89c 12c0 4246 0e41 78f5 1bc1
000001e0: f111 5741 0711 4140 d39d 5fc0 88d9 ad40
000001f0: bbb2 48c1 7e10 8c40 2cdb 7ec0 657d cf40
00000200: 4039 8241 e881 a740 86a3 5b40 d371 ab3f
00000210: 1f21 2dc0 2257 8240 e04e 98bf d8e0 ee3d
00000220: 070e 64c1 573b bf3e 6c52 26c1 9c7a 52c1
00000230: 9dca f33f 3452 63c0 33a1 353e 905a 3641
00000240: 411d 4fc0 6392 70be 7b31 5140 bba3 5240
00000250: ec75 4d40 785d 0640 a4b3 1541 68a1 9ac0
00000260: fcdd 41c0 c4cd b2bf e689 e3be c4a2 d5c0
00000270: 6d29 febf 739b 4040 3203 63bf b12f 8ec1
00000280: efbf 9440 784a 3ac1 f89c d2be 43a5 1f41
00000290: 7e86 e3bf 9846 c1bf 07e1 0f3f 9bd8 84c1
000002a0: 32bf 333e de16 3040 082c 1940 ee23 0040
000002b0: e631 29c1 b913 0941 55a9 4540 515a 903f
000002c0: 2071 f7bf 682b b93f 751b ac3f 7209 6e40
000002d0: 4251 103f 3df0 5440 f279 f43f 498f 0c40
000002e0: 6e4d 4640 5d3e 9341 6faa d73f aa4b a1c0
000002f0: 2d58 3cc1 17f7 f6bf 08af 24c0 fe7f 703f
00000300: 2c17 c63f acd9 04be dc78 0941 1e2e 9140
00000310: 452e 2441 fef9 48c0 2514 2bc0 418f c8bf
00000320: f634 b4bf 0a0e 0540 46ab 0bbf 236d 933f
00000330: 593a 50c0 7c9f c6bf 654c f740 1537 b93f
00000340: b8a4 ff3f 37e9 6d40 5804 8b3f 2494 6c40
00000350: 315b e03e f2bd 10c0 3bb8 5f41 11e9 5740
00000360: 2376 4140 d2bb 2ec0 ece7 81bf 7fe2 0dbe
00000370: 634d e43f e3ee 5f3f 6232 f3bf c364 8741
00000380: eb45 2b40 8d62 3241 65e9 c03f 8f79 4840
00000390: 0671 e8bf 98b1 68c0 61f3 dabf 7b3c 5040
000003a0: 64b1 85bf 0d2a b23f a82e ce3f 4953 6c3e
000003b0: 33b0 5940 53cc fcbf b299 f140 93dc cb40
000003c0: 16bc b5c0 a010 4541 25cf c2c0 472c 42c1
000003d0: 0659 f040 6fbf f8bf 00e6 34c0 5c93 1bc1
000003e0: 257a e1c0 dc2a 2240 96e1 27c0 4296 87bf
000003f0: 827a dbc0 64b1 8541 b0e3 83c0 5d57 0140

model.4.bias f4 [5]
6.053297 3.881332 3.2710068 3.5229363 65.93711
00000000: 9cb4 c140 be67 7840 2d58 5140 ca77 6140
00000010: cddf 8342
