results/palindrome/ql_2.pt (torch, 84325 bytes, 6 tensors)

model.0.weight f4 [128, 25]
00000000: 0fd3 95be fbf8 683e e193 453f 7345 913e
00000010: b460 013f 88c6 69bf b8bc 59bf a7c8 18be
00000020: adc0 7abd 708d dd3d 0d3d 09bd c233 4abe
00000030: dffa 06be 0dc0 d53c 9723 aa3d 105a 4a3e
00000040: a7cb d4bd 4d2c 5f3c 1092 d03d 0d60 a63d
00000050: c277 273e 6700 83bb fa92 dd3d 07d8 01bd
00000060: d2b6 213e 3b32 6bbf 6946 20c0 0d62 bb3e
00000070: 96a6 17c0 5dd3 fbbf 0169 04c0 3683 02c0
00000080: 337e fabd 75e3 10be 65ff 1e3e 9aa7 acbc
00000090: edd7 923d f73f 3cbe 0a7c 943d 5aad 12bd
000000a0: 301e 26be 4ae6 8abd 7a44 873d 5387 b43d
000000b0: da3e 4cbe 439c 393e 45c5 4c3e 027b 0abe
000000c0: f7cb 373e 501a 97bd 1c44 943f d90d e53f
000000d0: 4495 08bf 5cf6 ed3f 8f26 0640 ba85 1b40
000000e0: 2c07 2240 6768 d1bd da9f 0d3e 800e 2b3d
000000f0: 1377 413e 6d06 f33d 20cf 163d 5a5e c3bd
00000100: e74d 02bd ad4e 783d c716 243e eaba 2d3e
00000110: 500f 4abe 5a83 eebc da07 a8bd 4d5d 43bd
00000120: 28f4 343e e70a 473e a875 2e3e 0f89 0bbf
00000130: 1052 8a3f a2b5 293f 35db b5bf b833 173e
00000140: 6d5d 0c3f 9d42 163f ada3 86bd 703b a3bd
00000150: b821 4cbe dfae 20be e205 19be e7b4 62bc
00000160: 43f7 4a3e 0754 103d 731e 2f3d dfa0 44be
00000170: f0ba b7bd fd11 d23d 9a24 8dbc 9d95 99bd
00000180: aabf e83d d317 c23d 7370 e8bd 0d20 8cbc
00000190: 58ce 5bbe 441f ffbd fab4 943f 0bb6 90be
000001a0: 5e30 c93f 36bb b0be 9ae0 ddbe 9ab2 a43c
000001b0: 7a15 0ebe c079 453d 204b b23d adc7 ac3d
000001c0: e31a a33d c74c 333e e74c 45bc 6a4b 4b3e
000001d0: d0aa 30be 8896 183e 6d16 983d d2dc 40be
000001e0: 7ac5 adbd e7f1 ef3c d0ad bebd 809b b83c
000001f0: b0a7 4b3e 88ea 113e f7a0 5f3f 72d9 d73e
00000200: a17f ae3d 29ee b53d b92c 42bf 69e1 28bf
00000210: f3b2 9b3d bdbb 89bd 70c5 c0bd 7786 0bbe
00000220: 1083 20be 9af8 98bc e3db a5bd 9a20 cebd
00000230: e523 00be 25d7 443e c2c7 103e 37e7 c03d
00000240: 4f79 353e 4061 85bd 4b1c 15be 3358 67bc
00000250: d31a 19be 8d8e 993d 80c6 223e 7bad c1bf
00000260: e851 923f b861 053d 5deb 1940 0c2d 90be
00000270: f4d5 afbe 20d4 c23d fd7a 8b3d 1a40 113c
00000280: 0560 0ebe caa1 f8bd a72b 443d f7d7 ba3d
00000290: aaca 123e 2d4e 13bd abe9 1d3e b30a 223c
000002a0: cdea ba3d 477b 5e3d 0526 483e ba2c dbbd
000002b0: 2d4e d63d 7a2f 65bd 2d39 4ebd ca9e b2be
000002c0: a489 9a3f 5540 a4be d913 71bf 8a2b 9740
000002d0: 798c 1a3f 7d5a 173f e791 5fbd 5a49 733d
000002e0: 8d4a f0bd af3a 01be 6704 253e f3b0 1dbd
000002f0: 3aa8 323e 0052 dabd 93a9 6c3d a718 c83c
00000300: 8035 2dbc f7ee 3ebe 13c9 453d bd5b 97bd
00000310: 3302 f13b 2de3 0dbd a711 54bd 4df5 c13d
00000320: 7270 f3be 3159 063f 2b9c b4bf b4fc 133e
00000330: cb34 65c0 e685 843d 34b9 6e3d e0d7 353e
00000340: 1a6f 823d e7ad 193e aa3d 94bd 8a39 9b3d
00000350: 00d6 0f3e 8750 54bd 1379 10bd cda7 ecbb
00000360: baca 5ebd ba1f f83d 3a02 ff3d 335d 1a3e
00000370: 739a 343e 6a4c 333e 408c 5a3d ea4a 95bd
00000380: 65f7 0dbe 5e7b 5d3f 8a6e d33e 76da a3bf
00000390: 68c5 45bf eae6 adbf 8fca 3f3e e3d0 f5bd
000003a0: 0a85 a2bd 93b8 db3d c3d6 e4bd d3ee bdbd
000003b0: cd4e 1c3b 2be0 2bbe cb18 403e cd3c deb9
000003c0: 40ce b8bc bde3 fd3d 9a71 a1bc 93ee 753d
000003d0: 6799 59bd 8ffe 493e b394 ae3d 7392 393e
000003e0: fa74 373e 4061 02be e4c5 cebe 5429 153f
000003f0: 4568 5dbf e816 c9c0 6e94 e3bf 8e46 063f
-0.29262587 0.22751229 0.7717877 0.28373298 0.5053818 -0.9131856 -0.85053587 -0.14920293
-0.061218906 0.10817993 -0.03350549 -0.19746307 -0.13181637 0.026092554 0.083075695 0.19760919
-0.10390406 0.013621402 0.10184109 0.08123789 0.16354278 -0.0039978507 0.10819049 -0.03170016
0.15792397 -0.9187352 -2.5042975 0.36598244 -2.3695426 -1.9673878 -2.068909 -2.0392585
-0.12231102 -0.14149268 0.15527113 -0.021076012 0.07170091 -0.18383776 0.07250221 -0.035809852
-0.16222453 -0.067822054 0.06604858 0.088148735 -0.19945851 0.18126015 0.19997127 -0.13523486
0.179489 -0.073780656 1.1583285 1.7894851 -0.5335276 1.8590808 2.0961034 2.430037
2.5316877 -0.10224991 0.1383051 0.041761875 0.1889308 0.1186646 0.036818624 -0.095394805
-0.031812575 0.060621906 0.16024314 0.16965833 -0.19732404 -0.029115368 -0.082046226 -0.0476964
0.17671263 0.19437753 0.1703707 -0.5450601 1.0806293 0.66292775 -1.4207522 0.14765823
0.54830056 0.58695394 -0.065741874 -0.07970321 -0.19934738 -0.15691708 -0.1494365 -0.013837076
0.19820885 0.035236385 0.042753648 -0.19201992 -0.089712024 0.10257337 -0.017229367 -0.074992396
0.11364682 0.094772 -0.11349573 -0.017105127 -0.21465433 -0.12457135 1.161773 -0.28263888
1.5717885 -0.3451783 -0.4333542 0.020104695 -0.1387538 0.048211813 0.08705735 0.08436523
0.079641126 0.17509757 -0.012042261 0.19852987 -0.1725266 0.14901173 0.074261524 -0.18834236
-0.08484931 0.029290153 -0.09310496 0.022535086 0.19888186 0.14249623 0.8735499 0.42158085
0.08520437 0.08883316 -0.7584949 -0.6596895 0.07602491 -0.06725261 -0.09412658 -0.13625513
-0.15674996 -0.01867323 -0.08098581 -0.10064812 -0.12513693 0.19222696 0.14138702 0.09419101
0.17722057 -0.065126896 -0.14561574 -0.014120149 -0.14951639 0.074978925 0.15896034 -1.5131067
1.1431246 0.032563895 2.4049904 -0.28159368 -0.3434292 0.09513116 0.068105675 0.008865381
-0.13903816 -0.12140234 0.047893193 0.09123223 0.14335123 -0.035963226 0.15421169 0.009890246
0.09126816 0.054316785 0.19545753 -0.1070189 0.104641296 -0.05595348 -0.050347496 -0.3488677
1.2073255 -0.3208033 -0.9417091 4.724065 0.60370594 0.5912245 -0.054582503 0.059396125
-0.117329694 -0.12620042 0.1611496 -0.03849883 0.17446986 -0.106601715 0.057778906 0.024425818
-0.010571837 -0.18645845 0.048287462 -0.073905446 0.0073549985 -0.03464048 -0.051774647 0.094706155
-0.47546726 0.52479845 -1.4110159 0.14451867 -3.5813472 0.064708516 0.058282092 0.17758131
0.06368847 0.15007745 -0.07238324 0.07579334 0.14046478 -0.05183461 -0.035271715 -0.007222152
-0.054392554 0.12115426 0.124515966 0.15074615 0.17637043 0.17509618 0.05335641 -0.07289679
-0.13863905 0.8651637 0.41295272 -1.2801044 -0.77254343 -1.3586094 0.18729614 -0.120027326
-0.079355314 0.10728564 -0.11173775 -0.09274068 0.002385068 -0.16784732 0.18759458 -0.0004238844
-0.022559285 0.12396953 -0.01970749 0.060041975 -0.05312481 0.19726013 0.08524456 0.18122272
0.17915717 -0.1273241 -0.40385354 0.58266187 -0.8648723 -6.284046 -1.7779672 0.5245141

model.0.bias f4 [128]
00000000: 0b75 68bf 4dac 01c0 d489 1c40 cec8 e83e
00000010: 4bec 05bf 97f4 2ebf a117 99be 458c f13e
00000020: f162 43bd 688b 023e f71c 273f a0f4 8fbe
00000030: 8359 8dbe 4a2a 4f3f e191 1c3f 7b01 573f
00000040: 0d21 56bf d904 e13d 8c76 7b3e 0464 d4be
00000050: 713e 68bd 6668 86bc a7fe c2bb ac8c 533e
00000060: 6322 453f 5334 14bf 1982 013f a915 533f
00000070: 168e 0f3f dc23 3e3f 7614 233f 4e00 3ebe
00000080: 9765 9fbe 625d 573f d204 0cbe c389 0b3e
00000090: d279 47bf e9eb fd3e 89a0 103e b715 b73e
000000a0: 940e 183f 801c 883e 7f88 773f b105 8abe
000000b0: 2f12 2b3e 3834 5dbf ce92 103f 0efe 0a3f
000000c0: 8fba 763f f7de 363f 1645 393e 57f1 4b3f
000000d0: 487d 463f be55 adbe 827f b7be d490 64be
000000e0: dea0 b03e ba4c 05bf 6bf3 7b3e 08c0 4140
000000f0: e35d 25bc 6929 213d ffac e03e adfb 4dbe
00000100: 39b8 103f 4ed5 4abf ace3 43bf b4d3 1cbf
00000110: 0491 4abf 4b52 743f 817d 1d3f a337 0c3e
00000120: aa9f 4c3e a10a 2e3f 30b8 a93f cff4 2c3f
00000130: 0f1f ecbe 8825 29bf 2d6d 873e a8dc 3b3f
00000140: af6f 473c 5f78 2dbf 35b1 273f 8e7b 4f3f
00000150: 587f b43e b487 063f 9db8 acbe b50c 173f
00000160: da10 cdbe 1b30 873e ed62 0ebf 31fb ea3e
00000170: 99db 3cbc cd2e c8be 286a 20bf 891d 0d3e
00000180: 9672 563f a251 57be 4e35 8e3e ec56 2cbf
00000190: 51d5 7ebf e164 81bf 6d25 45bf c889 5bbf
000001a0: 282f b1be 1334 283f 1f0f fa3e 14d9 21be
000001b0: 68c2 c8be 870d 8b3f f096 b93a a85e 39bf
000001c0: 6b7b 783d 42b3 cebc c54d 0abf 505f 283e
000001d0: 6598 21bf 0580 acbf d699 193f 5585 8f3e
000001e0: ed57 113f c25b c7bf 3e40 d23d 57ef 453f
000001f0: cc35 383e e29c bdbd cd63 2c3f c5ed 0b3f
-0.90803593 -2.0261414 2.4459124 0.45465702 -0.5231368 -0.68341964 -0.2990084 0.4717733
-0.04770178 0.12748492 0.6527857 -0.28116322 -0.27607355 0.80923903 0.61160094 0.83986634
-0.8364418 0.10987253 0.24556941 -0.41482556 -0.056700174 -0.016407203 -0.005950767 0.20659131
0.77005595 -0.5789234 0.5058914 0.82454926 0.5607618 0.7427347 0.63703096 -0.18554804
-0.31132194 0.84126866 -0.13673714 0.1362677 -0.7792026 0.49594048 0.1412374 0.35758755
0.59397244 0.26584244 0.9669265 -0.26957467 0.16706155 -0.86407804 0.56474006 0.54293907
0.96378416 0.7143397 0.1809276 0.7966513 0.77534914 -0.3385448 -0.35839468 -0.22320873
0.34497732 -0.520702 0.24604575 3.0273457 -0.010093185 0.039346132 0.43881986 -0.20115538
0.565311 -0.7923173 -0.76519275 -0.61260533 -0.79127526 0.9543807 0.6151963 0.13693099
0.19982782 0.6798497 1.3259335 0.6756105 -0.46117446 -0.66072893 0.26450482 0.7338357
0.012172624 -0.67761797 0.6550477 0.81047904 0.35253406 0.52550817 -0.337346 0.59003764
-0.4005192 0.2640389 -0.556197 0.4589477 -0.011526966 -0.39098206 -0.6266198 0.13780798
0.83768594 -0.21027234 0.27775043 -0.6732013 -0.99544245 -1.0108911 -0.7701023 -0.8575711
-0.3460629 0.6570446 0.4883966 -0.15805465 -0.3921082 1.0863503 0.0014159363 -0.7241006
0.060664576 -0.025231961 -0.54024917 0.16442609 -0.6312316 -1.3476568 0.6000036 0.28031412
0.5677479 -1.5574877 0.102661595 0.7731833 0.17989272 -0.09258439 0.67339784 0.5465968

model.2.weight f4 [128, 128]
00000000: 8290 24bf c7c4 71bf 010c 623f 8526 1e3e
00000010: d9c3 6a3d 6c04 35bf 9574 b93e 4dac 6d3f
00000020: 7485 b6bc dab1 743b 838e 3dbf 78f8 62be
00000030: 503c 883d 80ba 4abe da69 1340 a0e4 09bf
00000040: e4a6 f8bf 7284 71bf 6c9b 6abf aaad 3ebf
00000050: eb7f 5c3f 9b54 d23d 5b50 82be 0622 9ebe
00000060: 331d 70be 227b dfbe 0c17 e03f 4bb2 3140
00000070: 020f 623f b108 a93f 94fb d83f 167b 61be
00000080: f207 59bf 8699 8c3f 212c 2ec0 f2f8 fd3e
00000090: ec2a 4cbd 2a3d 83be 19da e43e 4be5 5dbf
000000a0: 83d1 fb3e d9f7 0cc0 bc02 973f 059c 613f
000000b0: 4b69 2740 0274 25bf ccbf c93f ec2d ed3f
000000c0: c9f7 563f 4d58 863e 4b4a 083f 88d1 4fbf
000000d0: 1b05 1dbf 23cf 193e 84bd 4840 9e12 17bf
000000e0: dea2 0c3f 3bbd edbe 5011 813d e7c8 583f
000000f0: 2f4d d7bf 2218 f6bd 42b8 ff3f aa17 12be
00000100: a8be 47c0 4f49 f7be 7cbd 4fbf 914f 543f
00000110: 44d9 54bf 63b0 ebbe fab9 113f 7720 423e
00000120: 4856 ccbe e7d5 57bf 5695 583f 041b 853f
00000130: 6f3a c23c 0e82 fc3e aaa3 663e b459 a73f
00000140: 1ad4 4b3f b713 da3e 1b85 cc3f f51c a53f
00000150: 939e b73f 5f62 4e3f 6b35 18bf 1813 483f
00000160: 2646 16c0 8890 1cc0 8ff2 0fbf 03d2 e53e
00000170: c190 c33c f69c 47bd 3b5c 2dc0 b87e de3d
00000180: 5c19 4bbf f867 523f 302f 0ebf dea7 b5be
00000190: 23bb e13d 4837 78bf 1a28 19bf 66b2 433f
000001a0: 22c9 06c0 6a4d 5a3e 455a 5040 261a 293f
000001b0: a31d babf 2dde 873f 4181 ccbf 3d91 e6be
000001c0: 183e d43e e1e2 93be e708 063f bddb 853d
000001d0: 9500 0bc0 77c1 2a3f 4c46 0dbf 28d8 22bf
000001e0: f04e 2e3f 207e 63bf da7d b33d 5cb5 143f
000001f0: 5a11 e0be 3785 573f 4391 f03e 960a 0040
00000200: 61b3 aa3f 88cc ac3e dc05 a6be 4793 1ebf
00000210: 4287 7c3f b6d7 6e3f 5cca 84bf dd69 e2bd
00000220: 30ae 713f f5d6 b3be 7585 1a3e 5a54 c43f
00000230: 083f 46bf 0687 45bf f9b7 c13e 7140 b73d
00000240: cfe4 b7bd 8c99 8b3e 0de0 8c3e 7a82 b6bd
00000250: 08ee 8fbe 1e44 eb3e ba62 5fbd 3b49 17c0
00000260: 26f9 0ebf 99a2 053f e0ec ecbf f56a 1b40
00000270: b115 623c 3a90 b7be fd56 1fbf 1d19 9e3f
00000280: 57dd b83e 3b5e b2be 74e3 92be 534f 7f3e
00000290: 4e34 963e 5256 49bf cf8c 2c3f e40a b93e
000002a0: 3a7a 35bf cc15 ea3e 3c48 22bf 172b 56be
000002b0: 570a 5a3f 3ec0 ce3f 8d54 05c0 3257 803e
000002c0: 92a8 62c0 54d6 8e3d acb9 3b3f 1e48 ddbe
000002d0: b973 12bf 4b2c 663f d602 493f 05a9 28be
000002e0: caef 93bf 6385 f2be 934e 76bf 6ce1 a7be
000002f0: 949b 44be 9a59 143f 4771 59c0 ee6d 393f
00000300: 2e83 e8be cb6c 673f 5567 1740 be91 94be
00000310: e94e 7b3f 2975 2fbf 9248 7dbf 5771 a9bf
00000320: 7084 e4be fbc2 22bf a637 b2bf e041 1bbf
00000330: 0987 503f 7920 c9be 0775 5dbf 915f d6bb
00000340: 8371 7c3e 4e4b 06be 16fe 2cbf 6bf2 4cbe
00000350: d043 133f 2d42 aebf 3f2e 583f 3f1f 6bbe
00000360: 621c ed3e 6fd8 fbbf 6839 49be 40ec 81bf
00000370: 02ac 1bbe 8b8b 67bd 36a9 9cbe d43b 163c
00000380: 505d 2cbf ad5b 6ebe 30d3 25be b096 3abe
00000390: 9523 3b3f 8263 1440 0899 653f 7d4d 963d
000003a0: 619d 01bf 9f6a cebf ac23 1240 7670 3cbe
000003b0: 408d 39be d6ae fd3e 84a8 2bbd 747f f43e
000003c0: 61ec 8b3e 0c64 08bf 2578 3d3f 354b 913e
000003d0: a2f2 6b3f e357 073f 498d 06c0 e95c 43bf
000003e0: b518 b73c 448f d43e e0ae 853e 639b 0ec0
000003f0: 19bc d0be d498 a0be a736 a6bf 0d28 f5bf
-0.64283 -0.94440883 0.88299567 0.15444382 0.05731568 -0.7070987 0.36221758 0.92841035
-0.022280432 0.0037337453 -0.7404558 -0.22165096 0.06652129 -0.19797707 2.3033357 -0.5386448
-1.9425931 -0.9434272 -0.91643405 -0.7448374 0.8613269 0.102700435 -0.2545193 -0.30885333
-0.23448639 -0.4364863 1.7507033 2.7765071 0.8830415 1.3205777 1.6951776 -0.2201961
-0.8477775 1.0984352 -2.7214434 0.49603993 -0.04984562 -0.25632602 0.44697645 -0.86678
0.49183282 -2.2026274 1.179771 0.8812869 2.6158016 -0.6463014 1.5761657 1.8529639
0.8397184 0.26239243 0.5323836 -0.81179094 -0.61335915 0.15020423 3.136567 -0.5901278
0.54936016 -0.46433434 0.0630213 0.8468155 -1.682043 -0.12016322 1.9978106 -0.1426684
-3.1210117 -0.48298118 -0.81148505 0.8293391 -0.8314402 -0.4603301 0.569244 0.18957697
-0.39909577 -0.84310764 0.8460287 1.039887 0.023709504 0.49317974 0.2252337 1.307425
0.79620516 0.42593166 1.597812 1.2899462 1.4345268 0.8061885 -0.5945651 0.78154135
-2.3480315 -2.4463215 -0.5622949 0.4488679 0.023872735 -0.048733674 -2.7087543 0.108640134
-0.7933557 0.82189894 -0.5554075 -0.35479635 0.110220216 -0.9695935 -0.59826815 0.7644409
-2.1060262 0.21318594 3.2555096 0.66055524 -1.4540294 1.0614678 -1.5976945 -0.45032683
0.41453624 -0.28884032 0.52357334 0.065360524 -2.1719105 0.66701454 -0.5518539 -0.6361108
0.680892 -0.88864326 0.08764239 0.5808923 -0.43763238 0.84187645 0.46985826 2.000646
1.3335992 0.33749795 -0.32426345 -0.6194348 0.9864389 0.932979 -1.0374255 -0.11055348
0.94406414 -0.35124937 0.15089972 1.5338242 -0.7743993 -0.77159154 0.37835672 0.08947838
-0.08979189 0.27265584 0.27514687 -0.08911605 -0.2811129 0.45950407 -0.054537512 -2.3638446
-0.5584892 0.5220123 -1.8509789 2.4284031 0.013799117 -0.35852224 -0.6224211 1.2351414
0.3610637 -0.34837517 -0.28689158 0.24932604 0.2933678 -0.7864734 0.67402357 0.3614112
-0.7088963 0.45719755 -0.6339147 -0.20914875 0.8517203 1.6152418 -2.0832856 0.25066525
-3.5415387 0.069744736 0.7333019 -0.43219084 -0.5720783 0.89911336 0.7851995 -0.16470726
-1.1557553 -0.4736739 -0.96213645 -0.3278917 -0.19199973 0.5794922 -3.397539 0.72433364
-0.45412582 0.9040038 2.365682 -0.29017442 0.9816728 -0.6853815 -0.9893886 -1.3237714
-0.44632292 -0.63578767 -1.3923233 -0.6064739 0.8145605 -0.39282587 -0.86506695 -0.006542154
0.24652676 -0.13114664 -0.67575204 -0.2001435 0.5752535 -1.3613945 0.84445566 -0.22961138
0.46310717 -1.9675425 -0.19650805 -1.0150223 -0.15202335 -0.056529563 -0.30597848 0.009169538
-0.67329884 -0.23277159 -0.16193843 -0.18221545 0.7310117 2.3185735 0.8968663 0.073389985
-0.50630766 -1.6126288 2.2834272 -0.18402275 -0.18120289 0.49547452 -0.041908756 0.4775349
0.2732878 -0.5327766 0.7401145 0.2837769 0.92167103 0.5286848 -2.1023734 -0.76313645
0.022350648 0.41515553 0.26109982 -2.228234 -0.40768507 -0.313666 -1.2985429 -1.9152848

model.2.bias f4 [128]
00000000: e150 733f f827 97be 8681 99be 2aef 843e
00000010: ebc7 11bf 52f8 0e3f f735 263f 3110 26bf
00000020: f01b 27be e7bf b0be fdb9 cc3e 35c2 1f3f
00000030: c394 183d d59b bbbe c12e c73d 7f46 413e
00000040: 11e2 0a3e 2780 133f a72a aabe 8903 1dbd
00000050: 00a9 e1bb de98 493e aa21 e1be df9e 1d3f
00000060: 8ef3 8fbe 32d1 123d b7d9 ef3e bc61 1bbe
00000070: 92bb de3d 76b2 a9be ce58 2abe fc82 7b3f
00000080: 0ca9 bc3e a538 0b3f f2fd c5be 22ca 193e
00000090: d6ae d73e bf21 eb3e d531 c73e 7da2 16be
000000a0: 1bd9 613e 4483 cfbe 5b12 8c3e 5d7e 5c3c
000000b0: 1adc 7abe d2a8 47be 5611 e43e 4fd2 eabd
000000c0: 07a3 603f 0321 f43e e251 193e 773c c6be
000000d0: 5030 ad3e 43ca fe3e 4c2c 553f 65c1 843e
000000e0: 0076 023f 9b5e c9be 004e ba3d 3343 443f
000000f0: 9e6d 76be 8d7a 7b3f f72e 2f3e 5032 633f
00000100: 6c2b 153f af0b 7b3f 9aba ae3e a913 913d
00000110: 9a34 febe 1aa7 7e3e 2596 103e cb4f 9a3e
00000120: 6bee 5a3f d530 b83e b994 e93e f756 bc3e
00000130: 78e3 e63e 64e1 7f3f 9da3 563f 7f3e ad3e
00000140: 8465 d5be b1a8 9abe 70b8 b93d 2f47 a1be
00000150: ee4a a5be 2bd3 c0be 75c2 c8be 10a6 91be
00000160: 59b8 6ebf 9814 643e e38f ce3d 49b3 de3e
00000170: 5e20 673f 0b96 33bc fec2 f6be f28e febc
00000180: d841 d73e 2628 11bf 5abb 0cbf 887d 313e
00000190: 7e97 2c3f ad29 d13e 945e 89be f58a ef3e
000001a0: cc87 e33d 4c4d d5bc a4b4 3b3e bead 883e
000001b0: 4ae5 91bd 36dd 8cbe cdc8 7ebf 55ef 55be
000001c0: 5c26 11bf bf78 433f dea6 07bf 6f39 7fbf
000001d0: d717 603e c983 e7be cbd7 243f 001f d83d
000001e0: 4b74 de3d 8474 d73e 3b33 183d 370a f4be
000001f0: 1f05 6d3e 6fb4 923e e88f 3bbe e3ca aebe
0.95045286 -0.2952268 -0.2998163 0.25963718 -0.56945676 0.55847657 0.64926094 -0.64868456
-0.16319251 -0.3452141 0.39985648 0.6240571 0.037251245 -0.36642328 0.097257145 0.18874548
0.135628 0.5761742 -0.33235666 -0.03833345 -0.0068866014 0.1968722 -0.43970996 0.61570543
-0.28115505 0.035844035 0.4684579 -0.15174001 0.1087562 -0.33143967 -0.16635439 0.9824674
0.36847723 0.5438331 -0.38670307 0.15018514 0.42125577 0.45924184 0.38905206 -0.14710422
0.22055475 -0.40529835 0.27357754 0.013457862 -0.24498025 -0.19497994 0.44544476 -0.114658944
0.8774876 0.47681436 0.14972642 -0.38718006 0.33825922 0.49763688 0.83270717 0.25928798
0.50961304 -0.3932999 0.090969086 0.7666504 -0.24065253 0.9823387 0.1710776 0.88748646
0.5826938 0.980647 0.3412674 0.07083828 -0.49649507 0.24868432 0.14119776 0.30139002
0.85520047 0.35974756 0.4562128 0.367851 0.4509542 0.99953294 0.83843404 0.33836743
-0.41679013 -0.30206826 0.09068382 -0.3149962 -0.3228373 -0.37661108 -0.3921086 -0.28447008
-0.9325004 0.22273481 0.10086038 0.4349616 0.90283763 -0.010961066 -0.48195642 -0.031074021
0.42042422 -0.56701887 -0.54973376 0.17333043 0.6741866 0.4085211 -0.2682997 0.46785703
0.111098856 -0.026037835 0.18330628 0.26695055 -0.071238115 -0.2751252 -0.9952515 -0.20892079
-0.56699157 0.7635612 -0.52988994 -0.9969701 0.21884094 -0.45217732 0.64391774 0.10552788
0.10862025 0.42081082 0.037158232 -0.47664043 0.23146485 0.28653285 -0.18316615 -0.34139165

model.4.weight f4 [5, 128]
00000000: 08e2 c141 0df7 d7c1 3bf6 ccc1 90ef 85be
00000010: 0082 c2c1 595a d1c0 b1eb ba41 f310 cec1
00000020: 565a 8740 140a e5c1 90da ed41 54bb b641
00000030: 1fe0 fa41 4ac5 9fc1 a376 8841 706a e140
00000040: 9b56 b941 b3c7 e741 69d0 1ec2 eda3 1b42
00000050: 6b39 00c1 53b1 99c1 cc6a edc1 8344 b441
00000060: 2010 0540 ed7b 81c0 852d 20c0 55b5 97c1
00000070: 31e2 a3c1 0d64 ddc1 b922 17c2 1287 c341
00000080: 4088 2e42 4533 b941 0d6a e0c1 94f7 3b41
00000090: 7b5b 8d41 bfed 2740 8b8f ee41 0fa9 1bc2
000000a0: 4a80 6e40 a0e0 afc1 240a cd41 18e7 cd3f
000000b0: c054 e841 7184 0ac2 7aa0 24c1 a324 c741
000000c0: 4a7b c541 1ec4 ce41 da66 b63f 6a5c 65c1
000000d0: ac7f bcc1 079c 0a42 f367 e241 b745 f941
000000e0: 1045 8c40 2300 bec1 bef7 8b40 66bc c141
000000f0: 2f1b b0c0 f6b3 c341 6fb8 c341 8037 c041
00000100: 5db4 b141 def5 c441 7d20 df41 8509 d5c1
00000110: 50a2 9041 d90a d9c0 916c d3c0 c0b8 e641
00000120: d6b2 c041 2c1a e041 48d5 e7bc 938d b041
00000130: 93a2 79c0 0a32 c041 b873 bb41 419c a941
00000140: 6b66 a540 4cd0 2040 3b53 1442 2137 8b41
00000150: 1357 10c2 fe37 ddc1 d83e f8c1 dc17 d8c1
00000160: 4c50 c3c1 fc0f 3b42 9519 df41 28ed f541
00000170: 8a5d c141 1559 aac1 d7ec 1e41 7357 b3c1
00000180: c38f d041 7bd5 b7c1 63f7 d2c1 d4c7 c141
00000190: 6156 18c1 dbcb c441 33a2 dfc1 2068 b741
000001a0: d88f f5c0 af8d d7c1 ee91 aac1 0098 ec41
000001b0: 8648 f441 d898 8ec1 0a5a c6c1 e478 2ec2
000001c0: 90a4 1b3f e081 bb41 c44b 02c2 a271 c4c1
000001d0: b2ba 0642 a540 dec1 de0a be41 0c57 9041
000001e0: 5213 18c2 1f67 9e41 e3c6 50c0 dcc8 fac1
000001f0: 9fcb 96c0 295d ca41 e993 2ac2 e57d fbc1
00000200: a8f1 9741 855d c4c1 f840 c8c1 ffff 25c2
00000210: 01f9 99c1 99bc 1642 748e 9141 b2c1 fdc1
00000220: e301 b140 47a6 f9c1 b1fc 0142 ff78 8c41
00000230: 585d f841 ee5b 61c1 97df 9ac1 d9df e1c1
00000240: cfcc a441 1818 e341 89cd 6140 1a7f 0642
00000250: ce1d fcc0 ba60 91c1 3d47 00c2 d856 8141
00000260: 7560 d5bf 6ca0 623f 7eec 24c2 69dd 63c1
00000270: 5461 06c2 222f d3c1 16c5 a53f 554b 9541
00000280: 1ef6 a640 ebfb 8c41 9e3c a241 eda3 04c0
00000290: 7628 8941 a3c3 a640 74a6 f641 8d65 20c2
000002a0: 0899 49c1 448d 78c1 297f d741 4862 15c2
000002b0: a2be ccc1 5726 eec1 8fa6 1942 c1dc ba41
000002c0: c025 9541 7737 bb41 4763 09c2 b85a 43c1
000002d0: b100 9ac1 ce68 ed41 ca5c f741 4df2 f441
000002e0: 2230 7641 ef63 aac1 1f98 fdc0 b1bd 9841
000002f0: acc6 ec41 0d74 9641 25b1 a941 08e1 9641
00000300: 9da0 8041 dc49 9841 ea5a ea41 31ec e4c1
00000310: da93 7e41 63a2 ffc0 11ee 30c0 22f4 d041
00000320: 4409 9841 344b cc41 aae1 3341 c24a 7d41
00000330: 8a47 19c2 9d85 9741 4343 9541 cad5 8741
00000340: 0db2 15c2 fe5e 0841 08fe 6740 42e2 ba41
00000350: 7c07 fdc1 a74d 02c2 7f5f bec1 31ec bfc1
00000360: 7f1c 98c1 3449 843f a6d0 be41 6f1c d541
00000370: e2c3 9441 c95a dd41 1ebc 1ac2 36d3 eb41
00000380: 243b d841 5702 8cc1 3b24 c1c1 6fc9 aa41
00000390: 618f 1c42 8daf 9a41 3665 e9c1 936f 8941
000003a0: d8c5 01c1 4c51 e4c1 e94b e641 53d6 0342
000003b0: 8d89 d041 3ef6 4fc1 5eb2 96c1 0d88 1fc2
000003c0: a959 1bc1 1c30 9441 2d11 a5c1 fed0 98c1
000003d0: bda1 f341 8cd8 cbc1 9276 9541 93ba 4041
000003e0: 9ca0 5b41 a837 74c1 7db7 c0c1 163e f0c1
000003f0: f0c6 23c2 e266 da41 4071 29c2 6b1a 5541
24.235367 -26.99563 -25.62023 -0.26159334 -24.313477 -6.542279 23.365084 -25.758276
4.2297773 -28.629921 29.73172 22.841469 31.359434 -19.971333 17.057928 7.044243
23.167288 28.97251 -39.703526 38.910084 -8.014018 -19.211584 -29.677147 22.533453
2.0791092 -4.0463777 -2.5027783 -18.963541 -20.485445 -27.673853 -37.78391 24.440952
43.633057 23.150034 -28.051783 11.747944 17.669668 2.6238859 29.82009 -38.915096
3.7265801 -21.98468 25.629951 1.6086149 29.041382 -34.629337 -10.289179 24.892889
24.6852 25.84576 1.4250138 -14.335062 -23.56234 34.65237 28.300756 31.15904
4.3834305 -23.750067 4.373992 24.216991 -5.5033183 24.462872 24.465055 24.0271
22.213068 24.620052 27.890863 -26.629648 18.079254 -6.782574 -6.6070027 28.84021
24.087322 28.01278 -0.028299943 22.069128 -3.9005477 24.024433 23.431503 21.201296
5.168752 2.5127134 37.08128 17.401918 -36.085033 -27.65234 -31.030685 -27.01165
-24.414207 46.76561 27.887491 30.740799 24.170673 -21.293497 9.932822 -22.4177
26.070196 -22.979239 -26.370794 24.222572 -9.521089 24.599539 -27.954199 22.925842
-7.673809 -26.944181 -21.321255 29.574219 30.535412 -17.82463 -24.793964 -43.618057
0.6079798 23.438416 -32.57399 -24.555485 33.68232 -27.781565 23.755306 18.042503
-38.018867 19.800352 -3.262139 -31.348076 -4.712356 25.295488 -42.644444 -31.436472
18.992996 -24.545664 -25.031723 -41.499996 -19.246584 37.684177 18.194557 -31.719578
5.5314803 -31.20619 32.49677 17.55908 31.045578 -14.084944 -19.359175 -28.2343
20.600004 28.386765 3.5281699 33.624123 -7.8786383 -18.17223 -32.06957 16.167404
-1.6670061 0.88526034 -41.23095 -14.241555 -33.595047 -26.398014 1.2950771 18.661783
5.2175436 17.623007 20.279598 -2.0725052 17.144756 5.2113814 30.831276 -40.09917
-12.599861 -15.534489 26.93709 -37.345978 -25.593082 -29.76872 38.412655 23.35779
18.643433 23.402082 -34.34695 -12.209648 -19.250338 29.676174 30.920307 30.61831
15.386751 -21.298796 -7.9248195 19.092623 29.597008 18.806665 21.211496 18.859879
16.078424 19.036064 29.294392 -28.615328 15.911097 -7.9885726 -2.7645304 26.119205
19.004524 25.53672 11.242594 15.830751 -38.319862 18.94024 18.657843 16.97939
-37.423878 8.523191 3.6248798 23.360477 -31.628654 -32.575832 -23.796629 -23.990328
-19.013914 1.033484 23.85188 26.638884 18.595646 27.669329 -38.68371 29.47813
27.028877 -17.501143 -24.14269 21.348356 39.14002 19.335718 -29.17442 17.17948
-8.110802 -28.539696 28.787066 32.9593 26.067163 -12.997618 -18.837093 -39.882862
-9.70939 18.52349 -20.633387 -19.102047 30.453974 -25.480736 18.682896 12.04555
13.726711 -15.263588 -24.089594 -30.030315 -40.944275 27.300236 -42.360596 13.31895

model.4.bias f4 [5]
00000000: 7bf8 ee41 b9f6 dc41 923b e141 61d5 cb41
00000010: 5916 ec42
29.871328 27.62047 28.154087 25.479189 118.04365
