results/palindrome/ql_3.pt (torch, 84325 bytes, 6 tensors)

model.0.weight f4 [128, 25]
00000000: bdd2 153f 5ff0 e4be 3ae0 a03f 9ade 1d40
00000010: 648c 5940 a43a 73bf d09a 8cbf 87a7 5e3d
00000020: 27f6 b03c 138a bd3d c044 9e3d 9af6 eabd
00000030: f7b2 d5bd 4ded 653d ad91 9fbd 808d 5c3d
00000040: 3df4 c5bd 67ad 793d cf78 37be 2d69 74bd
00000050: 1b50 1bbe 2d02 38be b7a3 edbd dabb 2f3e
00000060: c389 ba3d 5968 6a3c 8235 3f3d 0c3e c43f
00000070: 12dd 1fbe 2e4b 083f 4976 0cbf 2368 89be
00000080: c097 463d ef5a 48be 1376 ef3d 9500 4b3e
00000090: 0d26 213e caaf c2bd 93ad 0bbe cdde 53bc
000000a0: 8744 243e eb5e 2ebe f314 63bd 1364 47bd
000000b0: 1abe a7bc 07f9 a43d 4501 473e 6de1 0abd
000000c0: 8083 43bc 6df3 123d faf6 02c0 e714 ca3e
000000d0: 5e1d 033f e8e7 383f 9646 56c0 a2b9 5fbf
000000e0: 548d 43bf e5d3 033e da53 f43d 8778 0cbe
000000f0: 62c6 383e aa2e 903d 4ff9 1abe 9790 e53d
00000100: a761 d03c fd9c 4bbe 6d38 e2bd 6ac3 c23d
00000110: a0c6 293d 3d12 fc3d 67e6 223a bd15 0cbe
00000120: 9a6b da3b b3c4 583d 9a51 5fba f540 783e
00000130: 68b9 2cbf 214c 9bbe 59d7 c1be be8f c73f
00000140: cb69 243f 89e4 203f 0048 583c 3de7 bfbd
00000150: adad 10be 8060 4fbc 10ad d83d 47cb 1f3d
00000160: fa91 0ebd 9dbd fbbd 4d5d 153d 97b1 babd
00000170: 67e0 47bd 2a6f c83d 27c0 92bc 2a55 d1bd
00000180: a3c9 1d3e 8816 143e cd5f a63b 9a68 853c
00000190: 05a1 363f a8b5 c5c0 8745 d43e 867e 853f
000001a0: 1c2f 23be 80fb f8be 3e64 e8be 8d01 523d
000001b0: 33d7 db3a e7d1 2dbd daec 4f3d 9aa9 e13d
000001c0: b0ae 2cbe 30b1 ddbd 306b 8fbd ba95 ae3d
000001d0: 8d14 a0bd 3a38 06be 075d 003e 8031 6e3c
000001e0: 5adc f2bd 00aa ee3c ea39 3c3e dafc b13d
000001f0: faf1 203e 2fc7 c23e 9b32 99bf 7791 703f
00000200: f6fa 803f 5a73 bec0 374d 08bf a74c 4abf
00000210: a095 25be 87b0 61bd 2d8b 59bd 60dc ddbd
00000220: c3bb a73d 3759 94bd ad8c f8bd 2dbf 4fbd
00000230: da03 a53c 8573 2dbe 004c 273c 7546 373e
00000240: 4813 41be 0ae1 84bd 75dd 1d3e 3d9c 1fbe
00000250: a7a4 1e3e 6775 e13c 926c 42bf c7b2 d63d
00000260: 8451 91bf 2bc9 6abf 634c 5740 9cb9 883f
00000270: 1c23 8f3f d30f a53d eb72 0dbe b314 bdbd
00000280: c231 413e 7730 e6bd 87ae 83bd e865 1c3e
00000290: 7770 e1bd ad9f 6cbd 0f68 373e ea46 273e
000002a0: 70a7 2f3e 139c a9bd 6544 423e e7b2 443c
000002b0: 1279 09be 40f6 c13d 2797 333d eb44 1340
000002c0: b8a6 13c0 446c 393e 1c5c 3e3f 57be 10c0
000002d0: bf58 e2be 5952 1abf c2f3 32be 4d33 48be
000002e0: a795 0bbd 95b1 0b3e 6a43 babd ba98 d53d
000002f0: ea73 f53d 83d0 b93d ba56 6fbd 68f2 303e
00000300: 479a 9abd 00d5 babb 878c 083e faf5 7fbd
00000310: 5ae4 24bd 5d88 3fbe 009f de3d bdad 0e3e
00000320: b078 4dbf 3d6d 7d3e f6e8 b0bf 0927 663f
00000330: af3d 7ac0 081f 66be fd4b 91bd a089 19be
00000340: f55d 3c3e cb6d 243e 8f0f 233e 6a56 05be
00000350: 2d71 4f3d 6571 413e 429c 3d3e 702a e33d
00000360: fad2 353e dd65 c9bd 0399 dabd b776 cebd
00000370: 5b7d 223e c3e1 c43d 5708 d2bd d0b4 d73d
00000380: 3a49 2cbe acf8 6b3d 03a1 a13d 364a a93f
00000390: 025b 413e d281 5040 62dd 22bf 8995 e0be
000003a0: fa71 45be ba43 fb3d 0011 ddbb 13db 1b3e
000003b0: c32c a13d 9771 0bbe 4782 e83d 1ae7 c53c
000003c0: 80d9 b63d 0032 21bb d5c1 443e 2a17 fb3d
000003d0: 6a9f acbd 4d05 513d 6d20 e43d 47e4 cd3d
000003e0: aafd 8d3d b0e0 1d3e dd3d 82bd 2bca b1be
000003f0: 3e59 5bbf bd6f 3ebe 089d fe3f f5ce 1b3f
0.58524686 -0.4471464 1.2568429 2.4667115 3.3991938 -0.95011353 -1.0984745 0.054358985
0.02160175 0.09254851 0.07727957 -0.11472817 -0.104345255 0.05613451 -0.07791457 0.053845882
-0.096657254 0.060956385 -0.17917179 -0.059670616 -0.15167277 -0.1796958 -0.11603492 0.17161503
0.09108307 0.014307105 0.04668189 1.5331435 -0.15611675 0.53239715 -0.5486799 -0.26837263
0.048484564 -0.19565938 0.11692443 0.19824441 0.15737171 -0.09506185 -0.13640432 -0.012931538
0.16041766 -0.17028396 -0.0554399 -0.048679423 -0.02047639 0.08055311 0.19434078 -0.03390639
-0.0119332075 0.03587668 -2.0463243 0.39469072 0.51216686 0.7222886 -3.3480582 -0.8739263
-0.76387525 0.128738 0.11930056 -0.13717853 0.18044427 0.070401505 -0.15134166 0.11209219
0.02543719 -0.19884105 -0.110459186 0.095099285 0.04144919 0.12308166 0.0006214142 -0.13680167
0.006665659 0.052921962 -0.00085189345 0.24243529 -0.6747041 -0.3033152 -0.3785961 1.5590742
0.6422393 0.62848717 0.01320076 -0.09370277 -0.14128752 -0.012657285 0.10579884 0.03901222
-0.034807183 -0.12292025 0.03646593 -0.09115904 -0.04879799 0.09786828 -0.017913891 -0.10221322
0.1540895 0.1446172 0.0050773383 0.01628523 0.71339446 -6.178425 0.41459295 1.0429237
-0.1593594 -0.4862938 -0.4538898 0.05127101 0.0016772508 -0.042436507 0.05076299 0.11018677
-0.16863513 -0.108248115 -0.07002866 0.08524652 -0.0781642 -0.13107386 0.12535487 0.014538169
-0.11858435 0.029133797 0.18381467 0.08690806 0.15717307 0.3804259 -1.1968569 0.9397196
1.0076587 -5.951581 -0.5324282 -0.7902321 -0.16170359 -0.05509999 -0.053111244 -0.10833049
0.081901096 -0.07243579 -0.12136207 -0.05071943 0.020143438 -0.16938598 0.010210991 0.17897971
-0.18855011 -0.06488235 0.1541651 -0.15586944 0.15492497 0.027521802 -0.75946915 0.10483318
-1.1353002 -0.9171321 3.3640373 1.0681643 1.118259 0.08059659 -0.13813369 -0.09232464
0.18866637 -0.11239713 -0.06429773 0.15273249 -0.11007779 -0.057769466 0.17910789 0.16335645
0.17153716 -0.08281722 0.18971403 0.012005544 -0.13425091 0.094707966 0.043845322 2.3010814
-2.3070507 0.18107706 0.743593 -2.2616174 -0.44208333 -0.602819 -0.17475799 -0.1955082
-0.034078266 0.13641961 -0.090948895 0.10429521 0.119849995 0.090729736 -0.05843232 0.1727997
-0.07548957 -0.005701661 0.13334857 -0.06249044 -0.040256836 -0.18704362 0.108701706 0.13933463
-0.8026228 0.24748702 -1.3821094 0.8990331 -3.9100149 -0.22472775 -0.07094572 -0.14993906
0.18395217 0.16057508 0.15923904 -0.13021246 0.050645042 0.18890913 0.18516639 0.11092079
0.17756262 -0.09833882 -0.10673716 -0.10081237 0.15868132 0.09613373 -0.10255497 0.10532534
-0.16824809 0.0576102 0.07892039 1.3225772 0.18882373 3.2579236 -0.63619053 -0.43864086
-0.1928176 0.12268777 -0.0067464113 0.15220289 0.07869866 -0.1361755 0.113529734 0.02415805
0.089282036 -0.0024596453 0.19214566 0.122602776 -0.08428843 0.051030446 0.11138997 0.10053306
0.06933148 0.15417743 -0.06359456 -0.34724554 -0.8568305 -0.18597312 1.9891672 0.60862666

model.0.bias f4 [128]
00000000: 7fb9 67bf 887d aabe a59e 1dbf 20fc 2a3f
00000010: 2f3b c2be 6925 1cbf 8cd4 8c3f 251a 27bf
00000020: 2488 ddbe 2da7 14bf 8178 1d3f db1d 34be
00000030: ad60 543f 3f62 79bf f1ef 2b40 a047 33bf
00000040: 52b0 b13e 154f 0cbf ab55 5d3e aee2 97bd
00000050: d979 a5bd d8df d1bd a833 c7be 9fda 2abf
00000060: 0507 2abf 44b1 35bf 404c 823f 26fe f03e
00000070: 29d9 b0be d383 cf3e b081 86bf af38 203f
00000080: 2c61 6abf 2e8a 1140 7054 b43f af69 1abf
00000090: 2208 b23f 561a 173f fbfd 9f3f 941a 65bf
000000a0: 5f4a 613e 55f3 11bf 3d2f 803f 9c0b 2cbf
000000b0: 3a20 0dbf ca89 65bf 82de 133e b3e5 ae3f
000000c0: b4b3 a3be 6b97 62bf f110 643f d6e8 76bf
000000d0: 7420 2abf 2728 7f3e 8cac 46bf 2f1d 23bf
000000e0: ac38 8c3e 9751 9b3e 4f23 f23e a3c4 5b3f
000000f0: 0ea7 f9be d7bf 193f 132e 78bf 95f7 8cbe
00000100: 430f 01bd 1d70 653f 838f 07bd 8973 1c3f
00000110: c3bd b53e 40ca 233e 60b6 15be b3e7 9bbe
00000120: a313 1d3f c7c6 eb3e 5ff6 d73e 77e5 8e3e
00000130: ab34 a5be 35d3 fe3e 4847 ac3e eee3 503f
00000140: 104e 263f 0495 b8be 10c9 66bf 5896 473f
00000150: 0673 f03e d5be 3ebf 005f 853f 4676 28bf
00000160: 21f0 bebe 8886 08be 933a 223f e170 513f
00000170: fbed a0bf 812c 47bf c9c2 b53e 8f4a 013f
00000180: e31a 5bbe 7c45 45bf 1c65 29bf 896c 8fbe
00000190: 61dc 35be d2d9 5b3f ee40 84bf 8de3 5fbf
000001a0: bb81 713f bf07 043f 8a4a ff3b bc61 c43e
000001b0: 0863 273f 797c 193f 85ca bb3e 553d a8bf
000001c0: 7f7a e3be f2f2 49bf d197 0bbf 6067 483e
000001d0: c4ee 0a3f fad2 8fbd 8fe0 03be 9143 a4bf
000001e0: 6677 373f fcae 42be ce81 72bf 6752 963f
000001f0: 763c 02bf a5a0 21bf 3757 33c0 68ba 393f
-0.9051742 -0.33298898 -0.615702 0.6679096 -0.37935778 -0.60994583 1.1002364 -0.6527427
-0.4326793 -0.5806759 0.61512 -0.17589514 0.82960016 -0.97415537 2.6865199 -0.70031166
0.34704834 -0.5480817 0.21614711 -0.074162826 -0.08079881 -0.10247773 -0.38906598 -0.6673984
-0.6641696 -0.7097361 1.017952 0.470689 -0.3454068 0.4053026 -1.0508327 0.6258649
-0.9155452 2.2740588 1.4088268 -0.6031751 1.3908732 0.5902456 1.2499384 -0.8949368
0.22001027 -0.5701192 1.0014416 -0.67205215 -0.551273 -0.89663374 0.14440349 1.3663849
-0.3197304 -0.88512295 0.8908835 -0.9644903 -0.6645577 0.2491766 -0.77607036 -0.63716406
0.27386987 0.30335686 0.47292563 0.8584692 -0.48760265 0.6005835 -0.96945304 -0.2753264
-0.031508695 0.89624196 -0.033095848 0.6111379 0.3549634 0.15995121 -0.14620352 -0.3045021
0.6135809 0.46050093 0.42180154 0.27909443 -0.32266745 0.49770513 0.33648133 0.81597793
0.64962864 -0.3605119 -0.9015055 0.7796378 0.46962756 -0.74509937 1.0419617 -0.6580547
-0.3729258 -0.1333257 0.6337063 0.81812865 -1.2572626 -0.7780228 0.35500172 0.5050439
-0.21396975 -0.7705915 -0.66169906 -0.28012493 -0.17759849 0.8587924 -1.0332315 -0.8745659
0.9433858 0.5157432 0.007790868 0.38355815 0.65385485 0.59955555 0.36677948 -1.3143717
-0.44429395 -0.7888633 -0.5452853 0.19570684 0.5427058 -0.070226625 -0.12878631 -1.283312
0.7166656 -0.19012064 -0.94729316 1.1743897 -0.50873506 -0.6313575 -2.8021982 0.7255006

model.2.weight f4 [128, 128]
00000000: a8b8 41bf 1e5e 653d 32c9 43bf 31bd 0d40
00000010: e060 a4bd a8a2 4e3f c713 9f3e 0209 903f
00000020: 7a67 dabe e297 56bf 9299 0540 9cbb b13e
00000030: 37d6 813f 74bc b53e 5823 a73e b626 db3f
00000040: 385d 8f3e d8a4 52bf 58f5 d73f 9693 28be
00000050: e49a 973e 5a7d 98bd ad74 8e3e 888c 7bbf
00000060: 7c0f 24bf 8dfc ebbf 565b c23f 04de a8bd
00000070: ed37 61bd 7466 563f 4b37 a2bf 6b2d 2e3e
00000080: cb0a ea3e 7130 483e d511 2540 3438 d4be
00000090: 8946 9a3e 65c9 643d 2e96 813d 3dd0 423f
000000a0: e788 a73f cfaa f13d 83b1 533f 7b77 aabe
000000b0: 9d7c 92be 2cf9 4ac0 bae6 9fbf e5a9 db3e
000000c0: e807 603f ac4b a7be 6b7d 713f aadc 84bf
000000d0: 4d21 febf 1eb3 1140 9427 aabe dc0c d6bf
000000e0: 5360 89bd 2354 e1be e9b8 8a3e 004f 3940
000000f0: 4ad3 43bf 68ba 113f a665 9ebd b9a7 77bf
00000100: cffd 56bf 5ce2 02bf 25bc 5dbe 0d73 4c3f
00000110: 2027 423f 6e38 863f 61d8 30bf 8ea3 463f
00000120: db30 a1bf 6448 ecbd d659 da3f 3d11 503f
00000130: 39d7 34bf 782a 823f 6718 53bd 6447 fabf
00000140: ec6e 59be 89f1 993e 1272 59c0 c4f0 22bf
00000150: ae6c cd3d 4450 41bf 6518 733f 0f0b 0fc0
00000160: 1aba 073d 76f9 48bf fbe7 463f a99e 56bf
00000170: 1b79 aabe 2994 d73d b720 1b3f 7e22 43bf
00000180: df35 1040 96c9 9fbe 2241 dcbe aae1 023e
00000190: 0a1c 4bbf 9976 5040 ab5b a6bf 4bce ecbc
000001a0: 8029 ffbe 5cba 46bf 5155 523e def6 0fbf
000001b0: 1447 94be 58da 96bf 04f6 b7bd 5aa2 e5bf
000001c0: 63ce ca3e 87ed 24bf cc8b 113f fa2a fb3e
000001d0: a8a8 5fbe 937f 5f3f 4ff0 75bf 4849 1fbd
000001e0: 366d 02bf 9cf3 aabe 92d0 78bf 3e3d 453f
000001f0: 3cea fbbd f589 913f 167a 8fbe 11e1 ad3f
00000200: 25e3 38be 05e4 773e 8c14 4b3f 483f 01c0
00000210: fe97 ff3d 5476 423f b7c4 b3bf b649 54bf
00000220: 2c74 973f e284 623f d479 0dc0 9b97 123f
00000230: 144d b7bf 7eaf 74bf 84af 06bf dbe8 0340
00000240: 0940 1e3e 475d 693f 9204 da3f 42c2 8f3e
00000250: d08f 0640 18b5 873f e072 003f 931a e33f
00000260: 3925 2a40 13d8 1d3f 4013 90bf 853d 403e
00000270: 584a 333e 0c24 a23f 91d1 8fbf db0d c5bf
00000280: 6bae b03f 1a98 edbe b3ea a7bf 114f 703f
00000290: 44e0 d7be 61f0 7b3e e39d 10c0 c80b 0d3f
000002a0: a981 c93e ba77 4d3d ef22 f2be fe3b 19be
000002b0: ad24 06bf 823f 163f 1586 893f 5712 f6be
000002c0: 6968 8dbe c275 69be f3c9 68bf 6c99 fc3e
000002d0: 0b0e 083f 3b16 bfbf 5208 d5bd b006 32bd
000002e0: 6770 0bbe 4c9f fcbe 3989 f53e 7b24 c5bf
000002f0: 966e 9a3f 1baa f3be 385d b4be 1bb0 7f3e
00000300: b504 57bf 27ba b1bf 3b31 19bf 9e39 b1be
00000310: c6fb 553f b229 e1be 30e5 193f ef4c c63e
00000320: f45c 0ec0 1010 723f 0b39 a73e 2572 3dbf
00000330: cd88 7f3d 2aff c2bf 7dc3 3a3f cd2e 8a3f
00000340: b1d7 78bf 2e78 383e 0458 1b3f c116 dbbf
00000350: 074b b2be 003f 8f3f 0a47 3ebf c896 df3f
00000360: 4f43 97bd 0c79 05bf 07c5 1a3d ba9b 8abe
00000370: 45cf 103f cc2e 6c3e 4e48 d1be 79c5 2ec0
00000380: 1a45 3fbf c883 183f a196 083e 6d41 cb3e
00000390: 0da0 653f 5d6a dc3e 2e47 c53e 72f7 043f
000003a0: f7e2 49bf 8fbc abbf 280d b23d 6f17 e5be
000003b0: 1427 1dbf b4b0 8bbf a5ff e53e 09ef 953d
000003c0: 5877 dd3e ca4c ac3f 7d30 b33e 51b4 a6bf
000003d0: 2023 dcbf ea5c f1be 9d12 a43e f255 6f3f
000003e0: 61e7 68bf 5fb3 f3bd 194c 1e40 761b 8dbe
000003f0: 2ea3 21be 6d2a 3a3e deb3 053f a668 88bf
-0.7567239 0.05599796 -0.76478875 2.2146723 -0.0802629 0.80716944 0.31069776 1.1252749
-0.4265707 -0.83825505 2.0874982 0.34713447 1.0143498 0.3549534 0.32644153 1.7121189
0.28000808 -0.8228278 1.6871748 -0.1646255 0.2961036 -0.07445784 0.27823392 -0.9826131
-0.6408613 -1.8436447 1.5184124 -0.08245471 -0.054984976 0.8375008 -1.2673124 0.17009513
0.4571136 0.19549729 2.5792134 -0.4144913 0.3013194 0.055856127 0.063274726 0.76098996
1.3088654 0.11800157 0.82692736 -0.3329428 -0.28610697 -3.1714582 -1.2492287 0.42903057
0.87512064 -0.3267492 0.94332 -1.0379841 -1.9853913 2.2765574 -0.3323332 -1.6722674
-0.067078255 -0.44009504 0.270942 2.8954468 -0.76494277 0.5692506 -0.07734232 -0.967403
-0.8398103 -0.51126647 -0.21653803 0.79863054 0.7584095 1.0485971 -0.6908017 0.77593315
-1.2593035 -0.11537245 1.7058666 0.81276304 -0.70640904 1.016921 -0.051536944 -1.9553037
-0.2123372 0.3006709 -3.3975873 -0.6364863 0.10030495 -0.755131 0.949591 -2.23505
0.033136465 -0.7850565 0.77697724 -0.83835846 -0.3329552 0.10526306 0.60596794 -0.76224506
2.253288 -0.31208485 -0.43018442 0.12781397 -0.7933966 3.2572386 -1.2996725 -0.028906962
-0.4983635 -0.7762811 0.20540358 -0.56236064 -0.28960478 -1.1785383 -0.08982471 -1.7940171
0.39610586 -0.6442494 0.5685394 0.49056226 -0.21841681 0.8730404 -0.96069807 -0.038888246
-0.5094789 -0.33388984 -0.97193253 0.77046573 -0.12300536 1.1370226 -0.28022832 1.358431
-0.18055399 0.24208076 0.7932823 -2.0194874 0.12480162 0.75961804 -1.4044408 -0.82924974
1.1832328 0.88484013 -2.2105608 0.5726258 -1.4320397 -0.9558028 -0.52611566 2.0610874
0.15454115 0.91157955 1.7032645 0.28077894 2.1025276 1.060214 0.50175285 1.7742485
2.658522 0.6165783 -1.1255875 0.18773468 0.17508829 1.2667251 -1.123583 -1.5394853
1.3803228 -0.46405107 -1.31185 0.93870646 -0.4216329 0.24603416 -2.2596366 0.550961
0.39356735 0.05016301 -0.47292277 -0.14964291 -0.5239971 0.58690655 1.0744044 -0.48060867
-0.2761872 -0.22798827 -0.9093315 0.49335802 0.5314643 -1.4928659 -0.104019776 -0.04346341
-0.13617097 -0.49340284 0.47956255 -1.5401758 1.2064998 -0.47590718 -0.3522737 0.24969523
-0.8399156 -1.3884934 -0.59840745 -0.3461427 0.835873 -0.43977123 0.6011534 0.3873057
-2.2244234 0.9455576 0.32660708 -0.74002296 0.062386323 -1.523412 0.7295454 1.0795532
-0.9720412 0.18014595 0.60681176 -1.7116319 -0.34822866 1.1191101 -0.74327147 1.746789
-0.07385885 -0.5213783 0.037785556 -0.27071935 0.5656627 0.23064727 -0.40875477 -2.7308028
-0.74714816 0.5957608 0.1333871 0.39698353 0.89697343 0.430499 0.38530868 0.5194007
-0.78861946 -1.3416919 0.086939156 -0.4474444 -0.61387753 -1.09133 0.44921604 0.07320983
0.43255115 1.3460934 0.3499793 -1.3023778 -1.7198219 -0.471412 0.3204545 0.9349052
-0.90978056 -0.11899447 2.4733946 -0.27560014 -0.15784904 0.18180247 0.5222758 -1.0656936

model.2.bias f4 [128]
00000000: b3d3 a43e 23a7 eabe b809 b2bd ee7b cbbe
00000010: 99ca e4be 6454 073e c981 c5be 0e35 05bf
00000020: 004c d03e 73cc 2cbf b8fc a5be 7eef a53e
00000030: 94b5 ab3e 3ae4 c03e bfcc 203f 3550 d9be
00000040: 30e4 003e cb8f 1cbe 1102 10bf 4f41 abbe
00000050: 8713 79bf cff0 333f 3bf3 49bf 447f dbbd
00000060: 18cd fe3e f7f6 0bbe 8fb1 34bf 37fc e33e
00000070: 2889 08be e8a4 23bf b162 c5be 53ae 0c3f
00000080: dc98 3b3f 8bb6 223f f79e cabe ecf3 6ebf
00000090: 6878 d1be 30db 97be a9ce 673f f345 3ebf
000000a0: ee2b 90bf 1eab 963e 9eb2 ce3e 329a 3fbf
000000b0: becb be3e 1a16 56bc 1f11 dcbe 7876 153f
000000c0: 2e47 04bf f040 d3bd f088 85be 46a5 76bf
000000d0: 7213 16bf de80 5e3f 7da5 3b3e 3fd7 a83e
000000e0: af66 babb 5394 a1bc a1e4 6cbf 6070 6c3f
000000f0: df0b 0cbf aa84 90bf 6f72 8c3f 7bdb 69bf
00000100: 7d6c a5be 1842 9cbf a79d 303d 219e 81bf
00000110: 0d05 133f 9e46 9cbf b46d efbb 0fa4 7e3f
00000120: e870 c43d 5896 76bf 5368 a3be a358 c83e
00000130: e0bc e73e 0923 f43d a5f9 133f c342 5e3e
00000140: 5e47 593f c425 063e ac69 013e 31d8 f2be
00000150: e94c 97be c006 8abf ddcc 793e 0c68 423e
00000160: 1e97 26bf b695 a13d e6d6 2c3f 0d1e 63be
00000170: 2f5e 6d3f 087f f8be d080 87be 1a20 383f
00000180: c17c 81bf 9492 27bf b9af 59bf 39cb 633e
00000190: 80ae 183d f24b ac3e 7beb 2ebf 3ec3 f2be
000001a0: c7db acbe c8af 423f 5f9c bc3e a3c6 eabe
000001b0: 2922 1cbf e5cf 273f bb13 43bf 5a3a 33bf
000001c0: 7f0e 31bf 4149 903f a23c ef3e b1ef 0b3f
000001d0: 2235 143f ee2c cabe 26f7 53bf e9aa b03e
000001e0: 5855 b33c a650 c83e e577 0d3f efa3 263f
000001f0: 6fb7 d23e cb36 6fbe 9266 16be a9ad 84bd
0.32192764 -0.4583064 -0.0869326 -0.39742988 -0.4468582 0.13215786 -0.3857558 -0.5203408
0.40682983 -0.67499465 -0.32419372 0.3240928 0.3353697 0.37674123 0.6281242 -0.42444006
0.12587047 -0.15289228 -0.56253153 -0.33448264 -0.9729542 0.7028932 -0.78886765 -0.10717633
0.4976585 -0.13668428 -0.7058343 0.44528362 -0.13333571 -0.639235 -0.38551858 0.549535
0.7328012 0.6355979 -0.39574406 -0.93340945 -0.40912175 -0.29659414 0.90549713 -0.74325484
-1.1263406 0.29427427 0.4037065 -0.7484466 0.37264818 -0.013066793 -0.42981812 0.58383894
-0.5167111 -0.1031512 -0.26081038 -0.9634594 -0.5862342 0.86915386 0.18324848 0.3297672
-0.0056885104 -0.019724047 -0.9253636 0.9235897 -0.54705614 -1.1290486 1.0972422 -0.91350526
-0.32309332 -1.220767 0.0431191 -1.0126382 0.5742958 -1.2209051 -0.007306779 0.99469084
0.09591848 -0.96323156 -0.3191553 0.39130124 0.45261288 0.11920745 0.578028 0.21705155
0.8487452 0.13100344 0.12637967 -0.47430566 -0.29550865 -1.078331 0.24394555 0.18985003
-0.65074337 0.07889883 0.6751541 -0.22179432 0.9272184 -0.48534417 -0.26465464 0.71923983
-1.0116197 -0.65458035 -0.85033756 0.22245492 0.03727579 0.33651692 -0.68328065 -0.47414583
-0.33761427 0.7604947 0.36838052 -0.45854673 -0.60989624 0.65551597 -0.7620198 -0.7001091
-0.69162744 1.1272355 0.46725947 0.54662615 0.57893574 -0.39487404 -0.82798994 0.34505394
0.021891281 0.3912403 0.5526107 0.6509389 0.41155574 -0.23360746 -0.14687565 -0.064784355

model.4.weight f4 [5, 128]
00000000: e1cc d240 905f 6abf 7866 ef41 38dd adc1
00000010: 8f08 10bf 11ea d3c0 b402 93bd 20e7 66c0
00000020: 0841 0f40 8379 c1c1 ec5e 01c2 dcc8 ab41
00000030: 1d4e 5341 45db b941 6dba b541 0541 9fc1
00000040: 2288 5a41 f69f d7c1 1b98 37c2 4921 0bc2
00000050: a22f c2c1 b7a1 1642 7589 19c2 c055 f4c1
00000060: d8be 0c41 a022 63bc 1f78 06c2 955d b341
00000070: 0ad2 b941 c1b7 12c2 ab6d 02c2 54f7 9b40
00000080: f09c ca41 6fa9 ff41 3322 5241 6621 b8c1
00000090: 6a2d 5ec1 7c12 0fc2 7715 bc41 69ee 07c2
000000a0: d82f dac1 606d 6541 3493 6441 ea32 11c2
000000b0: a626 ef41 fb2e 5bc1 fddc b1c1 e027 f741
000000c0: f9ef 0fc2 5c63 9ec1 b238 4fc1 307c d0c1
000000d0: f218 95c1 861b ca41 199c 0142 5e63 bc41
000000e0: ceb7 b441 6c7e c9c1 624b 4dc1 48c9 cf41
000000f0: 2ac7 35c1 22b4 dbc1 9a35 dc41 6f2f 15c2
00000100: 0d21 b2c1 76e2 ddc1 fca8 87c1 044f cfc1
00000110: 79ce 1142 0848 ddc1 80dd d6c1 5afe d041
00000120: 67ed 3dc1 da52 d3c1 f011 98c1 8fca 5841
00000130: 3033 9241 d4f5 47c1 ffeb c541 9ece 1442
00000140: 4801 c141 b736 0ac1 24c1 babd 2354 18c2
00000150: 1268 b5c1 7a82 ddc1 87a2 f841 6d58 1f42
00000160: 3adc 9cc0 6923 cc41 23e4 8941 ff09 abc1
00000170: e248 c641 c747 1ac2 f425 1fc2 9d3c c341
00000180: 68f6 c4c1 bd74 84c1 64e9 cac1 56d0 2f41
00000190: efc6 c141 9f3d 9740 412f 03c2 edfc 25c2
000001a0: 5c03 50c1 177e d541 2552 d640 707b 0cc1
000001b0: 9766 07c2 b797 6bc0 8850 16c2 3ac3 f1c1
000001c0: 546d 06c2 7418 da41 e9c4 2642 5b97 8e3f
000001d0: b1df 1a42 fab3 7941 3f50 2bc2 b103 dd41
000001e0: f0c0 2841 bb9e b341 ae80 c541 0aeb 5b41
000001f0: d533 2b42 e5e0 c2c1 85e9 95c1 24ec d6c1
00000200: 6e1a 3041 c9c5 61c1 6fd6 28c1 7aa3 aac1
00000210: 8cba 1cc2 aeb5 1fc2 6dc8 c8bb 1318 63c1
00000220: 0d5a 5b41 a2a1 c1c1 89a2 d8c1 d8a4 2442
00000230: 9eb2 a641 1143 b041 8d41 b641 826e a7c1
00000240: e103 0fc2 a140 e6c0 22e9 10c2 33bb d7c1
00000250: fc30 b4c1 3923 0242 cdf1 00c2 b4ca 1ac2
00000260: cba3 8e41 9838 7cc1 189b ecc1 c35b 3f40
00000270: 1c9b 1d42 cf2d b2c1 081c fec1 6168 7c41
00000280: 89a9 b741 2170 ec41 470d eabd a01a acc1
00000290: c82e 4dc1 b5f6 dec1 fa48 b241 2794 ebc1
000002a0: 2da9 c1c1 4e84 aa41 2d96 7d41 79d8 74c2
000002b0: 0ac1 d841 0d24 a5c1 1eea 0342 0fa4 c641
000002c0: 30fe b6c1 f84a ac41 6f00 47c0 9882 b9c1
000002d0: 3a48 3642 43fb b241 66e1 c741 f5ad b541
000002e0: bebe dc41 5ceb 5ec2 a819 0640 56bd b641
000002f0: ca4c 99c1 e746 c0c1 a348 c041 d292 efc1
00000300: 4aef bbc1 a3f0 c0c1 b7cd 12c1 4bb4 b9c1
00000310: 4320 e741 4782 c0c1 6bc8 aac1 648f b741
00000320: c40c 14c1 b3b5 bbc1 709a 8441 a17e 2142
00000330: 077e 8140 309c 3bc1 f766 c141 0ab8 0442
00000340: 2813 b441 e576 f541 0b96 6541 3210 e5c1
00000350: a169 e5c1 d7a4 bfc1 7b8e f741 e4b1 3742
00000360: 65ee f8c0 49ba b041 685c 53c1 461f bbc1
00000370: 1b4d b541 730a e4c1 8e49 01c2 edd7 af41
00000380: 4774 b4c1 0719 8fc1 18d4 b5c1 ba08 2942
00000390: 2e2c ac41 1afb 6e41 df1b d8c1 571d e9c1
000003a0: e740 d6c1 7870 4941 a089 3242 f500 7bc1
000003b0: 58fc e4c1 a1b0 63bf 5d79 ecc1 a612 a63f
000003c0: 60aa ecc1 fb54 be41 b1bb e341 987e c63d
000003d0: 27cb f041 abe5 b7c0 b628 5dc1 20b7 c741
000003e0: ab7b 1541 ec00 ad41 029a b541 bef5 2f41
000003f0: 3e15 8bc0 2008 d8c1 b3ad 18c1 15db b9c1
6.5875096 -0.91552067 29.925034 -21.733017 -0.5626306 -6.6223226 -0.0717825 -3.6078568
2.2383442 -24.184332 -32.342697 21.473076 13.206571 23.232065 22.716028 -19.906748
13.658236 -26.953106 -45.89854 -34.782505 -24.273258 37.657925 -38.384235 -30.54187
8.796593 -0.013863236 -33.617306 22.420694 23.227558 -36.679447 -32.607098 4.8739414
25.32663 31.957731 13.133349 -23.016308 -13.886087 -35.76805 23.51048 -33.982822
-27.273361 14.339203 14.285938 -36.29972 29.893871 -13.69897 -22.232904 30.89447
-35.98435 -19.798515 -12.951342 -26.060638 -18.63718 25.26344 32.40244 23.54852
22.589748 -25.18673 -12.830904 25.973282 -11.361124 -27.462955 27.526173 -37.29632
-22.266138 -27.735577 -16.957512 -25.913582 36.451633 -27.660172 -26.858154 26.124195
-11.87046 -26.415455 -19.008759 13.549453 18.274994 -12.497517 24.740232 37.201775
24.125626 -8.638358 -0.0911887 -38.082165 -22.675816 -27.68871 31.07936 39.836353
-4.901883 25.51729 17.236395 -21.37988 24.785587 -38.570095 -39.787064 24.404596
-24.620316 -16.557001 -25.36396 10.988363 24.222136 4.726272 -32.796146 -41.496998
-13.00082 26.686567 6.6975274 -8.780136 -33.850185 -3.681135 -37.578644 -30.220325
-33.606766 27.26194 41.692295 1.113994 38.71845 15.60644 -42.828365 27.626802
10.547104 22.452505 24.687832 13.744883 42.800617 -24.359812 -18.739023 -26.865303
11.006453 -14.110787 -10.552352 -21.329823 -39.182175 -39.92742 -0.0061274082 -14.1933775
13.709485 -24.203922 -27.079363 41.16098 20.837215 22.032747 22.782007 -20.928959
-35.753788 -7.1953893 -36.22767 -26.966406 -22.523918 32.534397 -32.236134 -38.697952
17.829977 -15.763817 -29.57573 2.9899757 39.401474 -22.272367 -31.763687 15.775483
22.95778 29.55475 -0.11428314 -21.513 -12.823921 -27.870462 22.285633 -29.44734
-24.207605 21.314602 15.849164 -61.2114 27.094257 -20.642603 32.97863 24.830107
-22.874115 21.536606 -3.1094015 -23.188766 45.570534 22.372686 24.985058 22.70994
27.593136 -55.729843 2.095316 22.84245 -19.162495 -24.03462 24.035467 -29.94669
-23.49184 -24.117498 -9.175223 -23.213034 28.890753 -24.063612 -21.34786 22.945015
-9.253117 -23.46372 16.575409 40.37366 4.046634 -11.725632 24.175276 33.179726
22.509354 30.683054 14.349132 -28.632908 -28.676577 -23.955488 30.94457 45.92372
-7.779101 22.09096 -13.21006 -23.39027 22.66265 -28.505102 -32.32183 21.980433
-22.556776 -17.88722 -22.728561 42.258522 21.521572 14.936304 -27.013609 -29.139326
-26.78169 12.589958 44.6344 -15.687734 -28.623215 -0.8894139 -29.55926 1.2974441
-29.58319 23.791494 28.466646 0.096921146 30.099195 -5.7467856 -13.822439 24.964417
9.342692 21.62545 22.7002 10.997496 -4.346343 -27.003967 -9.542407 -23.231974

model.4.bias f4 [5]
00000000: 4b24 2142 a770 f041 af19 0742 850b 2442
00000010: be8b d142
40.285442 30.055006 33.77508 41.01125 104.772934
