results/palindrome/ql_4.pt (torch, 84325 bytes, 6 tensors)

model.0.weight f4 [128, 25]
0	0xbea0091e	-0.31256956
1	0xbdd05b14	-0.10173622
2	0x3f60d40b	0.8782355
3	0xbcd99a89	-0.026562946
4	0x3fb71976	1.4304645
5	0xbe2e9644	-0.1704951
6	0xbdc62588	-0.09675127
7	0xbd5e47cd	-0.054267693
8	0xbd929ef7	-0.071592264
9	0xbe412803	-0.1886292
10	0xbe021222	-0.1270223
11	0x3d2ead5a	0.04264579
12	0xbe1eea48	-0.15519059
13	0xbcdbbdf3	-0.026823973
14	0x3e0ecae3	0.13944583
15	0xbd0478f3	-0.03234191
16	0xbc172d9a	-0.009227181
17	0x3dc8a763	0.097975515
18	0xbd58f65a	-0.052969314
19	0x3c8051b3	0.015663957
20	0x3da9b707	0.08286863
21	0x3d4b95ba	0.049703337
22	0x3e10d25f	0.1414275
23	0xbd0c2b2d	-0.034220863
24	0xbe13a060	-0.14416647
25	0xc015a92d	-2.3384507
26	0x3f21a2b6	0.631389
27	0x3e249bef	0.16075109
28	0x3f4bb9e3	0.79580516
29	0xc004a521	-2.0725787
30	0xbec515f3	-0.38493308
31	0xbefb3263	-0.4906188
32	0x3cac7bf3	0.021055197
33	0x3d4fcd27	0.050732758
34	0x3dd014fd	0.10160253
35	0xbccf3c67	-0.025297357
36	0xbe03c367	-0.12867509
37	0xbd5ce920	-0.053933263
38	0xbd9a956a	-0.0754803
39	0x3d27b2da	0.04094205
40	0xbcd58133	-0.026062584
41	0x3d58ab67	0.052897837
42	0x3e098a97	0.13431774
43	0xbde35797	-0.11100691
44	0x3ddd21cd	0.107974626
45	0x3e0a6a63	0.13517146
46	0xbe2ac562	-0.16676858
47	0xbb9b9133	-0.0047475337
48	0x3d942317	0.07233255
49	0xbdb4fb83	-0.088370346
50	0xbde6f8a9	-0.11277897
51	0xbcb4573f	-0.022014258
52	0x3fafe202	1.3740847
53	0x3d8d095c	0.06886551
54	0x3f84ca85	1.0374304
55	0xbec6a7be	-0.38799852
56	0xbeb38680	-0.35063553
57	0xbde49a2d	-0.11162219
58	0xbcca868d	-0.024722362
59	0xbd721980	-0.05910635
60	0x3e312763	0.17300181
61	0xbe3b2c57	-0.18278633
62	0x3e153795	0.14571984
63	0xbe416337	-0.18885504
64	0xbdf580ed	-0.11987481
65	0xbde8e2a3	-0.113713525
66	0x3d9f3843	0.07774403
67	0xbd042cb3	-0.03226919
68	0x3e08daf8	0.1336478
69	0xbe36a683	-0.17836957
70	0x3d74fe5a	0.05981288
71	0x3cb6da4d	0.02232089
72	0x3e31858b	0.17336099
73	0xbe0d74fa	-0.13814154
74	0xbde01a1a	-0.109424785
75	0xbebc04b5	-0.3672234
76	0x3cc5de88	0.024153963
77	0x3fa743d7	1.3067578
78	0xbf7ace0d	-0.9797066
79	0x3e2d87f8	0.16946399
80	0x3ecd75ea	0.40129024
81	0x3e4bc9f3	0.19901256
82	0x3e30cc7a	0.17265502
83	0xbd94adf3	-0.07259741
84	0x3e38276f	0.17983793
85	0xbe3476ea	-0.17623487
86	0x3c890573	0.016726231
87	0xbdccc203	-0.09997942
88	0x3da2adfd	0.07943342
89	0x3d852f10	0.06503117
90	0x3e2614c8	0.16218865
91	0x3e477e07	0.1948167
92	0x3e3e3772	0.18575838
93	0xbd460380	-0.04834318
94	0xb800199a	-3.054142e-05
95	0xbd8b7b83	-0.06810667
96	0xbe3dd7e2	-0.18539384
97	0x3caf99cd	0.021435643
98	0xbd8efcc0	-0.06981802
99	0x3d99afbd	0.075042225
100	0x3fc9e526	1.5773056
101	0xbed8e33f	-0.42360875
102	0xbf97afae	-1.1850488
103	0x40562881	3.3462222
104	0xbfbfab97	-1.497424
105	0xbe9d86df	-0.3076696
106	0xbe2805d8	-0.16408479
107	0x3da35a4a	0.07976206
108	0x3e443ce0	0.19163847
109	0x3d595f7a	0.05306957
110	0x3e15a5fa	0.14614096
111	0x3db0b583	0.086283706
112	0x3d28f39a	0.04124794
113	0x3da647ea	0.08119185
114	0x3c9324f3	0.017961955
115	0x3b3808cd	0.0028081418
116	0x3e31e8f0	0.17374015
117	0xbdfb12b3	-0.12259426
118	0x3ca67e8d	0.020324016
119	0x3e3ef9b3	0.1864994
120	0x3dec88f0	0.11549556
121	0x3e0e1182	0.13873866
122	0x3d2b719a	0.041856386
123	0x3dad0d03	0.084497474
124	0xbb160d33	-0.002289605
125	0xbe1af4da	-0.15132466
126	0xbe632e17	-0.2218555
127	0xbf3539e7	-0.70791477
128	0xbeb76349	-0.35817936
129	0xc051856e	-3.273769
130	0x3f3042e3	0.6885206
131	0x3f0794ad	0.52961236
132	0xbe01beba	-0.12670413
133	0x3e108fd8	0.14117372
134	0x3d5b1fc0	0.053497076
135	0x3be9f467	0.0071397307
136	0x3e351245	0.1768275
137	0xbe0d3bad	-0.13792296
138	0x3e48aafb	0.19596474
139	0x3e3b3247	0.18280898
140	0x3c1de04d	0.009635997
141	0xbe220b90	-0.15824723
142	0xbe4b1ced	-0.19835253
143	0xbcf7e54d	-0.030260706
144	0x3ad55a67	0.0016277552
145	0xbe28b1d8	-0.16474092
146	0x3de6fcfa	0.1127872
147	0xbe187877	-0.14889704
148	0x3e3d12ff	0.18464278
149	0xbcd84ab3	-0.026402807
150	0x3f096ef7	0.53684944
151	0xbf25fb25	-0.6483634
152	0xbce978fe	-0.028500076
153	0x3f06aee4	0.5261061
154	0xbfd8fd65	-1.695233
155	0xbde42274	-0.11139384
156	0xbe30813d	-0.172368
157	0x3d0e5693	0.034750532
158	0x3e1f6130	0.15564418
159	0x3c9d1fc0	0.019180179
160	0xbdf84f5d	-0.12124512
161	0x3d8b7780	0.06809902
162	0xbd957177	-0.07297032
163	0x3d042c2d	0.03226869
164	0xbe429178	-0.19000804
165	0x3c28f567	0.010312415
166	0xbc518600	-0.012788296
167	0x3e285f7f	0.16442679
168	0x3d2c7e20	0.04211247
169	0xba2814cd	-0.0006411791
170	0xbe0d233d	-0.13782974
171	0xbe32d4a3	-0.17463927
172	0x3dc0e2ca	0.094182566
173	0x3e2a183b	0.16610806
174	0x3e394233	0.18091659
175	0xbec3664f	-0.38163993
176	0x3f050de2	0.5197431
177	0xbf346c67	-0.7047791
178	0xbedbc486	-0.42923373
179	0x4009c063	2.1523674
180	0x3ef9df18	0.4880302
181	0x3f2a0f90	0.66429996
182	0x3e4a054d	0.19728585
183	0xbe232e57	-0.15935646
184	0x3e10df15	0.14147599
185	0x3dd6e89d	0.10493586
186	0x3db9303d	0.09042404
187	0x3c3c2c33	0.011485147
188	0xbe04fc0d	-0.12986775
189	0x3e43e545	0.19130428
190	0x3e3c0123	0.18359809
191	0xbd53e5f3	-0.05173297
192	0x3df5868a	0.11988552
193	0x3c898c80	0.016790628
194	0x3c3b7c67	0.011443234
195	0x3d605b73	0.054774713
196	0xbda1f633	-0.07908287
197	0x3c603d9a	0.013686562
198	0xbd8d3bd0	-0.06896174
199	0x3e366698	0.17812574
200	0x400fbfd4	2.2460833
201	0xbfa4d586	-1.2877662
202	0x3f24679e	0.6422061
203	0xbf5859f7	-0.84512275
204	0xbf9cd2a1	-1.2251779
205	0x3ee1090d	0.43952218
206	0x3ee87314	0.45400298
207	0x3d97bd83	0.07409193
208	0xbcad47c0	-0.021152377
209	0x3dbbdc4d	0.091728784
210	0x3e141215	0.14460023
211	0x3dc61940	0.09672785
212	0xbdaff5b0	-0.08591783
213	0xbd952293	-0.07281985
214	0x3c9925f3	0.018694853
215	0x3dfe7ebd	0.12426517
216	0xbdafeeca	-0.08590467
217	0xbcfcc767	-0.030856801
218	0xbe2394c3	-0.15974717
219	0x3ddf28ea	0.108964756
220	0xbe475212	-0.19464901
221	0x3dd00a8d	0.101582624
222	0xbd2a9a7a	-0.041651227
223	0xbdcb01fa	-0.099124864
224	0x3e015e18	0.1263355
225	0x3f0ce65b	0.55038995
226	0xbe1b80a7	-0.15185796
227	0x3ed2d9af	0.41181704
228	0xbe376ba3	-0.17912154
229	0xc003478e	-2.0512424
230	0xbe9c88a5	-0.30573002
231	0xbe8a94d1	-0.27066663
232	0xbe3bc1fd	-0.1833572
233	0x3e25d177	0.16193186
234	0xbd77f7b3	-0.06053896
235	0x3dd809b3	0.10548725
236	0x3d882b4d	0.06648884
237	0xbd95e5a0	-0.07319188
238	0x3e285213	0.16437559
239	0xbde9bc0d	-0.11412821
240	0x3e067042	0.1312876
241	0xbe38eee0	-0.18059874
242	0x3e2559c0	0.16147518
243	0x3ddeb33a	0.108740285
244	0x3c1ff167	0.009762145
245	0xbdaf1faa	-0.08550961
246	0x3c1e2800	0.009653091
247	0xbdcbc1e7	-0.09949093
248	0xbd2eddfa	-0.042692162
249	0x3ca4bacd	0.020108605
250	0x3e127013	0.14300565
251	0xbe5b72c3	-0.21430497
252	0x3f365178	0.7121806
253	0xbda9e46c	-0.08295521
254	0xbfa9fd28	-1.3280382
255	0xbf5138bc	-0.81727195

model.0.bias f4 [128]
0	0xbee75679	-0.4518316
1	0xbe76dd5a	-0.24107876
2	0xbe4a5008	-0.19757092
3	0x3e8be652	0.27324158
4	0xbddf3b83	-0.10900023
5	0x3f34fed3	0.7070133
6	0x3ddb7bd3	0.10716977
7	0x3f3c736d	0.73613626
8	0x3e8cc5f7	0.27494785
9	0xbeae4cdb	-0.3404301
10	0xbf79020f	-0.97268766
11	0xbf32395f	-0.6961879
12	0xbbdab39d	-0.0066742436
13	0x3e4f4e88	0.20244801
14	0xbea98374	-0.33108103
15	0xbebd6d98	-0.36997676
16	0x3f1c7671	0.6111823
17	0x3e3ec637	0.186303
18	0xbf031781	-0.5120774
19	0x3f072f42	0.52806485
20	0xbf62b219	-0.88553005
21	0xbe077460	-0.13227987
22	0x3f4e0a2f	0.8048429
23	0x3f6a6367	0.91557926
24	0xbf089b5f	-0.5336208
25	0x3d85ce14	0.06533447
26	0x3d120e32	0.03565807
27	0x3e771b36	0.24131474
28	0xbf4736de	-0.77818096
29	0x3ed344dd	0.41263476
30	0x3ea90772	0.33013493
31	0x3c1d7237	0.0096097505
32	0x3f954b9d	1.16637
33	0xbf58ac61	-0.8463803
34	0x3e1282dd	0.14307733
35	0xbe9512c9	-0.29115894
36	0x3edc4541	0.43021587
37	0xbea5961c	-0.32341087
38	0xbe96fee6	-0.29491347
39	0x3f216cf3	0.6305687
40	0xbeb122d7	-0.34596893
41	0xbe1012e7	-0.1406971
42	0xbdae6b51	-0.08516563
43	0xbee05c67	-0.43820497
44	0x3edcf8d6	0.43158597
45	0x3e438316	0.19092974
46	0x3ed72f14	0.42028105
47	0x3f2c8809	0.67395073
48	0x3f11be73	0.5693123
49	0xbf57a6a8	-0.8423867
50	0x3fa895ef	1.3170756
51	0xbe667aba	-0.22507754
52	0x3e6256c8	0.22103417
53	0x3f20a3e9	0.6275011
54	0xbedc4ee2	-0.43028933
55	0x3dadc5da	0.08485003
56	0xbe234fcb	-0.15948407
57	0x3ed3ac1d	0.4134225
58	0xbf55f34b	-0.8357436
59	0x3f40b006	0.7526859
60	0x3ed38be0	0.41317654
61	0xbe9b9013	-0.30383357
62	0xbf43b672	-0.76450264
63	0xc03e227c	-2.9708548
64	0xbf5b2049	-0.8559614
65	0x3f587fcf	0.8457002
66	0xbef36b78	-0.4754293
67	0x3f3251e8	0.6965623
68	0x3f8f4c58	1.1195173
69	0xbd08ea38	-0.033426493
70	0xbddcb97a	-0.10777564
71	0x3f42fd20	0.7616749
72	0xbea80609	-0.32817104
73	0x3f6f6cda	0.9352547
74	0x3f1d71b7	0.6150164
75	0xbf2bd5ef	-0.6712331
76	0x3f109bc9	0.5648771
77	0x3eee9512	0.46598107
78	0x3ed277b5	0.41106954
79	0x3e2fd202	0.17169955
80	0xbf15dd7b	-0.5854108
81	0x3dc5d6dd	0.096601225
82	0x3dbd6db0	0.09249437
83	0x3e89d145	0.26917472
84	0x3f218f09	0.6310888
85	0x3f655723	0.89586085
86	0xbf803a9a	-1.0017884
87	0xbdb1675b	-0.086622916
88	0xbeed3533	-0.4632965
89	0xbed0c7b3	-0.40777358
90	0xbee00af4	-0.43758357
91	0x4040257c	3.0022879
92	0x3f14906c	0.5803287
93	0x3f12cda6	0.57345045
94	0xbe47cb1a	-0.19511071
95	0xbf44cfc0	-0.768795
96	0xbee5e56e	-0.44901603
97	0x3eec8b5c	0.46200073
98	0x3e1eec8d	0.15519924
99	0x3ea7ebd5	0.32797113
100	0xbeda9fa7	-0.4269993
101	0xbf7185da	-0.94344866
102	0xbef53cee	-0.47898048
103	0x3ea1d466	0.3160736
104	0xbf0d3851	-0.55164057
105	0xbe747a91	-0.2387488
106	0x3f9f9413	1.2467064
107	0xbe639420	-0.22224474
108	0xbe83053d	-0.25589934
109	0x3dabe854	0.083939224
110	0x3f350af4	0.7071984
111	0xbe72c2ed	-0.23707171
112	0xbe9546a8	-0.2915547
113	0x3ea95eae	0.33080047
114	0x3ef6d52a	0.48209506
115	0xbc19bc0d	-0.009383214
116	0xbf330fdb	-0.6994607
117	0xbe2c6859	-0.1683668
118	0xbe581d6d	-0.21104975
119	0x3f00841f	0.502016
120	0xbf6fd299	-0.9368072
121	0x3eb64981	0.35602954
122	0x3f103449	0.5632978
123	0xbf11a7c6	-0.56896627
124	0xbec7cf51	-0.39025357
125	0xbf311449	-0.6917158
126	0xbecafdd0	-0.3964677
127	0xbfac89e6	-1.3479583

model.2.weight f4 [128, 128]
0	0x3f3d9121	0.74049574
1	0x3f1cd78e	0.6126641
2	0x3f7eb5fa	0.99496424
3	0xbe23de5a	-0.16002789
4	0xc023dd98	-2.5604
5	0xbf1d2af0	-0.6139364
6	0xbf0551dd	-0.5207804
7	0xbdf86b76	-0.121298715
8	0xbe74b707	-0.23897944
9	0xbf12d85a	-0.57361376
10	0xbea76968	-0.32697606
11	0x3e83927a	0.2569769
12	0xbf23a559	-0.63924176
13	0x3f62ee96	0.88645303
14	0xbdf25d62	-0.118342176
15	0x40025a13	2.0367477
16	0xbf0b6117	-0.5444502
17	0xbf998218	-1.1992826
18	0x3fbe1fd1	1.485346
19	0xbf336c3d	-0.70087034
20	0x3f24efbc	0.64428306
21	0xbf9186b3	-1.1369232
22	0x3f47e4a7	0.7808327
23	0xbf45af33	-0.7722046
24	0x3ef0647b	0.4695166
25	0x3e854f1b	0.26036915
26	0xbf87b95c	-1.0603442
27	0xbec4ba54	-0.38423407
28	0xbec5e5fa	-0.3865202
29	0xc009f9eb	-2.1558788
30	0x3f02fd9f	0.51168245
31	0x3e74f4f1	0.23921563
32	0x3f28782f	0.65808386
33	0x3e3cd6dc	0.18441337
34	0xbf22f898	-0.63660574
35	0xbc899ae9	-0.0167975
36	0xbe37587e	-0.17904851
37	0xbe0ec571	-0.13942505
38	0xbe676f76	-0.22601113
39	0xbfa43cd2	-1.2831061
40	0x3f9fafd6	1.2475536
41	0xbf18db6a	-0.597098
42	0xbe997447	-0.29971525
43	0x3f7998f2	0.97499
44	0xc025bc97	-2.5896356
45	0xbfc0d832	-1.5065978
46	0xbfb77611	-1.4332906
47	0x3f5647ea	0.8370348
48	0x3e344b82	0.17606929
49	0xbddc67f7	-0.10762017
50	0x3eaba51b	0.33524403
51	0x3f448251	0.7676135
52	0x3f044416	0.5166639
53	0xbe8ba112	-0.27271324
54	0xbee2efd4	-0.443236
55	0xbcf20325	-0.029542515
56	0xbe4a89ac	-0.1977908
57	0xbf66b283	-0.9011614
58	0xbf244182	-0.64162457
59	0xbfd4778e	-1.6598985
60	0xbd29386d	-0.041313577
61	0xbd013631	-0.03154582
62	0x3eaeddc7	0.34153578
63	0xbec0244d	-0.37527695
64	0x3ffab6a0	1.9586983
65	0xbef1a9fd	-0.47200003
66	0x3f2cc4f9	0.67488056
67	0x3e509cf9	0.2037238
68	0x3f540c2a	0.8283106
69	0xbe934be6	-0.28768843
70	0x3ca06813	0.019580876
71	0xbee8d5e1	-0.45475677
72	0x3db63202	0.08896257
73	0xbfa2be47	-1.2714318
74	0xbf0f6d15	-0.5602582
75	0xbe80e627	-0.25175592
76	0xbfb9900c	-1.4497085
77	0x3f555ecd	0.8334778
78	0x3ed02bdf	0.4065847
79	0xba6b0d40	-0.0008966513
80	0x3eb2d1f1	0.34925798
81	0x4008e9f8	2.1392803
82	0xbed97dd7	-0.4247882
83	0xbfd9e9b4	-1.7024446
84	0xbedfbea6	-0.4370014
85	0xbf92b607	-1.14618
86	0xbc3a0335	-0.011353304
87	0x3f0ed1a8	0.5578866
88	0xbf5bc451	-0.8584643
89	0x3e487364	0.19575268
90	0xc0190923	-2.3911827
91	0x3ea36f51	0.31920865
92	0xbf96e492	-1.1788504
93	0xbfca3287	-1.579667
94	0x3f9da70e	1.2316606
95	0xbeb8d179	-0.36097315
96	0x3d1a285a	0.03763614
97	0x3f6e28b1	0.9303084
98	0x3ecbf436	0.39834756
99	0x3f6e4469	0.93073136
100	0xbdee19c4	-0.11626008
101	0xbec772f9	-0.38954905
102	0xbef4f8f2	-0.4784618
103	0xbfc3915f	-1.5278739
104	0x3f134e80	0.57541656
105	0x3d67f154	0.056626633
106	0xbf0506b1	-0.51963335
107	0x3ef13fc5	0.47118965
108	0x3f9fc3b5	1.24816
109	0x3f48ff17	0.78514236
110	0xbf419c21	-0.7562886
111	0xbe8c48cd	-0.27399293
112	0xbf331eb6	-0.69968736
113	0xbea9fe83	-0.3320199
114	0xbf6d3e58	-0.92673254
115	0x3e1dcdde	0.15410563
116	0x3e59f2d7	0.21284042
117	0xbf01bfc8	-0.5068326
118	0xbdc4c731	-0.09608305
119	0xbed94a01	-0.42439273
120	0x3f9d07af	1.226797
121	0x3fbafddc	1.4608722
122	0xbe66c098	-0.22534406
123	0x3fa54c05	1.2913824
124	0x3fcf5901	1.6199037
125	0x3f3d991f	0.7406177
126	0xbe98836e	-0.29787773
127	0x3d9592d6	0.07303397
128	0x3f01a87f	0.5064773
129	0x3f17b41d	0.59259206
130	0x3d18bba2	0.037288316
131	0xbf8b84fe	-1.0899961
132	0xbe5d4830	-0.21609569
133	0xbfa1973e	-1.262428
134	0xbe9b116b	-0.30286726
135	0xbedfab78	-0.43685508
136	0xbf807781	-1.003647
137	0x3f04989a	0.5179535
138	0x3eef9c9c	0.4679917
139	0x3e871c16	0.26388615
140	0xbe8f707b	-0.28015503
141	0xbf9bc2ea	-1.2168858
142	0xbeade17a	-0.33961087
143	0x3ebda011	0.37036183
144	0xbee295cf	-0.4425492
145	0xbe9eeb57	-0.31038925
146	0x3e8f97ea	0.2804559
147	0xbe1f26a5	-0.15542085
148	0x3f3c2920	0.7350025
149	0xbf7026b8	-0.9380908
150	0xbf8ffac4	-1.1248403
151	0xbf042dde	-0.5163249
152	0xbf0ca8cd	-0.5494507
153	0x3f31693f	0.6930122
154	0x3ef8b229	0.48573425
155	0xbeaffa52	-0.34370667
156	0xbe9f8c88	-0.31161904
157	0xbf0c0966	-0.5470184
158	0xbf74cd3e	-0.95625675
159	0xbf181cc2	-0.5941888
160	0xbef2f6a1	-0.47453788
161	0x3f874ca2	1.0570261
162	0x3ec9afca	0.3939193
163	0x3f62780b	0.8846442
164	0x3f014978	0.5050273
165	0xbe091a9d	-0.13389058
166	0xbd77e016	-0.06051644
167	0xbf7a4fa7	-0.9777779
168	0x3eb0088c	0.3438152
169	0xbcda9573	-0.026682591
170	0xbf8e9bfa	-1.114135
171	0x3dbdea75	0.09273235
172	0xbeed22c0	-0.46315575
173	0xbf99c771	-1.201399
174	0xbf00d095	-0.5031827
175	0xbf5c6f34	-0.8610718
176	0xbfb8512c	-1.4399772
177	0xbedcad89	-0.43101147
178	0xbf0843ed	-0.53228647
179	0xbfc34550	-1.5255527
180	0x3ec17bd2	0.3778978
181	0xc011522b	-2.2706401
182	0x3e09f1e4	0.1347118
183	0xbebeb3dd	-0.372466
184	0x3f6e55b8	0.93099546
185	0x3ef4f603	0.47843942
186	0xbdc7a8cf	-0.097489946
187	0x3e16d6df	0.14730404
188	0xbcdee740	-0.027209878
189	0x3e979651	0.2960687
190	0xbeedd3a4	-0.4645053
191	0x3f127357	0.57207245
192	0xbee0cd56	-0.4390666
193	0xbf4b6237	-0.7944674
194	0x3e8adbb9	0.2712076
195	0xbfa25e4d	-1.2685028
196	0x3e2f005f	0.17089985
197	0xbfd24741	-1.6427995
198	0x3f060a19	0.5235916
199	0xbf8d97b6	-1.1061924
200	0x3ed942bb	0.42433724
201	0xbfca9ed2	-1.5829718
202	0xbf4b3582	-0.7937852
203	0xbe414483	-0.18873791
204	0xbefdd565	-0.4957687
205	0xbddfb32f	-0.109228484
206	0xbf69348f	-0.91095823
207	0x3de6dcb1	0.11272562
208	0x3fbd9a36	1.4812686
209	0x3ecca07d	0.39966193
210	0xbf0c32fa	-0.54765284
211	0xbf1c4cbf	-0.61054605
212	0xbf456908	-0.7711339
213	0xbeea466e	-0.4575686
214	0x3f9674c6	1.1754386
215	0x3f173ae2	0.59074223
216	0xbe0d426f	-0.13794874
217	0xbd933a75	-0.07188884
218	0xbdf6557f	-0.12028026
219	0xbed626f6	-0.418266
220	0xbf440801	-0.76574713
221	0xbfdae61c	-1.7101474
222	0xbf4c075f	-0.7969875
223	0x3f1724ed	0.5904072
224	0xbda20e7f	-0.07912921
225	0xbdcd05b8	-0.100108564
226	0xbf311ff6	-0.69189394
227	0xbf187ffc	-0.5957029
228	0xbe96909e	-0.2940721
229	0x3f16b339	0.5886722
230	0x3f0a5ba7	0.540461
231	0x3e822467	0.25418398
232	0xbea45b96	-0.32101125
233	0xbe9deae5	-0.30843273
234	0xbf8ad43e	-1.0846021
235	0x3f173f62	0.5908109
236	0x3e6b940d	0.23005696
237	0x3eec6441	0.46170238
238	0xbec3054e	-0.38089985
239	0x3f0fa5af	0.5611219
240	0xbe6a1d54	-0.2286275
241	0x3eda550c	0.4264301
242	0xbe5559ec	-0.20835084
243	0x3e3d2dc9	0.18474497
244	0xbeff31d1	-0.49842694
245	0xbf8ba931	-1.0911008
246	0xbfce6eb1	-1.612753
247	0x3ef6f069	0.48230293
248	0xbeeecf84	-0.46642697
249	0x3e825b2b	0.2546018
250	0xbf92652f	-1.1437129
251	0x3f3c2359	0.73491436
252	0x3e971340	0.29506874
253	0x3ebae52d	0.36502972
254	0x3ee80ad4	0.4532076
255	0xbdc2bbe4	-0.095084935

model.2.bias f4 [128]
0	0x3e895375	0.26821485
1	0xbf1215c1	-0.57064444
2	0x3e9ccbac	0.3062414
3	0xbf195a02	-0.59902966
4	0xbf02d9ed	-0.5111378
5	0x3f6263b6	0.88433397
6	0xbe8e1b9e	-0.27755445
7	0xbd903871	-0.07042015
8	0xbc81a2b8	-0.01582466
9	0x3f047206	0.51736486
10	0x3e5ceecb	0.21575467
11	0xbf326543	-0.69685763
12	0x3cddcaf4	0.027074315
13	0xbe9b089f	-0.30280015
14	0xbe6c35c6	-0.23067388
15	0xbd266d51	-0.040631596
16	0xbf04318a	-0.5163809
17	0xbcb3ba73	-0.021939492
18	0x3df3e386	0.11908631
19	0x3e6db3fe	0.23213193
20	0xbe0aa998	-0.13541257
21	0xbef6abe5	-0.4817802
22	0xbe6de425	-0.23231561
23	0xbed5c05e	-0.41748327
24	0xba83d96c	-0.0010059304
25	0xbe0ecba7	-0.13944875
26	0xbea90930	-0.33014822
27	0x3f20e81f	0.6285419
28	0x3f501bb7	0.8129229
29	0x3f4347d6	0.7628149
30	0x3e4626c0	0.1935072
31	0x3ec45c70	0.38351774
32	0xbf510c53	-0.8165943
33	0xbf239e46	-0.6391338
34	0x3ea83926	0.328561
35	0xbf7dc24a	-0.99124587
36	0x3eae7f84	0.34081662
37	0xbe96abfd	-0.29428092
38	0x3e96c17c	0.29444492
39	0x3e35dc16	0.17759737
40	0xbddb2f1b	-0.10702344
41	0x3e58c216	0.21167788
42	0x3d727134	0.05918999
43	0x3f8bfe51	1.0936986
44	0xbe3c06bc	-0.18361944
45	0xbe2f1cdc	-0.17100853
46	0x3f2c8a8c	0.67398906
47	0x3e1bfbdc	0.15232795
48	0x3da04025	0.078247346
49	0xbd8c36b5	-0.06846372
50	0x3e4d2727	0.20034467
51	0xbf304001	-0.6884766
52	0xbeadf31a	-0.33974534
53	0xbe17c827	-0.14822446
54	0xbeb01cfc	-0.34397113
55	0x3ec32e5d	0.3812131
56	0xbece6f1e	-0.4031915
57	0xbed98399	-0.42483214
58	0xbe5779a2	-0.21042493
59	0x3c59d06a	0.013294319
60	0x3f06e87f	0.5269851
61	0xbed0f1cc	-0.40809476
62	0x3e8b0985	0.271557
63	0x3f1e6ef6	0.6188806
64	0x3e87685f	0.26446816
65	0x3ed4462e	0.41459793
66	0xbd03f2f7	-0.03221413
67	0x3e284164	0.16431195
68	0x3f420c0c	0.7579963
69	0xbe7a051d	-0.24416013
70	0xbe9a97a7	-0.30193827
71	0x3ed29346	0.41127986
72	0xbf1c4c7f	-0.61054224
73	0x3e4b3e7e	0.19848058
74	0x3ec22151	0.37916043
75	0xbd95fa73	-0.0732316
76	0xbf50c71d	-0.8155382
77	0xbe23554d	-0.15950508
78	0xbed42578	-0.41434836
79	0x3e57822c	0.2104575
80	0x3f0c6b1b	0.5485093
81	0x3d855bec	0.06511673
82	0x3e041314	0.12897903
83	0x3f47d00d	0.78051835
84	0xbe9804b5	-0.2969109
85	0x3dfbc719	0.12293834
86	0x3c4f4637	0.012651018
87	0x3f12bd76	0.57320344
88	0xbec13b8b	-0.3774074
89	0xbe9e5c43	-0.30929765
90	0x3dd30453	0.10303559
91	0xbdeadf3e	-0.11468361
92	0xbf1b711f	-0.60719484
93	0xbf4f5046	-0.8098186
94	0x3f5b3dc1	0.85641104
95	0x3da13329	0.07871086
96	0xbeddfe2a	-0.43357974
97	0xbe819783	-0.25310907
98	0x3d145118	0.03621015
99	0xbf55a2dc	-0.8345163
100	0xbe4250c5	-0.18976124
101	0xbf1554a7	-0.58332294
102	0xbe96e000	-0.29467773
103	0x3e8d51b9	0.27601412
104	0xbe171699	-0.14754714
105	0xbf0b9013	-0.54516715
106	0xbe9478aa	-0.2899831
107	0xbe31ddff	-0.17369841
108	0x3ede8782	0.4346276
109	0x3dce20c5	0.10064844
110	0xbe34ac0b	-0.17643754
111	0x3d928d00	0.071558
112	0xbe3028fd	-0.17203136
113	0x3e93dcf4	0.2887951
114	0x3f18e009	0.5971685
115	0xbf3bbfc0	-0.7333946
116	0x3cc54977	0.024082882
117	0xbf2eddf2	-0.6830741
118	0xbf5907c7	-0.8477749
119	0xbdd4ad1e	-0.10384582
120	0xbef24a9e	-0.47322553
121	0x3f21663a	0.6304661
122	0x3ef62285	0.4807321
123	0x3e8fa9d0	0.28059244
124	0xbee3be29	-0.44481018
125	0xbf3c533f	-0.73564523
126	0xbed4c2bc	-0.4155482
127	0xbc81893a	-0.015812505

model.4.weight f4 [5, 128]
0	0x40b5ddce	5.683326
1	0xbf66c2a5	-0.90140754
2	0x414939ae	12.576582
3	0xc11e6d4f	-9.901687
4	0x402adf0e	2.6698642
5	0x41427317	12.153098
6	0xc17048c9	-15.01777
7	0xc0b1ec18	-5.56007
8	0x409f0690	4.969551
9	0x413a124a	11.629465
10	0xc1422da8	-12.136147
11	0xc14c283d	-12.759824
12	0xc1a45ce7	-20.545362
13	0x40ba1be8	5.8159065
14	0x41312069	11.070413
15	0x3cf5f724	0.030025072
16	0x3fbf8aed	1.4964272
17	0xbf6d6b51	-0.92741877
18	0x41adef0b	21.74172
19	0x404045c7	3.0042589
20	0x3f868f38	1.0512457
21	0xc0f35a8d	-7.6048036
22	0xc130b293	-11.043597
23	0x409426d0	4.629738
24	0xc0c88e75	-6.26739
25	0xc0e86683	-7.2625136
26	0x4101bf3f	8.109191
27	0x4160b06a	14.04307
28	0x414981c2	12.594179
29	0x414b6871	12.712998
30	0x40ac4194	5.383005
31	0x41875e2a	16.920979
32	0xc14839fa	-12.514154
33	0xc066e159	-3.6075041
34	0x41592216	13.570822
35	0xc14da6e7	-12.853248
36	0x40d2a7be	6.5829763
37	0xc149ba45	-12.607976
38	0x41909737	18.073835
39	0x4135e206	11.3676815
40	0x40eb1bd1	7.3471456
41	0xc17d5450	-15.833084
42	0x410a99a7	8.662513
43	0x40ae298d	5.442572
44	0x3f33cf3e	0.702381
45	0x4194afb1	18.585787
46	0x414ab907	12.670173
47	0x417ac971	15.67418
48	0x40ed62a8	7.418293
49	0x3c968d41	0.018377902
50	0x3f67dbb0	0.9056959
51	0xc1440898	-12.252098
52	0xc09d9aaa	-4.92513
53	0xc00c53af	-2.1926076
54	0xc01f5a24	-2.4898767
55	0x4130ce11	11.050309
56	0x411e9808	9.912117
57	0xc16aece6	-14.682837
58	0xc156ff5c	-13.437344
59	0x414bb5ce	12.731886
60	0x413a57f6	11.646475
61	0xc0f879ea	-7.764882
62	0x413dc21d	11.859891
63	0x418dd4fd	17.728998
64	0xbf011397	-0.50420517
65	0x41257782	10.341677
66	0x41407651	12.028886
67	0x419a2fa7	19.273268
68	0x414f4eff	12.956786
69	0x4000c873	2.0122344
70	0xc1216262	-10.086519
71	0x41323d90	11.14003
72	0xc18440b4	-16.531593
73	0xc0aa394e	-5.319495
74	0x4186eff1	16.867159
75	0xc134478f	-11.26747
76	0xc151346c	-13.075298
77	0x3e8b2352	0.27175385
78	0xc109f3cc	-8.622021
79	0x412e2cf2	10.885973
80	0x416afd49	14.686837
81	0x416fe41a	14.993189
82	0xc0b01464	-5.502489
83	0x414eb59b	12.919337
84	0x3eae487e	0.34039682
85	0xbe88b7eb	-0.26702818
86	0x4178abd0	15.541946
87	0x41b8fe17	23.124067
88	0xc16912c4	-14.567081
89	0xc14e12ab	-12.879558
90	0x412af32b	10.684367
91	0xc17aee5b	-15.683192
92	0xc1522586	-13.134161
93	0xc14d16a9	-12.818032
94	0x41503256	13.012289
95	0xc0107d1f	-2.2576368
96	0x40863f27	4.195209
97	0xc1762aed	-15.38548
98	0xc17e4e59	-15.894128
99	0xc14d69b6	-12.838308
100	0xc029b3d8	-2.6516018
101	0xbd8c4d19	-0.06850643
102	0x40218fbe	2.5243983
103	0x4133d780	11.240112
104	0x40d893ca	6.7680407
105	0xc12caf2e	-10.7927685
106	0xc067d841	-3.622574
107	0xbe65e319	-0.22449912
108	0x3f87c660	1.0607414
109	0x4192fb82	18.372807
110	0xc1395b28	-11.584755
111	0x40c3f250	6.123329
112	0xc14dd949	-12.865548
113	0x4162290a	14.135019
114	0x41894f33	17.163671
115	0xc173581b	-15.20901
116	0x3f843c31	1.0330869
117	0xc14beb9a	-12.74502
118	0xc14d2ac5	-12.822942
119	0xc156c169	-13.422219
120	0xc114539e	-9.270414
121	0x40ae630e	5.4495916
122	0x414d2b21	12.8230295
123	0x3e8e5e1e	0.2780618
124	0x3fa978d5	1.324
125	0xc1514bcf	-13.081008
126	0xc11130e2	-9.074434
127	0xc151047f	-13.063598
128	0xc18f9f2a	-17.952717
129	0xc0d11084	-6.533266
130	0x416b1abe	14.694029
131	0xc11b9fdf	-9.726531
132	0xc08bd00c	-4.3691463
133	0x413444bb	11.26678
134	0x41572322	13.446077
135	0xc151b48c	-13.106579
136	0xc0daca83	-6.8372207
137	0x415a645b	13.649501
138	0x40bf0d0d	5.970343
139	0xc137b739	-11.482232
140	0x408d1760	4.4091034
141	0xc1b3e9c4	-22.489143
142	0x415d1ab4	13.819019
143	0xc13335a3	-11.200595
144	0xc0b67248	-5.7014503
145	0x416b2247	14.6958685
146	0xc0d4fa4a	-6.655553
147	0xc1048b18	-8.283958
148	0xc0f47e04	-7.640383
149	0xc120a10a	-10.039316
150	0xc142b395	-12.168843
151	0xc196bfb5	-18.843607
152	0xc118764c	-9.528881
153	0xc148e555	-12.555989
154	0xc193c897	-18.472944
155	0x4183aac3	16.45838
156	0x413a6869	11.650491
157	0x4132d223	11.176303
158	0x411987f3	9.595691
159	0x41921206	18.2588
160	0xc1379c6b	-11.475688
161	0xc0f4dbf5	-7.65185
162	0x41776f38	15.464653
163	0xc13b7c2f	-11.717818
164	0x4141c993	12.111712
165	0xc152044d	-13.12605
166	0x415b68ab	13.713054
167	0x414fcb50	12.987137
168	0x414c082d	12.751996
169	0x418d41ca	17.657124
170	0xc15c2a90	-13.760391
171	0x4106da48	8.428291
172	0xc116248e	-9.3839245
173	0xc123c056	-10.234457
174	0x415ba588	13.727913
175	0xc11002dd	-9.000699
176	0xc1a7e5b7	-20.987165
177	0xc1237a4a	-10.217356
178	0x41784e40	15.519104
179	0xc131f5e1	-11.122529
180	0x419bccbf	19.474974
181	0x418a550f	17.291533
182	0xc10c6090	-8.773575
183	0xc0531534	-3.2981691
184	0xc197fbd9	-18.997972
185	0xc18e45f6	-17.78416
186	0xc1a6eaf8	-20.86473
187	0x41601f88	14.007698
188	0x414036a9	12.013345
189	0x4186f28c	16.868431
190	0x415b4fcd	13.706983
191	0x4159b9e8	13.607887
192	0x410348a4	8.205235
193	0x413d5603	11.833499
194	0x418bf088	17.492447
195	0xc17acb8d	-15.674695
196	0x41357bb7	11.342704
197	0x419867d1	19.050692
198	0x414d64eb	12.837138
199	0x4154b067	13.293067
200	0xc181aab1	-16.208345
201	0x413b9563	11.723971
202	0xc0b20933	-5.563623
203	0xc159436c	-13.57896
204	0xc136dcb4	-11.428883
205	0xc17b2067	-15.695411
206	0x413814e5	11.505101
207	0x414f0fad	12.941327
208	0x41336e9d	11.214505
209	0x41855044	16.664192
210	0xc19fed13	-19.990759
211	0x41385949	11.521798
212	0xc0a0b46c	-5.022024
213	0x417bf07b	15.746211
214	0x41a7d653	20.97965
215	0xc08a824e	-4.3284063
216	0xc18a92a6	-17.321606
217	0xc187decb	-16.983786
218	0x414f6fea	12.964823
219	0xc13ffaf4	-11.998768
220	0xc15965ea	-13.587381
221	0xc1394d0b	-11.581309
222	0x4134acdb	11.292201
223	0x4128f28f	10.559218
224	0xc17c12a6	-15.754553
225	0x41641809	14.255868
226	0xc12fd0cb	-10.988475
227	0xc136941f	-11.411162
228	0x41813d4c	16.15493
229	0x41844d7a	16.53783
230	0xc0a16506	-5.043582
231	0x416c985f	14.7872
232	0xc1aaf5e4	-21.370064
233	0xc1405bfa	-12.022455
234	0x4183d130	16.477142
235	0x415964d3	13.587115
236	0xc1557169	-13.340188
237	0x415b3900	13.701416
238	0xc151980f	-13.099624
239	0x415c5aac	13.772137
240	0xc1510db5	-13.065846
241	0x415b7cca	13.717966
242	0x415c21d2	13.758257
243	0xc14f4654	-12.95467
244	0x409ef3f0	4.9672775
245	0xc13aa71b	-11.665797
246	0xc13b2dff	-11.6987295
247	0xc1780db2	-15.503344
248	0xc1481dd2	-12.50728
249	0xc1a64da9	-20.78792
250	0x418af976	17.371807
251	0xc17819f1	-15.506333
252	0xc0adfde6	-5.4372435
253	0xc138a540	-11.540344
254	0x414fd4f1	12.989488
255	0xc15a867b	-13.657832

model.4.bias f4 [5]
0	0x417f1852	15.943438
1	0x416bac35	14.729543
2	0x4174dba1	15.30362
3	0x4148eb44	12.557438
4	0x42ab324c	85.598236
