results/palindrome/ql_5.pt (torch, 84325 bytes, 6 tensors)

model.0.weight f4 [128, 25]
00000000: 2cb3 32be 4b8c 663f 6e29 d33c 9d1d 00bf
00000010: a3d7 4c40 e406 8f3e 2f1b 0c3e a599 063e
00000020: c029 e8bc 131b d53d 2b30 0bbe 97ed d5bd
00000030: dada eb3c 3a68 ebbd 9301 d0bd 5718 cbbd
00000040: 1af6 68bc 804c 113c 3345 9d3b 93a5 e3bd
00000050: 185d 33be 827f 223e cb06 403e 0b99 34be
00000060: 6024 073e 86eb 8bbd aa5c 19c0 d9cb 4ebc
00000070: b5c2 4f3d ad48 7240 7b79 013d 1c0c 81be
00000080: 3a4a 483e d095 a8bd 504a 0e3e 0ace 04be
00000090: e0f2 1abd 08da 32be 23db 233e 3ac1 b3bd
000000a0: cd27 52bc 4d77 99bd 7bc8 0b3e b770 993d
000000b0: e5ea 42be d045 9a3d 3d03 41be 7352 4c3d
000000c0: b544 153e 5707 fc3d 295a 0540 4725 0640
000000d0: ac3c e9be 3070 8ebe d18a 2c40 1c8a f9be
000000e0: c4d9 38bf b3fa 8b3d 43f0 26be ba03 b63d
000000f0: 676e 4e3b 43d2 8b3d 00f1 ab3c 972a 04be
00000100: 3a6d 54bd a0d9 0a3d 9374 2e3e 9835 1dbe
00000110: a7d0 013e 3891 0c3e 8dcd 0c3d 6718 743c
00000120: 7afa f83d 5857 01be 40af 983c aa01 42bc
00000130: 4d95 d73c 956b af3f df4c e4bc b895 2fbf
00000140: 4ec6 e0be 2789 19bf 40bf b1bc 6dc0 ef3d
00000150: ba7c e53d d572 48be cde5 9cbd a509 253e
00000160: fd76 d53d b3c5 08bd 8dfa c73d 8a75 3cbe
00000170: a2ac 083e a79a e93d d502 37be 43a9 a03d
00000180: 80fa 053e fb5e 2cbe 50ff 95bd 37be d03d
00000190: c317 733f 0d47 a2bf 533b c5be 07f5 8b3f
000001a0: ed78 bbbe 1262 3dbf 9a56 4bbf bf04 1a3e
000001b0: db6a 1bbe 8b45 11be 9ae0 d03b 07c7 a13d
000001c0: df78 3fbe c0fa 2d3d 6062 3b3e cfca 0f3e
000001d0: b784 0fbe d575 40be 1a90 97bd cd82 f2bb
000001e0: 73dd 7dbd 53c1 473e 4d55 7fbc adf8 a7bd
000001f0: 1a81 65bc 58ba 113f d5eb 44bf e0e9 a6bf
00000200: 564c 7fbf 7e93 d0bf a64b 7a3d 7b2e 663e
00000210: 3726 d5bd 00bc fb3c af2f 3a3e a3ec debd
00000220: d792 a93d df43 3fbe 6a7e 03be 4f6b 21be
00000230: 2de3 e63d ff3a 19be 856a 14be 7d60 413e
00000240: 2b50 16be 8011 343c 8b20 2ebe ba68 a7bd
00000250: 4050 ec3c 9afe 553d 5831 283d 794c 35bd
00000260: 2fa9 bf3f a86b 00bc 6622 8fbf 1b37 e5be
00000270: 63a5 efbe 6394 a53d a896 26be 8598 37be
00000280: 983d 3d3e c2d0 473e 83fb e03d dd2b b13d
00000290: ad56 b13d 3763 b8bd 57f7 f83d f39e 953d
000002a0: 478d 4f3d 5877 113e 0dde 413d 1ae4 073e
000002b0: 7a01 453e e773 ac3c 005b 65bc a751 88bf
000002c0: 86ee a53e d817 883f e718 aebf 5d25 01c0
000002d0: 4f7c 193f 61ec 403f e728 4c3e e7a4 7dbd
000002e0: c702 03be 80ac 46bc faa4 de3d 00af bdbd
000002f0: 6771 6ebd 0015 a43c 4baa 273e cdbc 94ba
00000300: 9304 c73d 2369 b8bd 33bc 363c 4d22 a8bd
00000310: 10af 2abe 376f 443e 6311 b43d e7b0 08be
00000320: 0799 4140 f5ba babf 8742 a9be 7d33 81bf
00000330: 18e7 a4bd 4023 303f 9073 143f a7db febc
00000340: 43cf 18be df63 1a3e c7e5 4b3d 5f20 383e
00000350: cffb 02be 052f 403e 43d1 38be d012 f4bd
00000360: edc6 443d c35f 83bd 6059 a83d 334c eabd
00000370: 1d77 fabd d7e0 39be faeb 953d e87e 2a3e
00000380: 5840 48be 5b48 2abf 5e00 54bf ad69 113f
00000390: 8320 fdbe 9c9b 8c3f 427b d23e 66d7 a63e
000003a0: 3726 8abd 67ae 243d 02b9 483e 132e c0bd
000003b0: 3a63 23bd 7a95 eb3d 428c 4c3e 939d 26bd
000003c0: dffa 3d3e d058 4bbe 2b2a 3abe d7c4 cabd
000003d0: d3b7 37be bb28 1d3e 95b7 13be b3ea 19be
000003e0: 37dc 3dbe bd28 cd3d d16b 78be ad47 b6bd
000003f0: acc3 65bf 9491 ea3d 9694 41c0 96b2 2a3e
-0.17451161 0.9005782 0.025776591 -0.50045186 3.2006614 0.27934945 0.13682245 0.13144548
-0.02834022 0.104055546 -0.13592593 -0.10445707 0.02879088 -0.11494489 -0.1015655 -0.09916752
-0.014218831 0.008868337 0.004799509 -0.11115565 -0.17515981 0.15868953 0.18752591 -0.17636506
0.1319747 -0.06832032 -2.3962808 -0.012621843 0.050722796 3.7856858 0.031609993 -0.2520455
0.19559565 -0.082316995 0.13895535 -0.12969223 -0.03782928 -0.17465985 0.16001563 -0.087770894
-0.012826872 -0.07493458 0.13650696 0.07492202 -0.19034918 0.07532847 -0.18848892 0.049883317
0.14576991 0.123060875 2.083628 2.0960252 -0.455541 -0.27819967 2.6959727 -0.48738182
-0.72207284 0.068349265 -0.1630259 0.088874295 0.003149891 0.068272136 0.020988941 -0.12906872
-0.05186198 0.03389895 0.17036657 -0.15352476 0.12677251 0.13727272 0.034375716 0.014898396
0.121571496 -0.12630975 0.018638253 -0.011841217 0.02631631 1.3704706 -0.027868686 -0.6858783
-0.43901294 -0.599749 -0.02169764 0.11706624 0.1120543 -0.19575055 -0.076610185 0.1611696
0.10423086 -0.033391666 0.09764586 -0.18404213 0.13347104 0.11406451 -0.17872174 0.07844784
0.1308384 -0.16833107 -0.073240876 0.101925306 0.9495813 -1.2677933 -0.38521823 1.0934151
-0.36615697 -0.7397777 -0.7942902 0.15040873 -0.15177481 -0.14186685 0.006374431 0.078992896
-0.18698452 0.042475462 0.18299246 0.14042209 -0.1401547 -0.1879495 -0.07400532 -0.0074008466
-0.06197877 0.19507341 -0.015584302 -0.08201728 -0.014007831 0.56924963 -0.7692235 -1.3040123
-0.99725854 -1.6295011 0.0611073 0.22478668 -0.104076795 0.030729294 0.18182252 -0.108849786
0.082799606 -0.18678235 -0.12841192 -0.15763591 0.11273799 -0.14963911 -0.14493759 0.18884464
-0.14679019 0.0109905 -0.17004602 -0.08174272 0.02884686 0.05224476 0.041062683 -0.044262383
1.4973506 -0.007838167 -1.1182373 -0.44768605 -0.46805868 0.08084943 -0.16268408 -0.17929275
0.18480527 0.19513229 0.10985472 0.086509444 0.0865911 -0.09003299 0.12156551 0.07305708
0.050671842 0.14205682 0.047330905 0.13270608 0.19238845 0.02105136 -0.013998747 -1.0649918
0.3240854 1.0632277 -1.360135 -2.0179055 0.59955305 0.75360686 0.19937478 -0.06192484
-0.12794028 -0.012126088 0.108713105 -0.09261894 -0.058213618 0.020029545 0.16373555 -0.0011347771
0.09717669 -0.09004428 0.011153269 -0.08209667 -0.16668344 0.1918305 0.08792379 -0.13348733
3.024965 -1.4588305 -0.3305857 -1.0093838 -0.0805189 0.6880379 0.57988834 -0.031110598
-0.14922814 0.1507716 0.04977968 0.17981099 -0.1279137 0.18767937 -0.18048577 -0.11917651
0.048041273 -0.064147495 0.08220172 -0.11440315 -0.1222975 -0.18152176 0.073203996 0.16649973
-0.19555795 -0.66516656 -0.8281306 0.56801873 -0.49438867 1.0984988 0.41109663 0.3258621
-0.0674557 0.040205386 0.19601825 -0.09383788 -0.03988955 0.1150312 0.19975379 -0.04067762
0.18552731 -0.19858098 -0.18180148 -0.099008255 -0.17941217 0.15347569 -0.144255 -0.15030937
-0.18541037 0.10017536 -0.24259879 -0.0890039 -0.89751697 0.11453548 -3.024694 0.16669688

model.0.bias f4 [128]
00000000: cb9f d53d ab5e a3bc 9b29 08bf 0e19 debe
00000010: 16e8 e8be 64de 493e 81d6 afbe fe77 423f
00000020: aef0 113f 76dd cb3e 8e57 dd3e 66eb d6be
00000030: f082 f6be 011a 1fbd f792 63bf 5f2a 303e
00000040: 17e9 293e ba2b a5bc 6c6b 48bf 2f21 123f
00000050: e67a 193f 164e 1f3e b9f6 cabd 7b4b c13e
00000060: 0968 4a3e 6be5 823e c092 a7bd ed33 f53e
00000070: 1ad0 5abf 211a 4dbe 8f76 80bc 72d4 ce3e
00000080: 180d bdbe eb9e 8abe 2f08 303a f177 77bf
00000090: 1615 4e3f 6524 3ebf 2dfd 15bf cdbc 403e
000000a0: ace4 b1bb 196a 1a3d b8c6 4cbf 4ea0 663d
000000b0: 5869 a9be d04a 20bf 3695 fb3e f40b 06bf
000000c0: 3903 d63e 4bf8 163f 7f87 283e 5fc8 dd3e
000000d0: fcdc b6bc 22a5 bdbd 77d1 3bbf 0899 fe3d
000000e0: 5675 1ebf 9919 0dbf 038d 973e aa5c c53d
000000f0: b784 95be 13dd 553f 70cb 0bbe 0209 18bf
00000100: b3b4 afbe d4e5 e3bd c4b7 a03e 9f9c 263f
00000110: 581c 65bd bca7 30bf 477e 083f 16d8 d5be
00000120: e6cf c6bd 3df8 39be 3232 fb3c 83aa 87bf
00000130: 20cb 0440 6ab2 0ebf bace 20bf 26ab a4be
00000140: 8432 bfbe 8507 9d3f 20ae 303e a8c4 62bf
00000150: 5052 b93e f39a fdbe 1088 873d 0d6e 083f
00000160: 16c7 82be 45fe 7dbf 6c2b c93e c46b 233f
00000170: 0322 8b3e c13b 1b3f 532b d33f 309c f13e
00000180: 6d3e debe f5bf 8a3f 0da0 0ebf dc46 0ebf
00000190: a15a c23e e1c8 91bf a315 10bf 7530 033f
000001a0: e457 52bf 14aa f6be f912 213f e789 25bf
000001b0: 4b2f 5d3f 0518 333f 75a1 42bf 2ebe 7f3e
000001c0: 086f 773e 7ff0 ed3f 3ed4 b0be 65cc e4be
000001d0: 6080 963f 7b70 8c3f e571 123f 3241 0e3f
000001e0: d4f0 6c3d 1c97 d43e faea 47bf f4a7 b9be
000001f0: 53fe 6d3f e23d 1ebf 65d5 e5be 7e23 12bf
0.10430869 -0.019942602 -0.53188485 -0.4337849 -0.45489568 0.19713742 -0.3434334 0.75964344
0.57007873 0.398174 0.4323086 -0.4197647 -0.48146772 -0.03884316 -0.88896126 0.17203663
0.16592823 -0.020162452 -0.7828891 0.57081884 0.59953153 0.15557131 -0.0991034 0.377529
0.19766249 0.25565657 -0.08182287 0.4789118 -0.8547379 -0.20029499 -0.015681533 0.40396458
-0.36924052 -0.2707437 0.00067150866 -0.9666739 0.80500925 -0.74274284 -0.5858944 0.18822022
-0.005428871 0.03769884 -0.7999072 0.056305222 -0.33088183 -0.62614155 0.49137276 -0.5236199
0.41799334 0.58972615 0.16457938 0.43316934 -0.02232217 -0.09260012 -0.73366493 0.12431532
-0.6189779 -0.55117184 0.2959977 0.09636815 -0.29202816 0.8354046 -0.13651824 -0.59388745
-0.3431755 -0.111278206 0.31390202 0.65082735 -0.055935234 -0.6900594 0.53317684 -0.41766423
-0.09707622 -0.18161102 0.030663583 -1.0598911 2.0748978 -0.5574099 -0.6281544 -0.32161826
-0.37343228 1.226792 0.17253923 -0.88581324 0.36195612 -0.4953228 0.06617749 0.53292924
-0.25542516 -0.9921611 0.3929094 0.6383631 0.27174386 0.6063805 1.6497597 0.47189474
-0.43407002 1.0839831 -0.5571297 -0.5557687 0.3795977 -1.1389428 -0.56283015 0.51245815
-0.8216536 -0.48176634 0.62919575 -0.6466355 0.8640029 0.69958526 -0.76027614 0.24974892
0.24163449 1.8589019 -0.34536928 -0.4468719 1.1757927 1.0971826 0.5720504 0.5556823
0.05784686 0.41521537 -0.7809292 -0.3626095 0.9296619 -0.61813176 -0.4488937 -0.57085407

model.2.weight f4 [128, 128]
00000000: ffd6 143f a667 0740 657a 9bbf 16b3 90be
00000010: 9b49 4fbf 192e be3d 843c 56be 537f 81be
00000020: 319a 0b40 03c9 073f a5a4 243f 8d33 82bf
00000030: f06c 1fbf e3a0 34bf 325a 5c3c fa37 ab3e
00000040: 09c1 fc3e a6cb da3e 4e4d 6ebf 6ffb 103f
00000050: 020d eebd 5741 943d eb2c 7fbf 4719 71be
00000060: 17fb e73e d665 343f f32f a4be d24f 94bd
00000070: c17d 04bf 4354 f83d 9aa0 59bf b7c1 2b3e
00000080: 42b5 0b3c 519c eabe 2508 3d3f b7c8 5ebf
00000090: 3208 8e3f fbf0 4abf a10b a5be 2096 1dbf
000000a0: 1eca 0b3f 5574 0e3f 5296 89bf 6369 33bf
000000b0: 186f 3cbf 9b0f cdbe cb77 1c3f 1c1a b9bf
000000c0: 8593 f0bf e8c7 f73f f3ca ec3f 8480 133f
000000d0: 700f 6a3b 0063 34bf 83c2 113f 3cc4 ce3c
000000e0: 89fe 01c0 e73c 33c0 2683 3d3f 5c53 32be
000000f0: 7907 00bf 6412 143f abdc 1d3f 5c00 d9be
00000100: 937f 8c3d c2ac 23bf 6f8a b63f 6097 9b3f
00000110: 9ca6 8c3f 72ff 0140 1078 df3e bbd3 fdbf
00000120: 09e8 f83f 6c68 633f afc0 e53f c904 10c0
00000130: 7a88 663f 54f4 e8bf 3041 89be 4590 edbe
00000140: 6b32 4c3f b131 403f 1fa7 2240 02e2 85bf
00000150: 4bd2 efbf 6ea5 fa3c 53e9 633f cbfd 743f
00000160: a78c f7be 3402 723f 16ac 67be 3510 49bf
00000170: 880e 8bbf af5c 57bf 0872 553f 3f98 aa3f
00000180: ddc6 743e 774b 47bf c20e 09bf f671 c83f
00000190: 1640 bc3e 1443 733f 8e2f bbbd c302 d93f
000001a0: 3cd6 58bf dbc3 ffbe 8290 8a3d 709e b6bf
000001b0: 3db0 0c40 f9bb 68bf 9f09 9dbe 0474 923e
000001c0: f5ef 1e3d 691a 503f b0d0 e7bf fc08 5bbf
000001d0: c2f0 62bf db0d 58bf 10d7 f73e e316 073f
000001e0: 6abb 183f c9fe 92bf b4c8 f3be 8ee4 c83f
000001f0: 381f e93f 8cca 3abf f7a5 88bf db89 aebe
00000200: f353 8fbe edce 28bf 364f 9bbf 4159 0b3f
00000210: 5457 58be 3bd7 643d 4158 503f 0bed 673e
00000220: 7513 04bf a37d 183d edbb 2dbe e732 1ebe
00000230: 44ff e43e 2482 913e c04d e8be 25b8 e4bc
00000240: adfd 77bf dff0 1abf 9c0a fe3e 63a9 ffbe
00000250: 30d0 aebe 9fe0 aabe 3461 dbbd 68d2 c3bd
00000260: 8fc5 2f3f ed4b 523d 5d6c 07bf c4f2 d3be
00000270: 0815 0b3e d499 953f 8dcf a5bd 2c78 7d3d
00000280: e3e7 0e3f 9062 d139 f066 57be 2b35 a53e
00000290: 938b 15bd 9e65 393e f506 03be 4d12 d0bb
000002a0: 677e db3d 043e 66bf 2c0f b23e d779 453f
000002b0: e60a 893d f6da ee3d 267e d4be 5696 e23e
000002c0: 5d2f 1fbf 280d d1be bfee 413f f4d8 02bf
000002d0: bb04 db3e 9e61 373f 63fa 1cbf 1531 3a3b
000002e0: be31 84be e7b3 13bf 1fe0 30bc 5310 373e
000002f0: ca87 1dbe 6e86 b8bc a900 333d a1c4 0f3f
00000300: 8bc6 d83d 885b 4fbd 6cd2 90bf 6203 a3be
00000310: e1ee 84bf 11d7 3bbc 5b54 ae3d 07e0 9cbf
00000320: fe45 f83e 42de 45be c07d d5bf 46be d9be
00000330: e6fc c2be 9737 883f 602d 203e 6f41 093e
00000340: ccec 9e3d cf30 b1be 52e9 aa3f d17b bbbe
00000350: 46fe a7bf a9a2 89be a77f 303c 4bbe eebd
00000360: b101 f13d 27dc 013f 4967 35bf fc3e e4be
00000370: f1fb 25be d9d4 adbe 4835 8cbe 6592 75bf
00000380: 3adb 103f e915 9f3d df46 733d e3db af3f
00000390: e0f5 eabf 94cf ac3e e00a d33e ed04 2cbe
000003a0: aec7 5b3e 750a c2be d5a3 1cbd d3a8 333d
000003b0: 0760 1ebe 6099 67be 5ede a7be 2641 143f
000003c0: d79b d5be 7c22 acbe 6674 39be e131 d93d
000003d0: bfbc 28bf 418c a0bd f896 70bf 5994 b3be
000003e0: 5ff4 74bd 8f1f 0ebf 0d04 123f d3bf c8bd
000003f0: 6d5c 3c3d 885e 663d ef0c d43d 1396 d83e
0.5814056 2.1157012 -1.2146727 -0.28261632 -0.8097169 0.09286136 -0.20921522 -0.25292453
2.181286 0.53041095 0.6431373 -1.0171982 -0.622756 -0.70557994 0.013449239 0.33441144
0.49366024 0.42733496 -0.9308671 0.5663366 -0.11623575 0.07239025 -0.99677914 -0.23544799
0.45308754 0.7046789 -0.32067832 -0.07241787 -0.51754385 0.12125447 -0.85010684 0.16773115
0.008527102 -0.45822385 0.7384055 -0.87025017 1.1096251 -0.79273957 -0.32235435 -0.615572
0.5460528 0.5564626 -1.0748999 -0.7008268 -0.73607016 -0.4005097 0.6112029 -1.4461093
-1.8795019 1.9357882 1.8499435 0.57617974 0.0035714768 -0.7046356 0.56937426 0.025240056
-2.0311606 -2.8005922 0.7402824 -0.17414612 -0.500114 0.5784056 0.6166484 -0.42383087
0.0686027 -0.6393548 1.4260997 1.2155571 1.0988345 2.0312161 0.43646288 -1.983024
1.9445812 0.8883121 1.7949427 -2.250292 0.90051997 -1.8199563 -0.26807547 -0.4639913
0.7976443 0.75075823 2.5414503 -1.0459597 -1.8736051 0.030596461 0.890279 0.9569976
-0.48349497 0.9453461 -0.2262424 -0.78540355 -1.086381 -0.841258 0.8337712 1.3327712
0.23903985 -0.77849525 -0.53538144 1.5659778 0.36767644 0.9502423 -0.0913993 1.6953968
-0.84701896 -0.49954113 0.06765844 -1.4267101 2.1982567 -0.90911824 -0.30671403 0.28604138
0.03880306 0.812903 -1.8110561 -0.85560584 -0.8864862 -0.8439614 0.48406267 0.527693
0.5966097 -1.1484004 -0.47614062 1.5694749 1.8212652 -0.7296531 -1.0675648 -0.3408955
-0.27993736 -0.65940744 -1.2133548 0.54433066 -0.21127063 0.055869322 0.81384665 0.22649018
-0.5159219 0.03722919 -0.16966219 -0.15449105 0.44726002 0.28419602 -0.4537182 -0.027919838
-0.96871454 -0.6052379 0.4961747 -0.4993392 -0.3414321 -0.33374497 -0.107118994 -0.09561616
0.68660825 0.05134194 -0.52899724 -0.41396153 0.13582242 1.168757 -0.08096228 0.061882183
0.5582258 0.0003993702 -0.21035361 0.32267126 -0.03651006 0.1810517 -0.12795623 -0.006349838
0.10717469 -0.8993838 0.347772 0.7713904 0.06691532 0.11662857 -0.41502494 0.44255322
-0.62181646 -0.4083035 0.7575492 -0.51112294 0.42777047 0.71633327 -0.6131956 0.0028410603
-0.258192 -0.57696384 -0.010795622 0.17877321 -0.1538383 -0.022525039 0.0437018 0.56159407
0.10584744 -0.0506244 -1.1314216 -0.31838518 -1.03854 -0.01146485 0.08512183 -1.2255868
0.484909 -0.19323066 -1.6679001 -0.4252798 -0.3808357 1.0641965 0.15642309 0.13403867
0.07760009 -0.3460755 1.3352454 -0.36617902 -1.3124473 -0.26881912 0.010772622 -0.11657389
0.11767901 0.5072655 -0.70860726 -0.44579303 -0.1620939 -0.33951452 -0.273844 -0.95926505
0.56584513 0.07767851 0.05939376 1.3738979 -1.8356285 0.3375212 0.41219234 -0.16798754
0.2146289 -0.37898603 -0.03824218 0.043862175 -0.15466319 -0.22617102 -0.3278684 0.5791191
-0.4172046 -0.3362006 -0.18110809 0.10605217 -0.65913004 -0.07839251 -0.9398036 -0.35074118
-0.059803363 -0.55516905 0.5703743 -0.098022126 0.04598658 0.056242496 0.103540294 0.42301998

model.2.bias f4 [128]
00000000: d39f 703f d359 70be 9dae 963e bdab a43e
00000010: 5bcb 8d3e c596 84bf 383b 8bbc 2eca 17bf
00000020: 6950 4f3e 027a 57be 4f40 033f 0186 af3d
00000030: d25c 07be 40f1 053f 9b5a 353e e96f 443f
00000040: 6f9a 78be 267b d53d b281 6b3e ee7d 1abe
00000050: 9c93 233e cae8 9cbe 08e4 923e 5e08 893e
00000060: a353 793f fcc2 7a3f 8410 eb3e cbfc 7abe
00000070: 5e8a bcbe bc09 fc3e 5a67 66be 92fa 3f3f
00000080: 903a 4ebe 493d 29bd 6ca2 003f 452c c13e
00000090: 4ad6 a23e f509 633e 4746 bebe 127c bebe
000000a0: a42b bebe 55f2 903e 1dba a4be c3cf 363d
000000b0: 88a9 fe3d 4de1 9dbe f262 a6bd 42ec f33d
000000c0: 6ddc e0bc 8794 4a3e ab60 083e f936 483e
000000d0: b1bf 7e3e ab8d f8be 6b3d 0a3f d2af 16bf
000000e0: 2d17 debd 3fb0 213f a444 023f 7f32 46be
000000f0: 4044 49be d469 d0be edab 733f de88 053d
00000100: 8756 3a3f 7569 fe3c 1aa1 db3e 4be0 7abd
00000110: 44af 0bbe ddb7 8f3e 07c2 ba3d 09bf 10be
00000120: 67ab 0c3f abb1 33be d817 543f 13c3 30bf
00000130: d711 423e ba16 de3e 3a80 d63d cbd8 b7be
00000140: e904 6ebf 5c7f 83bd e01e f33e fd90 893e
00000150: 9db6 313f 59fb b9be 54b8 07bf eae9 97be
00000160: 2de8 063e dfd8 063d 8c06 0a3f ac6a f8bd
00000170: 9014 a6be 201a 673d 6216 94be d9c4 843e
00000180: 1c71 c7bd 18db d73e 76ac 343e 40e8 d5bd
00000190: 2cab 1a3d 76b7 eabd b430 323f 076a 7dbd
000001a0: 1e0d 873e 8e28 013f 35d1 0d3f 698e 60be
000001b0: 9f2e 21be 612a c13e 948b 72be cd7b d53d
000001c0: f7fe 8dbc 6db7 a9be d5ef 61be f930 7f3e
000001d0: a991 54bf d7ff 51be 4636 4abf 27e8 5fbd
000001e0: 7c62 403f ecb2 463f 53c8 4f3e b86b 59be
000001f0: c1f3 433e d90c e23e 4354 693d 3438 073f
0.9399387 -0.23471765 0.29430094 0.32162276 0.2769421 -1.0358511 -0.016996011 -0.59292877
0.20245518 -0.21042636 0.5127 0.08570481 -0.13219002 0.52321243 0.17710344 0.7673326
-0.24277662 0.10423879 0.22998694 -0.15087101 0.15974277 -0.30646354 0.286896 0.26764196
0.97393245 0.9795377 0.45911038 -0.24510495 -0.36824316 0.49226177 -0.22500363 0.74991715
-0.20139527 -0.04131821 0.50247836 0.37729087 0.31804115 0.22171767 -0.37162992 -0.37204033
-0.3714267 0.28309885 -0.32173243 0.04463173 0.12434679 -0.30835953 -0.08124341 0.11910297
-0.027448857 0.19783221 0.13318126 0.1955222 0.24877812 -0.48545584 0.53999966 -0.5886203
-0.10844264 0.63159555 0.5088599 -0.193552 -0.19654942 -0.4070574 0.9518421 0.03260123
0.7278828 0.031056145 0.42896348 -0.06124906 -0.13641077 0.28069964 0.09119039 -0.14135374
0.5494904 -0.17548244 0.8284888 -0.6904766 0.18952118 0.43376714 0.10473676 -0.35907587
-0.9297624 -0.06420776 0.47484493 0.2686843 0.6941927 -0.36324576 -0.5301564 -0.2967065
0.13174506 0.03292167 0.5391624 -0.12129721 -0.32437563 0.0564214 -0.28923327 0.25931433
-0.09738371 0.42159343 0.17643914 -0.10444689 0.0377609 -0.11460774 0.69605565 -0.061868694
0.26377195 0.50452507 0.5539735 -0.21929325 -0.15740441 0.37727645 -0.23686057 0.10424004
-0.01733349 -0.33147755 -0.22064145 0.24921025 -0.8303476 -0.20507751 -0.78989065 -0.054664757
0.75150275 0.77616763 0.20291261 -0.21232498 0.19135953 0.44150427 0.056965124 0.52820134

model.4.weight f4 [5, 128]
00000000: 6fd6 e340 84d2 8dc0 0fa1 80c0 fc8b be40
00000010: 2d48 31c1 10e7 b23e bbc1 1b40 a81a cac0
00000020: 39ca 4640 8cb4 4840 477b e73f 7dfb 2ac0
00000030: eb83 e3c0 5bc6 3c40 ea89 0f41 878b 2841
00000040: 872c ffc0 bc91 7fc0 ac89 e740 71aa 05c0
00000050: ecaa 2840 c73c fdbf 1ee1 5d40 413a 1340
00000060: b115 f040 5bda d440 1818 1841 134b 7640
00000070: 98e9 8f40 9855 d8c0 0107 4ac1 9959 ee40
00000080: b8b4 aac0 3139 4bc0 c886 1c41 bb0f ee40
00000090: 3859 7b41 c373 c340 0878 cbbf 2465 6bc0
000000a0: 99e3 353f 748c 5040 92e4 d3c0 fd50 40c0
000000b0: b47f c240 3495 86c0 fa23 cf40 8aa1 483f
000000c0: 54ca 4ec0 d987 2140 9ddc 1c41 e1d2 ef40
000000d0: a99f cebf 2d13 0ac1 6c59 1141 b286 3cc1
000000e0: 01e1 8540 e877 b640 8195 df40 548d c5c0
000000f0: d84d 18c0 cb2c a1c0 253c e440 551f ab40
00000100: 0e9b 8c40 5a8a 6a3f c62a c640 43b4 8540
00000110: 06d6 72c0 2a0e a03e 992b ecc0 2942 5940
00000120: 2529 f6c0 4bd7 de3d 2d40 e640 e868 ea3f
00000130: f9ce 37c1 2aed ba3f 6df8 3540 b210 8dc0
00000140: 1fdd e5c0 652e 5841 576f 1d41 df76 3b3f
00000150: 4815 7740 4dcb ddc0 f4f4 30c1 11c6 75c1
00000160: 07d2 4340 9d0f c1bf b756 ec40 ead3 7fc0
00000170: 3077 d140 4e7d c8c0 0aaf bac0 564f 26c1
00000180: 03dd 9ac0 c380 93c0 19f8 dd40 d31b 78c0
00000190: 478e 1c40 1515 1740 2b64 4fbf a849 35c0
000001a0: dd5b 0541 c487 bd40 2af1 ba40 3afc 8f40
000001b0: d94a 2bc1 37f9 fcbf 1483 b2c0 dce1 5740
000001c0: 456e 1bc0 de96 06c0 a723 d8bf d450 8240
000001d0: be3c 38c1 d575 23c1 75a0 d7c0 7946 9b40
000001e0: 450b e840 f70e e640 b722 8040 036a a0c0
000001f0: 0fa4 c8c0 0191 ff40 e46e b2bf a998 3741
00000200: 6368 da40 183c f5c0 9c0e 81c1 51bb ce40
00000210: eb0f 80c1 f3d1 37c0 6c4f 18c1 c53f 04c1
00000220: 917b ba40 5890 2ac1 a3f2 2ac1 41c5 0b40
00000230: 2fc0 1dc1 a8be 78c1 7204 2441 d73a e340
00000240: 7d24 0640 643a 4cc1 31b5 35c1 b578 4341
00000250: ef2a 2641 d0f3 3b41 de58 2340 80e9 d940
00000260: cb56 e340 23cb e440 41bf 40bf 16ea 17c0
00000270: 9fd6 0bc0 f9e4 8841 7871 1940 c515 f340
00000280: 6b42 00c1 1ba1 04c1 12ad 0641 7684 da40
00000290: 9ec7 9dc0 f203 22c0 6c44 a840 553d f5c0
000002a0: 2dae 83c0 1375 2ec1 1261 1ec1 42e9 2ec1
000002b0: fdde ed40 405d bec0 5f09 84c1 7ddd 8e40
000002c0: 87e1 1d41 ab18 4ec1 cb31 1a41 a79c 923e
000002d0: 2aee 9a40 4120 2fc1 483d 2241 5cf0 0cc1
000002e0: d466 a3bf ae71 eb40 6fe4 2d41 766f fac0
000002f0: 6299 a8c0 8cbd e7c0 7d71 e840 d6bc 4bc1
00000300: d119 8840 7b34 d3c0 f2e4 0241 35ad 93c0
00000310: 27fa f5c0 e23d 963f eb88 17c1 5a36 77c1
00000320: 46dc 7941 cf9c bfbf f939 dc40 9df6 a73d
00000330: 50ac 2f40 cf33 94c1 5467 f240 82ef e4c0
00000340: f1c0 e4c0 5bed 7ac0 1831 dfc0 d2ac 0cc1
00000350: ee43 9940 ca62 08c1 c0cb 06c1 adca 833f
00000360: 6b7d 36c0 342a 7241 3064 d640 92ae 8640
00000370: e028 8241 2e95 c0c0 00a5 f0c0 8ce8 2dbf
00000380: 0090 1741 85b8 84c1 a37f f8bf 6acf 20c1
00000390: ae41 94c0 b7ac fa40 7f68 b13e b920 7741
000003a0: 59f0 713e 5f6a f340 275a e940 0a06 25c0
000003b0: c14f 6f3f 608e 7941 0643 9b3f 3303 0fc1
000003c0: b050 89c0 b775 3941 f9a8 23c1 86ea fb40
000003d0: 5126 13c1 0f34 33c1 71ff c7c0 95de 7340
000003e0: 4146 e540 5339 d940 7e52 ed40 68c0 2741
000003f0: 7e8e 6b41 93b8 1841 5004 2e40 4e3d 0841
7.119926 -4.4319477 -4.0196605 5.954588 -11.080121 0.34941912 2.4336994 -6.315754
3.1060927 3.1360197 1.8084496 -2.6715996 -7.1098533 2.9496067 8.97117 10.534064
-7.9741855 -3.99327 7.2355556 -2.088528 2.6354322 -1.9784173 3.466865 2.3004305
7.502648 6.6516547 9.505882 3.8483322 4.497265 -6.7604485 -12.62671 7.448437
-5.3345604 -3.1753657 9.782906 7.43942 15.709282 6.107881 -1.5896006 -3.6780481
0.7105041 3.2585726 -6.6216516 -3.0049431 6.0780888 -4.2057133 6.4731417 0.7837149
-3.2310991 2.5239165 9.803861 7.494492 -1.6142474 -8.629682 9.0843315 -11.782885
4.1837163 5.702137 6.987 -6.173502 -2.3797512 -5.036718 7.132342 5.3475747
4.3939276 0.9161736 6.1927214 4.1782546 -3.794313 0.31260806 -7.380322 3.394663
-7.6925225 0.108809076 7.195334 1.8313265 -11.48803 1.4603627 2.8432877 -4.408288
-7.1832423 13.511327 9.839683 0.7322826 3.860674 -6.931067 -11.059803 -15.360856
3.059694 -1.508289 7.3855853 -3.9973092 6.5457993 -6.265296 -5.833867 -10.394369
-4.839479 -4.609468 6.9365354 -3.8766983 2.446184 2.3606617 -0.8101222 -2.8326206
8.334928 5.922823 5.841939 4.4995394 -10.705773 -1.9763554 -5.5785007 3.3731604
-2.4286053 -2.1029582 -1.688588 4.0723667 -11.51483 -10.216268 -6.738337 4.8523526
7.2513757 7.189327 4.0042377 -5.012941 -6.2700267 7.9864507 -1.3940091 11.474771
6.8252425 -7.6635857 -16.132133 6.460366 -16.007772 -2.8721893 -9.51939 -8.265569
5.827584 -10.66024 -10.6842375 2.1839144 -9.85942 -15.546547 10.251085 7.1009326
2.095977 -12.764256 -11.356736 12.2169695 10.385482 11.747025 2.552299 6.8097534
7.104345 7.149797 -0.7529183 -2.3736625 -2.1849744 17.111803 2.3975506 7.5964074
-8.016215 -8.289332 8.4172535 6.8286695 -4.9306173 -2.5314908 5.2583523 -7.663737
-4.1150117 -10.903583 -9.898699 -10.931948 7.4334702 -5.948883 -16.504576 4.464537
9.86756 -12.881022 9.6371565 0.2863514 4.8415728 -10.9453745 10.139961 -8.8086815
-1.2765756 7.357627 10.86827 -7.826106 -5.2687235 -7.241888 7.2638535 -12.733603
4.2531514 -6.6001563 8.180895 -4.6148934 -7.686786 1.1737635 -9.470927 -15.450769
15.616278 -1.4969729 6.8820767 0.082013346 2.7448921 -18.525297 7.5751133 -7.154237
-7.1485524 -3.920737 -6.974743 -8.792192 4.789542 -8.524118 -8.424744 1.0296227
-2.851405 15.1353035 6.69973 4.20881 16.269958 -6.0182104 -7.5201416 -0.67932963
9.472656 -16.590097 -1.9413952 -10.050638 -4.6330175 7.8335834 0.34650037 15.445489
0.23626842 7.6067348 7.292255 -2.5784936 0.9348107 15.5972595 1.2129829 -8.938281
-4.2910995 11.591239 -10.228753 7.8723783 -9.196855 -11.20021 -6.249932 3.8104603
7.164826 6.7882476 7.41632 10.484474 14.722288 9.545062 2.7190132 8.514967

model.4.bias f4 [5]
00000000: 4ddc 2241 2823 1241 556a 0341 5c20 bf40
00000010: 1882 af42
10.178784 9.133583 8.21346 5.9727 87.75409
