results/palindrome/ql_6.pt (torch, 84325 bytes, 6 tensors)

model.0.weight f4 [128, 25]
0	0x3fc718f7	1.5554494
1	0xc06813ec	-3.626216
2	0xbfb76a5f	-1.4329337
3	0x3d9871a5	0.07443551
4	0xbeb4b093	-0.35290965
5	0x3ea448bd	0.32086745
6	0x3ec24b49	0.37948063
7	0xbe2ac633	-0.1667717
8	0xbdd43f1a	-0.10363598
9	0x3e2f02a3	0.1709085
10	0x3e476a28	0.19474089
11	0xbe3d387b	-0.18478577
12	0xbd9d70e0	-0.07687545
13	0x3e2cff58	0.16894281
14	0xbd82700d	-0.06369028
15	0x3c6eb81a	0.01457026
16	0xbe23a618	-0.15981328
17	0x3d277647	0.040884282
18	0xbe2d32af	-0.16913866
19	0x3e2472fa	0.16059485
20	0x3c412867	0.011789418
21	0xbdafca5d	-0.085835196
22	0xbd1e84c7	-0.038700845
23	0xbe271cf3	-0.16319637
24	0xbdc42bc0	-0.09578657
25	0xbfda417b	-1.7051233
26	0x3f6218b2	0.8831893
27	0x3eacd18e	0.33753628
28	0xbf10a09f	-0.5649509
29	0xc0719619	-3.7747862
30	0x3f6c18dd	0.9222544
31	0x3f6443ef	0.8916616
32	0xbdb66270	-0.08905494
33	0x3c40394d	0.011732412
34	0xbde790aa	-0.11306889
35	0x3bd7bf9a	0.00658412
36	0xbe2f1f1b	-0.1710171
37	0x3e09f380	0.13471794
38	0x3da72530	0.0816139
39	0x3e33b5ed	0.17549868
40	0x3dbee770	0.09321487
41	0x3e3ae935	0.18253024
42	0xbe410298	-0.18848646
43	0xbd2af5e7	-0.041738417
44	0x3db2c657	0.087292366
45	0xbe03f148	-0.1288501
46	0xbe207e4f	-0.15673183
47	0x3e059a23	0.1304708
48	0x3e086dad	0.13323088
49	0xbe2bbb3b	-0.16770642
50	0x3f62e5ad	0.8863171
51	0x3e8f05a7	0.27934
52	0xbfea664b	-1.8312467
53	0xbf6496da	-0.8929268
54	0xc0039ef2	-2.0565763
55	0x3f03ec3d	0.51532346
56	0x3f012382	0.50444806
57	0xbe443b92	-0.1916335
58	0x3e08f523	0.13374762
59	0xbe44be5a	-0.19213238
60	0xbd620133	-0.055176925
61	0xbe37b790	-0.17941117
62	0x3e2b59ab	0.16733424
63	0x3db37453	0.087624215
64	0xbdd90e33	-0.105984114
65	0x3d9c750a	0.07639511
66	0xbd3d03fa	-0.04614637
67	0xbd188953	-0.037240338
68	0x3e2d8da3	0.16948561
69	0xbe10266b	-0.14077155
70	0x3d66a80d	0.05631261
71	0x3e44b1ad	0.19208403
72	0xbd32204d	-0.043487836
73	0x3bca7f67	0.0061797383
74	0x3e07be8f	0.13256286
75	0x401a797b	2.4136646
76	0x40647484	3.5696115
77	0x3e493b7d	0.19651599
78	0xbfadc1ae	-1.3574731
79	0x3fb676c2	1.4254992
80	0x3e195d0d	0.14976902
81	0x3ed6bcb6	0.4194085
82	0x3e198afa	0.14994422
83	0xbe0aa4dd	-0.13539453
84	0xbdab644a	-0.08368738
85	0xbdf080f3	-0.11743345
86	0xbcd09467	-0.025461389
87	0x3e15a09b	0.14612047
88	0x3d90957a	0.070597604
89	0xbe2d407f	-0.16919135
90	0x3d73aa80	0.059488773
91	0x3da3d850	0.08000243
92	0xbe4c89ad	-0.19974394
93	0x3c59ee33	0.01330142
94	0xbe3c66a8	-0.18398535
95	0x3d5c78d3	0.053826164
96	0x3c8e988d	0.017406726
97	0x3ddac043	0.10681202
98	0xbe18280a	-0.14859024
99	0xbd7aa127	-0.061188843
100	0x3e1f73aa	0.15571466
101	0x3e7fbe4c	0.24974936
102	0xbf502c68	-0.8131776
103	0x3dac8587	0.08423906
104	0xc039404e	-2.8945498
105	0x3f0c3e11	0.54782206
106	0x3f1dbd51	0.61617
107	0x3e4744c2	0.19459823
108	0x3d828610	0.06373227
109	0xbc2b0833	-0.010438967
110	0xbd1f1d5a	-0.03884635
111	0xbdb7c39a	-0.08972855
112	0xbe0845d5	-0.13307889
113	0xbdb7f4aa	-0.08982213
114	0x3e0665d3	0.1312478
115	0x3e288cb7	0.16459928
116	0xbd0fcfe7	-0.03511038
117	0x3d743ffa	0.059631325
118	0xbde77d80	-0.11303234
119	0x3ca2c90d	0.01987126
120	0xbd700b00	-0.05860424
121	0xbd6409fa	-0.055673577
122	0xbe10a413	-0.1412509
123	0xbe3a2c45	-0.1818095
124	0xbe0aa5dd	-0.13539834
125	0xbd3aebed	-0.045635153
126	0x3f1a81e3	0.6035444
127	0x3fa669b7	1.3001012
128	0xbf7f488e	-0.99720085
129	0xbfb70d11	-1.4300863
130	0x3df8f9f0	0.12157047
131	0x3e34821f	0.17627762
132	0x3de28693	0.11060824
133	0x3e0be1d2	0.13660362
134	0x3c498fe7	0.012302375
135	0x3e413778	0.18868816
136	0xbd98aff3	-0.07455435
137	0xbe18431b	-0.14869349
138	0xbe015fdb	-0.12634222
139	0x3bcd9200	0.006273508
140	0xbe2e01b2	-0.16992834
141	0x3e3c5dc8	0.1839515
142	0x3c93be4d	0.018035078
143	0xbd30d7ed	-0.043174673
144	0xbe0f2dfb	-0.13982384
145	0x3d03dead	0.032194782
146	0x3e4c94c0	0.19978619
147	0xbc60b19a	-0.0137142185
148	0x3dfd6b7d	0.123740174
149	0x3deb1537	0.11478656
150	0x3dfc6997	0.12324827
151	0xbeb2582f	-0.34832904
152	0x3f82b642	1.0211871
153	0x3f379af0	0.7172079
154	0x3ee64675	0.4497563
155	0xbe9d3bda	-0.30709726
156	0xbed26d3e	-0.4109897
157	0xbda76117	-0.08172815
158	0xbddfb723	-0.109236024
159	0x3e2beb6b	0.16789024
160	0xbd912b73	-0.070883654
161	0x3e48026f	0.19532178
162	0xbd814b73	-0.06313219
163	0x3de75e9d	0.11297343
164	0x3da808e0	0.08204818
165	0x3df4b15d	0.11947892
166	0xbe47a24d	-0.19495507
167	0xbdfa842a	-0.122322395
168	0xbd142d3a	-0.036175944
169	0x3d0e4f87	0.034743812
170	0xbd827133	-0.06369247
171	0xbe2d0045	-0.16894634
172	0x3e1e4133	0.15454559
173	0xbda4f7f7	-0.08055108
174	0x3db279ea	0.087146595
175	0xbf76a25c	-0.9634149
176	0xbf0f9410	-0.560853
177	0xbf5075c7	-0.81429714
178	0xbeb16c52	-0.34652954
179	0xc00ed15f	-2.231529
180	0x3f164c6b	0.58710355
181	0x3f11f2bf	0.57011026
182	0x3b4b0800	0.003098011
183	0xbd423a60	-0.047418952
184	0x3df8ccf0	0.12148464
185	0xbe2ed360	-0.1707282
186	0xbdc39efd	-0.09551809
187	0xbdcd8d7a	-0.1003675
188	0xbdc91c5d	-0.09819863
189	0xbc67cd33	-0.014148044
190	0xbd37fd3a	-0.04491923
191	0xbe2efda3	-0.17088942
192	0x3d8999ba	0.06718774
193	0xbe385a85	-0.1800328
194	0xbac48e67	-0.0014996052
195	0xbe2bda85	-0.16782577
196	0x3dc0ca0d	0.09413538
197	0xbd2e9140	-0.04261899
198	0x3da03a5d	0.07823632
199	0x3e45fd2b	0.19334857
200	0x3eca7852	0.39544922
201	0xbf9ec1a5	-1.2402846
202	0x3f7438eb	0.9539935
203	0x3f3a0b5b	0.7267358
204	0xbfa323a1	-1.2745248
205	0xbe67603a	-0.22595301
206	0xbf0d5c4b	-0.5521895
207	0x3e2c428b	0.16822259
208	0xbe351910	-0.17685342
209	0xbdef89fd	-0.11696241
210	0x3e195dc8	0.14977181
211	0x3cf86973	0.03032372
212	0xbcbbcb0d	-0.02292397
213	0x3d9e9bd3	0.07744565
214	0x3d895a00	0.06706619
215	0x3e26f94b	0.16306035
216	0x3dce3133	0.10067978
217	0xbc2be0cd	-0.010490608
218	0xbe3efa65	-0.18650205
219	0x3dcc53cd	0.09976921
220	0xbe14b70d	-0.14522953
221	0x3e21409f	0.15747307
222	0x3babe133	0.0052453517
223	0x3df4fdca	0.11962469
224	0x3e0004ab	0.1250178
225	0x403eb58e	2.9798312
226	0xbe6e9a7f	-0.23301123
227	0x3f9ffbbd	1.24987
228	0x3f8e7112	1.1128256
229	0x405366b6	3.303144
230	0xbec7d64a	-0.39030677
231	0xbf06cc83	-0.5265581
232	0xbcd8c167	-0.026459409
233	0x3da43170	0.08017242
234	0x3d89676d	0.0670918
235	0xbd8fe14a	-0.07025392
236	0xbe2c636d	-0.16834803
237	0x3e462f32	0.19353941
238	0xbe0d4c10	-0.13798547
239	0x3da63e77	0.08117383
240	0x3d7b6a53	0.061380696
241	0xbe303e68	-0.17211306
242	0x3d996513	0.074899815
243	0x3bdff300	0.006834388
244	0xbe4b3dbb	-0.19847767
245	0xbd5ebc53	-0.05437882
246	0xbc0b409a	-0.008499289
247	0x3d622833	0.05521412
248	0x3e2c2875	0.16812308
249	0x3e397e08	0.18114483
250	0x3fa50477	1.2891988
251	0x3ff859ad	1.9402367
252	0x3e823dac	0.25437677
253	0xbf5969e8	-0.84927225
254	0x405b4622	3.4261556
255	0x3f3729d2	0.7154819

model.0.bias f4 [128]
0	0x3eaf33fc	0.34219348
1	0x3f4bc156	0.7959188
2	0x3f03e2d6	0.51518
3	0x3e6dd1f8	0.23224628
4	0x3e9304d7	0.2871463
5	0x3d916da6	0.07100992
6	0xbe7a0433	-0.24415664
7	0x3f08ff5b	0.5351464
8	0xbf13e35d	-0.57768804
9	0xbe0ab215	-0.13544495
10	0x3eda247c	0.4260596
11	0xbf2a7c50	-0.66595936
12	0xbe55166e	-0.20809337
13	0xbec60947	-0.38678953
14	0xbf62dfe4	-0.8862288
15	0xbf0aa3f0	-0.541564
16	0xbed3a0ad	-0.41333523
17	0xbf4e365a	-0.80551684
18	0xc03b9de6	-2.9315124
19	0x3f02a26e	0.510291
20	0xbf179505	-0.5921176
21	0xbb3df06a	-0.002898241
22	0xbf0f0aa9	-0.5587564
23	0xbf0e7c72	-0.5565864
24	0xbf3eeddd	-0.745817
25	0xbba0b97e	-0.004904925
26	0x3d8644a1	0.06556059
27	0xbe965232	-0.29359585
28	0x3f38f1ed	0.7224415
29	0xbda2db13	-0.07951941
30	0x3de4d12a	0.111727074
31	0xbe9ba2a9	-0.30397537
32	0x4036917a	2.8526292
33	0x3e6882b8	0.22706115
34	0xbe6cdf6f	-0.23132108
35	0xbd09db98	-0.033656687
36	0x3e54553a	0.20735636
37	0x3eaed623	0.34147748
38	0x3f520908	0.8204503
39	0x3e4de049	0.20105089
40	0x3ed661e1	0.4187155
41	0xbeb5f0df	-0.35535333
42	0x3e38259b	0.17983095
43	0xbed7fc82	-0.42184836
44	0xbf3b8b1d	-0.73259145
45	0x3d533050	0.051559746
46	0xbeb2c888	-0.34918618
47	0x3f72eddc	0.94894195
48	0xc03a5024	-2.9111414
49	0xbea15e59	-0.31517294
50	0xbee17062	-0.44031054
51	0xbef97290	-0.48720217
52	0xbf7712de	-0.96513164
53	0x3ea78177	0.3271596
54	0xbf7f3b64	-0.997
55	0xbe2bcba7	-0.16776906
56	0x3e9126de	0.28349966
57	0x3ee2cf35	0.4429871
58	0xbf108047	-0.56445736
59	0x3f43bbde	0.7645854
60	0x3e8e0f57	0.27746078
61	0xbe938046	-0.28808802
62	0x3ebbc0b1	0.3667045
63	0xbf901fab	-1.1259664
64	0x3f7a737d	0.9783247
65	0x3f5883ee	0.8457631
66	0xbf5d9431	-0.8655425
67	0xc03f5c97	-2.9900262
68	0xbf6c5b11	-0.92326456
69	0xbe0b3b96	-0.13596949
70	0x3f282e9b	0.65696114
71	0xbeaaf32d	-0.33388653
72	0xbf0799c1	-0.52968985
73	0xbeab1d71	-0.334209
74	0x3f4aa6b2	0.79160607
75	0xbf545c24	-0.82953095
76	0xbd4222e5	-0.04739656
77	0xbec4204d	-0.38305894
78	0x3ef596b8	0.47966552
79	0xbf04a40e	-0.5181283
80	0x3efb812c	0.49121988
81	0xbea04a4b	-0.3130668
82	0x3ea9d642	0.33171278
83	0x3f181c76	0.5941843
84	0xbe04d339	-0.129712
85	0x3f6c525e	0.9231318
86	0xbe96ce63	-0.29454336
87	0xbeb5e91d	-0.35529414
88	0xbf1add9a	-0.6049439
89	0xbef653fa	-0.48110944
90	0x3eb7a74a	0.3586982
91	0x3f093452	0.5359546
92	0xbf2caaba	-0.6744801
93	0xbf7e08e6	-0.9923233
94	0xbdee5b11	-0.11638463
95	0xbf0073ad	-0.5017651
96	0x3f6244b2	0.8838607
97	0x3edfcf33	0.43712768
98	0x3ed03ff9	0.40673807
99	0xbe9e6b85	-0.30941406
100	0x3f020048	0.5078168
101	0xbedd3667	-0.43205568
102	0xbe97a17b	-0.29615387
103	0xbf0fb635	-0.561374
104	0xbf6f0f46	-0.9338268
105	0xbdb973a6	-0.09055261
106	0xbf1e69b0	-0.61880016
107	0xbf12f476	-0.5740427
108	0xbe34a448	-0.17640793
109	0xbedf89f8	-0.4365995
110	0x3eac45d5	0.33647028
111	0xbefbe89a	-0.49200898
112	0xbe4087d9	-0.18801822
113	0xbf95b3c5	-1.1695486
114	0xbe91ce68	-0.28477788
115	0x3eb0c56f	0.3452563
116	0xbf20af78	-0.62767744
117	0xbf55f645	-0.835789
118	0xbf480f2f	-0.7814817
119	0xbfc56d0a	-1.5423901
120	0xbf11a847	-0.56897396
121	0xbf8e04b0	-1.109518
122	0xbeca5623	-0.39518842
123	0xbf6b8cb5	-0.92011577
124	0xbe99ba3b	-0.30024895
125	0x3f0d8118	0.55275106
126	0x3f1739d5	0.5907262
127	0x3d7e3479	0.06206176

model.2.weight f4 [128, 128]
0	0x3f8db389	1.1070415
1	0x3f100b47	0.5626721
2	0xbe2baeb9	-0.1676587
3	0xbf47ba6c	-0.7801883
4	0x3e9ea46d	0.30984822
5	0xbf9c6f50	-1.222147
6	0xbf1460bf	-0.5796012
7	0x3f5ad4fb	0.8548123
8	0xbe1dbabf	-0.15403269
9	0xbf3703b9	-0.71490055
10	0xbec8f008	-0.3924563
11	0x3f603270	0.8757696
12	0xbf6295cd	-0.8850983
13	0x3eb87bc6	0.36031932
14	0x3e767b3c	0.24070448
15	0xbf13dc9f	-0.57758516
16	0x3e1cd53f	0.15315722
17	0xbf3a55e6	-0.7278732
18	0x3e1bbb38	0.15208137
19	0x3ffe17fa	1.9851067
20	0xbf156706	-0.58360326
21	0xbe8de7a9	-0.27715805
22	0xbf6f6642	-0.9351541
23	0x3e177ab0	0.14792895
24	0x3f4c45b2	0.79793847
25	0x3c2015da	0.009770835
26	0x3e6679c0	0.22507381
27	0x3f59de93	0.85105246
28	0xbf39d854	-0.72595716
29	0xbf115c69	-0.5678163
30	0x3fd18545	1.6368796
31	0x3f0f7607	0.5603947
32	0x3e11e840	0.14248753
33	0xbf11678e	-0.56798637
34	0x3d70a026	0.05874648
35	0xbcddd2ed	-0.027078116
36	0x3f19c049	0.6005903
37	0xbf3baa63	-0.73306865
38	0xbfb9a2e1	-1.4502832
39	0x3e73cef8	0.23809421
40	0x3fa06d84	1.2533422
41	0x3f1624d6	0.5864996
42	0xbf35d318	-0.7102523
43	0x3ed9b347	0.4251959
44	0xbfd59bfb	-1.6688226
45	0x3eedaeb3	0.46422347
46	0xbf3423f4	-0.7036736
47	0x3ecc580b	0.3991092
48	0x3bec4c00	0.0072112083
49	0x3eea7b9c	0.4579743
50	0x3edd810e	0.43262523
51	0x3f2065dc	0.62655425
52	0x3fbc5922	1.4714701
53	0x3f0a060a	0.53915465
54	0x3e97dddd	0.29661456
55	0x3eda7482	0.42667013
56	0x3cf45030	0.029823393
57	0x3eab5ebd	0.33470717
58	0xbe435331	-0.19074704
59	0x3f3fce05	0.74923736
60	0xbf2f738a	-0.68535674
61	0x3f07f1d6	0.5310339
62	0x3ec694b0	0.38785315
63	0x3f6db219	0.9284988
64	0x3f29369b	0.66098946
65	0x3faea2f1	1.3643476
66	0xbfebeb90	-1.8431263
67	0x3e8ad9ad	0.27119198
68	0x3c442418	0.011971496
69	0xbf8068e5	-1.0032011
70	0xbf424ab9	-0.7589527
71	0xbec9f97e	-0.3944816
72	0xbfa3f774	-1.2809892
73	0xbf33ac9f	-0.70185274
74	0x3f66b66e	0.90122116
75	0xbfab49a7	-1.3381852
76	0x3f2e0a16	0.6798414
77	0xbef18090	-0.47168398
78	0x3f16bb12	0.58879197
79	0xbe645533	-0.22298126
80	0xbdae5629	-0.085125275
81	0xbe34871b	-0.17629664
82	0x3e59635c	0.21229309
83	0x3fb553d7	1.4166211
84	0x3eee591b	0.46552357
85	0xbf8d401e	-1.1035192
86	0x3f3a2186	0.727074
87	0x3e423baf	0.1896808
88	0xbeb8bb37	-0.36080334
89	0xbed9bf5f	-0.42528817
90	0xbef9364b	-0.48674235
91	0x3eca69b8	0.39533782
92	0xbedd8d25	-0.43271747
93	0xbeebc89f	-0.460515
94	0x3f475771	0.778678
95	0xbeaa4529	-0.3325589
96	0x3fcdb648	1.6071253
97	0xbfc8ac3e	-1.5677564
98	0x3e67b73c	0.22628492
99	0xbc167468	-0.009183027
100	0x3fcb4f52	1.5883582
101	0xbf001c6b	-0.5004336
102	0xbecb366f	-0.39689967
103	0xbfe4059e	-1.7814214
104	0xbed3a5ec	-0.41337526
105	0xbf1fc880	-0.62415314
106	0xbf068ac5	-0.52555496
107	0xbe81539c	-0.252591
108	0xbece1f89	-0.40258434
109	0xbf961e37	-1.1727971
110	0xbf735f23	-0.9506704
111	0x3e317c16	0.17332491
112	0x3d1f14eb	0.03883831
113	0x3f0f65ae	0.56014526
114	0xbf58141c	-0.84405684
115	0x3f1de074	0.61670613
116	0xbdbfa392	-0.093573704
117	0x3fda5f31	1.70603
118	0xbfebe505	-1.8429266
119	0x3f45c5b2	0.77254784
120	0xbf636d90	-0.88839054
121	0xbfee179f	-1.8600959
122	0xbec5a6fb	-0.38603958
123	0xbf9331a4	-1.1499524
124	0xbf025d5a	-0.50923693
125	0xbfc0d3ec	-1.5064673
126	0x3f3812ad	0.71903497
127	0x3f590566	0.8477386
128	0xbe1d1fbf	-0.15344141
129	0xbf518f58	-0.8185935
130	0x3f26dc59	0.65179974
131	0x3f23a3e2	0.6392194
132	0xbee154b2	-0.4400993
133	0xbddb9dc6	-0.10723452
134	0xbf96224f	-1.172922
135	0xbf67905d	-0.90454656
136	0xbda7243a	-0.081612065
137	0x3f4c09ce	0.7970246
138	0x3e7a50a7	0.24444829
139	0xbedf0f48	-0.43566346
140	0xbe628174	-0.22119695
141	0x3eda59c3	0.42646608
142	0xbd0a475e	-0.033759467
143	0x3eb3bf8f	0.35107085
144	0xbf0b1ab2	-0.5433761
145	0x3f52e757	0.82384247
146	0x3f1b6374	0.6069863
147	0xbfbd3aca	-1.4783566
148	0x3f4c0d87	0.7970814
149	0x3f051fd8	0.52001715
150	0x3e9a3058	0.30115008
151	0x3f1139c8	0.5672879
152	0xbe8f1f3f	-0.27953526
153	0xbccdcfe3	-0.025123542
154	0xbf18acae	-0.5963849
155	0xbec06a40	-0.37581062
156	0x3ee3d815	0.44500795
157	0x3fbe9de4	1.4891934
158	0xbfdc4714	-1.7209191
159	0xbfa39473	-1.2779678
160	0xbf2c408e	-0.67286
161	0xbeb8d3aa	-0.36098987
162	0xbf253d67	-0.6454682
163	0x3fd5e034	1.6709046
164	0xbf3d3c82	-0.7392045
165	0xbf14b2ec	-0.58085513
166	0x3ede2fb8	0.43395782
167	0xbea4da32	-0.3219772
168	0xbfadd033	-1.3579162
169	0x3ff65689	1.9245158
170	0x3f88032b	1.0625967
171	0xbf45feb6	-0.77341783
172	0x3f5110d4	0.816663
173	0x3e137f13	0.14403944
174	0xbe7fe9aa	-0.2499148
175	0x3d27d7c2	0.040977247
176	0x3f1480c6	0.5800899
177	0xbee3d6cd	-0.44499817
178	0x40008b02	2.0084844
179	0xbe19455f	-0.14967869
180	0xbee554b1	-0.44791177
181	0xbf79c9a1	-0.97573286
182	0x3f291a6a	0.6605593
183	0xbfad1ade	-1.3523824
184	0xbea49a34	-0.32148898
185	0xbf3fb82c	-0.748904
186	0x3f0fd1b4	0.56179357
187	0xbec8837e	-0.3916282
188	0x3e696038	0.22790611
189	0x3f9a2db1	1.2045194
190	0xbf01d3a5	-0.5071357
191	0xbedac74a	-0.4273017
192	0xbe73e192	-0.23816517
193	0xbeb7f1e2	-0.3592673
194	0x400ca1c7	2.197374
195	0x3f314514	0.6924603
196	0x400b7e0d	2.1795685
197	0xbfbcde11	-1.4755269
198	0x3ebd72d4	0.3700167
199	0xbf10eade	-0.5660838
200	0x3fbbf70a	1.4684765
201	0x3e10ec0f	0.14152549
202	0xbea99933	-0.33124694
203	0x3fb41d0d	1.4071366
204	0x3fb74306	1.4317329
205	0x3eb75a5f	0.35811135
206	0xbef2ba89	-0.4740794
207	0xbf2c9191	-0.67409617
208	0x3e097f04	0.13427359
209	0x3f0dba94	0.5536282
210	0xbfc8ee13	-1.5697654
211	0xbf907e7f	-1.1288604
212	0xbf95096b	-1.1643499
213	0x3eab3aa8	0.3344319
214	0xbf1252fe	-0.57157886
215	0xbe0c1f0c	-0.13683718
216	0x3d6e470a	0.058173217
217	0x3f215836	0.63025224
218	0xbf17d513	-0.593095
219	0xbf51b124	-0.8191092
220	0x3f546c89	0.8297811
221	0x3fbe80df	1.4883078
222	0x3d98d4db	0.07462474
223	0x3efe8579	0.49711207
224	0xbfb3db47	-1.4051293
225	0x3f16b9cb	0.5887725
226	0xbf94ae00	-1.16156
227	0x3dd0e414	0.101997524
228	0xbf9b7d20	-1.214756
229	0x3c9926e2	0.018695299
230	0x3efd175e	0.4943189
231	0x3ffbb4c9	1.9664546
232	0x3f869d18	1.0516691
233	0x3e182556	0.14857993
234	0x3fa4f4ae	1.288717
235	0xbe943027	-0.28942987
236	0xbc2ddfd9	-0.0106124515
237	0x3cda5c69	0.026655393
238	0x3f3b4d8f	0.7316522
239	0xbef04d89	-0.46934155
240	0xbf2c1183	-0.6721422
241	0xbc8936aa	-0.016749699
242	0x4002304a	2.0341973
243	0xbf86f0f4	-1.0542283
244	0xbe6476dd	-0.22310968
245	0xbf19e434	-0.60113835
246	0x3fd05d17	1.6278409
247	0xbe98caf1	-0.29842332
248	0x3e9112b2	0.28334576
249	0x40346ddd	2.8192055
250	0x3e563ff0	0.20922828
251	0x3fa46c18	1.2845488
252	0x3f2c2f75	0.67259914
253	0x3f0b913a	0.54518473
254	0xbf9342a2	-1.150471
255	0xbfa4fd88	-1.2889872

model.2.bias f4 [128]
0	0xbe94ba43	-0.29048356
1	0xbf22ec47	-0.6364178
2	0xbe27ea88	-0.1639806
3	0xbefe98ff	-0.49726102
4	0xbec7fd6f	-0.39060542
5	0xbf35f2a2	-0.71073353
6	0x3e1f8773	0.15579014
7	0x3f0d6d46	0.55244863
8	0xbd59282b	-0.053016823
9	0x3ecc4e31	0.39903405
10	0xbd75b2ae	-0.059984855
11	0xbeb5e9c2	-0.35529906
12	0xbf1eeba0	-0.62078285
13	0xbf6c795a	-0.9237267
14	0x3e39a0ef	0.18127798
15	0x3f519363	0.8186552
16	0x3f3ebf76	0.74510896
17	0x3f08b85c	0.5340631
18	0xbf627372	-0.88457406
19	0xbf070537	-0.5274233
20	0xbe05298b	-0.13004129
21	0x3d1bba4f	0.038019475
22	0xbf04f842	-0.5194131
23	0xbeaea8c6	-0.3411314
24	0x3ee01615	0.43766847
25	0xbe851091	-0.25989202
26	0xbe6290bf	-0.22125529
27	0x3f284558	0.6573081
28	0x3e628837	0.22122274
29	0x3e9eaaca	0.30989677
30	0xbd6ccc4e	-0.057812028
31	0xbd68a41e	-0.05679714
32	0xbe36b832	-0.17843702
33	0xbeab3a7d	-0.3344306
34	0xbf0a4100	-0.5400543
35	0x3f20eb63	0.6285917
36	0xbf0b4d89	-0.54415184
37	0x3ea56bc7	0.3230879
38	0xbe6d9993	-0.23203115
39	0xbe276e34	-0.16350633
40	0xbde24ddf	-0.11050009
41	0xbf3554c1	-0.7083245
42	0xbf5eb8ac	-0.87000537
43	0xbe405ab6	-0.18784603
44	0x3f230259	0.6367546
45	0xbea8506e	-0.32873863
46	0x3d69fd2c	0.05712621
47	0xbe088334	-0.133313
48	0x3e858766	0.26079863
49	0x3d8d5856	0.06901614
50	0x3f0c511b	0.5481126
51	0x3f0dac0c	0.5534065
52	0x3c8bd89c	0.01707106
53	0x3f6e8603	0.93173236
54	0x3e356baf	0.1771686
55	0xbed1e567	-0.40995333
56	0x3e7e4b71	0.24833466
57	0xbe05986b	-0.13046424
58	0xbe8ebd16	-0.27878636
59	0x3edd56f1	0.43230394
60	0x3db1cc47	0.08681541
61	0xbf4b330b	-0.7937476
62	0xbe3abe1e	-0.18236586
63	0xbe2ef595	-0.1708587
64	0xbf04030e	-0.5156716
65	0xbdc2eada	-0.09517451
66	0xbea47496	-0.32120198
67	0x3e35aa1f	0.17740677
68	0xbcb14792	-0.021640573
69	0xbc7d166f	-0.015447243
70	0x3ee549b2	0.44782788
71	0x3f28778d	0.6580742
72	0xbf10d2c6	-0.56571615
73	0xbec7b9a7	-0.3900883
74	0xbee7e6ac	-0.45293176
75	0xbe4c0bf2	-0.19926432
76	0x3f3c3e05	0.73532134
77	0xbe781d78	-0.24229991
78	0x3e16556b	0.14681022
79	0xbeb9f82c	-0.36322153
80	0x3f077545	0.52913314
81	0xbe866c4c	-0.262545
82	0x3f072b07	0.5280003
83	0x3d10e20b	0.03537182
84	0xbee1787e	-0.4403724
85	0xbe9e5932	-0.30927426
86	0x3efd29af	0.49445865
87	0x3e28ee26	0.16497096
88	0x3f37d747	0.7181286
89	0x3f1b2616	0.6060499
90	0xbef51b50	-0.478724
91	0x3f5822ca	0.84428084
92	0x3deb1502	0.11478616
93	0x3f23b38e	0.63945854
94	0x3e5422ea	0.20716444
95	0xbe0a2bee	-0.1349332
96	0x3e5343f4	0.20631391
97	0xbe29bec3	-0.16576676
98	0xbee8cc83	-0.4546853
99	0xbf253c05	-0.6454471
100	0xbf2c2a1b	-0.6725175
101	0x3f3d3c22	0.7391988
102	0x3e82ce42	0.25547987
103	0xbe9ded24	-0.30844986
104	0xbe87beba	-0.265127
105	0xbec7e451	-0.3904138
106	0xbe56573c	-0.20931715
107	0x3ebe581e	0.37176603
108	0x3f1bd9ec	0.608794
109	0x3e6aa4db	0.2291445
110	0xbf507c8e	-0.81440055
111	0xbddf67d4	-0.109084755
112	0xbe6a8572	-0.22902468
113	0xbeef3cc8	-0.4672606
114	0x3e5b8db7	0.21440779
115	0xbcfb02b1	-0.030640932
116	0xbce690b7	-0.028145177
117	0x3dc70ac3	0.097188495
118	0x3ead74e3	0.3387824
119	0xbf5f9368	-0.873343
120	0xbf1bbc8d	-0.6083458
121	0xbf1131e3	-0.56716746
122	0x3eb607e1	0.35552886
123	0x3eaa6f6d	0.33288136
124	0xbd71984a	-0.058983125
125	0xbf2b96b5	-0.67026836
126	0xbde4f933	-0.111803435
127	0x3eafc52c	0.34330118

model.4.weight f4 [5, 128]
0	0x4062cde6	3.543817
1	0xc1ee5513	-29.79154
2	0x4118078c	9.5018425
3	0xc2084626	-34.068504
4	0xc1ed73fa	-29.68163
5	0xc21fa7f1	-39.914005
6	0xc208733d	-34.112537
7	0xbffce44d	-1.9757172
8	0xc1ce43f1	-25.783175
9	0xc0c1266e	-6.035941
10	0xc1bcec24	-23.615303
11	0xc1da16c5	-27.261118
12	0xc136d706	-11.427496
13	0xc1fea2e8	-31.829544
14	0x41a0cade	20.099056
15	0x4214e59d	37.22423
16	0x42172f84	37.796402
17	0x4198d847	19.105604
18	0xc1fa4e20	-31.288147
19	0xbec7b408	-0.3900454
20	0xc160f566	-14.059912
21	0xc206b857	-33.68002
22	0x3fba498a	1.4553692
23	0xc118b27f	-9.543578
24	0x41469f15	12.413838
25	0x4230d9e0	44.21277
26	0xc20381c7	-32.876736
27	0x4206a85b	33.66441
28	0xc18518e4	-16.637154
29	0x41ed06a8	29.62825
30	0xc1dce2cf	-27.610746
31	0x422809a8	42.00943
32	0xc1fe751c	-31.807182
33	0xc150014c	-13.000317
34	0xc20cd9ac	-35.21257
35	0x41b6526d	22.790247
36	0xc1e1cb67	-28.224318
37	0x421658f2	37.58686
38	0x40d6584c	6.6982784
39	0x411d44f0	9.82933
40	0xc19b7202	-19.430668
41	0xc1daa8d9	-27.332445
42	0xc1fb8718	-31.440964
43	0x41ab67a5	21.425608
44	0xc084b09f	-4.14656
45	0xc14b3558	-12.700523
46	0xc1832f3e	-16.398067
47	0xc2032a6a	-32.79142
48	0x41c5adb2	24.709812
49	0x41dbc93b	27.473257
50	0x42125bc4	36.589615
51	0xc1b37ad4	-22.434975
52	0xc0d1c1ee	-6.554923
53	0x41fb9a0a	31.450214
54	0x42185fd5	38.093586
55	0xc20cbd69	-35.18497
56	0x41e18228	28.188553
57	0xc1b42148	-22.51625
58	0xbed23852	-0.41058594
59	0x41c57fad	24.687342
60	0x41feaac2	31.833378
61	0xc1f573c4	-30.681526
62	0xc20335b1	-32.802433
63	0xc122a62a	-10.165567
64	0xc2135f01	-36.842777
65	0xc05f7907	-3.491762
66	0xc1e158e9	-28.168413
67	0xc0ca52ae	-6.3225927
68	0x419a0ef3	19.2573
69	0xc033e1c3	-2.8106544
70	0x4205b18e	33.423393
71	0x420c0588	35.0054
72	0xc19729b6	-18.895367
73	0x40ee1f55	7.4413247
74	0xc1b70b59	-22.88054
75	0xc1f6045e	-30.752132
76	0x4218536a	38.08146
77	0xc20a9181	-34.642094
78	0x414c7641	12.778871
79	0xc1dd8979	-27.692125
80	0x40f2bb82	7.585389
81	0xc2053ad8	-33.307465
82	0x41c6dd24	24.857979
83	0xc22ce1c8	-43.22049
84	0xc212ab75	-36.66744
85	0xc19c4c64	-19.5373
86	0x4030284f	2.7524602
87	0x418e5ab4	17.794289
88	0x42185232	38.08027
89	0x41ff2ef2	31.897923
90	0xc1f37452	-30.431797
91	0x41f44159	30.531908
92	0x41a423a9	20.517412
93	0x41208b7f	10.034057
94	0x420135fe	32.302727
95	0xc201c35f	-32.440792
96	0x41891387	17.134535
97	0xc21c891c	-39.133896
98	0xc1f188b8	-30.191757
99	0xc1ed21a4	-29.641426
100	0xc20a00fd	-34.500965
101	0x41fce605	31.612314
102	0x4076f600	3.8587646
103	0xc2004d8a	-32.07572
104	0xc11bbc4c	-9.733471
105	0xc1d810ed	-27.008265
106	0xc201a166	-32.407616
107	0x420cd18b	35.20463
108	0x41e7ef8c	28.991966
109	0x4200c83a	32.195534
110	0xc1fa6ec2	-31.304081
111	0x40562274	3.3458529
112	0xc1fe328f	-31.774687
113	0xc0cf1621	-6.4714513
114	0x41329ec9	11.163766
115	0xc1bc97c2	-23.5741
116	0xc0b03d1d	-5.50746
117	0x4204f5d3	33.240063
118	0x41cf75d4	25.932533
119	0xc1fd65b5	-31.674662
120	0xc19274be	-18.307003
121	0x42132065	36.781635
122	0x4209827d	34.37743
123	0x415c4b3e	13.76837
124	0x416ddcb6	14.8663845
125	0xc1fc15cd	-31.510645
126	0xc20eef29	-35.733555
127	0x4074866d	3.8207047
128	0x41822f4d	16.273096
129	0xc1e0d826	-28.105541
130	0x40996895	4.7940164
131	0xc1712ba9	-15.073159
132	0xc2016523	-32.348766
133	0xc20d0831	-35.258
134	0xbf8b8ea7	-1.0902909
135	0x422911ec	42.2675
136	0xc1dd9163	-27.69599
137	0xc0912bf4	-4.5366154
138	0xc1ef0925	-29.879465
139	0xc1b04b3b	-22.036734
140	0xc2112ed9	-36.29575
141	0xc1e41d42	-28.514286
142	0x410fbccc	8.983593
143	0x413859ce	11.521925
144	0x420cf41e	35.238396
145	0x414a0e54	12.628498
146	0xc1e1246d	-28.142786
147	0xc21ec434	-39.691605
148	0xc10c1b6f	-8.756698
149	0xc20efec8	-35.74881
150	0x41e7a6fd	28.956537
151	0xc0e9562b	-7.2917686
152	0x3fb5c588	1.4200907
153	0x41148dc6	9.284613
154	0xc1f07632	-30.057713
155	0x41d1390c	26.152855
156	0x41c4a028	24.578201
157	0x41ce5372	25.790745
158	0xc14e8648	-12.9077835
159	0x4162434c	14.14143
160	0xc1a94f22	-21.16364
161	0xc14454b7	-12.270682
162	0xc1e778fb	-28.934072
163	0x41a12053	20.140783
164	0xc1fb9d79	-31.45189
165	0x42181008	38.015656
166	0x416e2f32	14.886522
167	0x418157b1	16.167818
168	0xc19b57a0	-19.417786
169	0xc1cb4293	-25.407507
170	0xc1e1939e	-28.197079
171	0x4181be05	16.217783
172	0x422a4d06	42.57522
173	0x41d18c5c	26.193535
174	0xc13b643d	-11.711972
175	0xc1ffbe90	-31.968048
176	0x4111df7a	9.11706
177	0xc170e8ae	-15.056807
178	0x4213e684	36.975113
179	0x41ef6e69	29.928911
180	0xc1e53b7e	-28.654049
181	0x41e36260	28.423035
182	0x4217b62c	37.927902
183	0xc210f39a	-36.237892
184	0x41c15006	24.164074
185	0x41ce1e28	25.764725
186	0x420346bd	32.81908
187	0x41f48f31	30.569918
188	0x420a32cb	34.549603
189	0x40365433	2.848889
190	0xc2029621	-32.64661
191	0xc16885c2	-14.532656
192	0xc21343e8	-36.816315
193	0x3fb84887	1.4397134
194	0x41c24837	24.285261
195	0x420bc1f5	34.93941
196	0x4130caf9	11.049554
197	0xbf91b652	-1.1383765
198	0x420fc52e	35.94256
199	0x420fee8f	35.982967
200	0xc150a43c	-13.040096
201	0x4111120b	9.066905
202	0xc16f2718	-14.947044
203	0xc21479c1	-37.1189
204	0x42079613	33.896557
205	0xc20813ec	-34.019455
206	0x42029dc8	32.654083
207	0x414259ad	12.1468935
208	0xc18f9980	-17.949951
209	0xc20268d9	-32.60239
210	0x420594c3	33.395275
211	0xc160668f	-14.025039
212	0xc2022f25	-32.54604
213	0xc1c3fb74	-24.49778
214	0x422b84ca	42.879677
215	0x41a67bea	20.810505
216	0x420c925b	35.142925
217	0x41e36296	28.423138
218	0xc2054d1b	-33.3253
219	0x41e1d038	28.22667
220	0x4170926f	15.03575
221	0x4168e7a1	14.55655
222	0x41fff63c	31.995232
223	0xc209b015	-34.421955
224	0x41a6dd0a	20.85793
225	0xc1573f2a	-13.452921
226	0xc1ce4384	-25.782967
227	0xc1dde60c	-27.737328
228	0xc20bf1b0	-34.986023
229	0x41e357ca	28.417866
230	0x40e9bf17	7.3045764
231	0xc1dd8103	-27.687994
232	0xc11a62dd	-9.649137
233	0xc1ad1c23	-21.638739
234	0xc200854c	-32.130173
235	0x420f76fa	35.866188
236	0x41fcbadb	31.591238
237	0x41f6568e	30.792263
238	0xc1e3087e	-28.379147
239	0x419cae43	19.585089
240	0x40717126	3.772531
241	0xc1ea7435	-29.306742
242	0x41c67ba8	24.810379
243	0xc1f18b96	-30.193157
244	0x41f473f8	30.556625
245	0x4125bea0	10.359039
246	0x41e47db1	28.561373
247	0xc1e003ba	-28.00182
248	0xc1bf8fb4	-23.945168
249	0x4127ce89	10.487924
250	0x420f4686	35.81887
251	0x41dc3650	27.52652
252	0x4199b7d9	19.21477
253	0xc1e233d8	-28.275314
254	0x416b0680	14.689087
255	0x3fdc5b1a	1.7215302

model.4.bias f4 [5]
0	0x4216e84e	37.72686
1	0x4211f9ef	36.494076
2	0x41e9dd0b	29.232931
3	0x4203b6fb	32.92869
4	0x42d7884a	107.76619
