results/palindrome/ql_7.pt (torch, 84325 bytes, 6 tensors)

model.0.weight f4 [128, 25]
1.7480811 1.2031353 2.77904 -0.36025026 0.85268056 1.2334543 1.091382 0.1157295
0.12508933 -0.059627105 -0.17640631 -0.15747714 -0.10366096 -0.0622998 -0.14176552 -0.19121552
0.00719285 0.16766737 0.014717817 0.12885416 -0.13262665 -0.0022378445 0.06235006 0.17133942
0.09281895 0.65472764 -0.9123281 -0.33765116 2.9541254 -0.020232586 -0.5160635 -0.43955904
0.14466117 -0.1566476 -0.114311 0.12474268 0.071477726 -0.010572172 0.0026297092 -0.1322007
0.031956315 -0.088587664 -0.19287431 -0.1683934 -0.014911509 0.028852034 -0.13918832 0.10040259
0.16144417 0.05650096 2.0170772 -1.8921376 -0.14786296 0.01768558 -0.13807374 0.5295803
0.46189803 0.17656939 -0.15327437 0.19150794 -0.12718578 0.139288 0.17465381 -0.15105574
0.12058108 -0.17813487 -0.010421038 0.179425 0.16277984 0.19157234 -0.17046674 -0.01609304
-0.05049751 -0.12903972 -0.13370405 0.05199737 -2.099676 0.43183154 2.5385232 -1.2675761
-0.84610826 -0.94352347 -0.17170337 -0.10598598 -0.14361499 -0.041079666 -0.110264875 -0.19634123
0.10256982 0.1165097 0.08844316 0.0630698 0.07141771 -0.18769825 -0.104125194 -0.14632075
0.09450827 -0.09819975 -1.0824204e-05 0.16059788 -0.35117558 0.07481009 0.40843529 0.15937026
-1.8472985 -0.833047 -0.8799065 -0.04984784 0.15017419 0.089087084 0.09230218 0.1197449
-0.019130087 0.11473443 -0.007841396 0.16198194 0.18195236 0.111554526 -0.035661843 0.013248277
0.1509827 -0.15599623 -0.0727027 -0.19421497 0.083520584 -0.72481483 0.04995804 0.53487486
0.14869706 -0.93217635 -0.90611416 -0.8919006 -0.1581281 0.102662325 0.12177322 0.13807975
0.10911842 0.13258539 -0.06923168 0.17171688 0.018758655 -0.15727127 -0.105207466 0.05404947
-0.16753936 -0.13757448 -0.017544795 -0.013455415 0.109500006 0.011866546 0.14782813 -0.17028178
-0.82622457 -0.42516604 2.239859 0.6666978 0.90950423 0.13130842 0.02364545 -0.03693011
-0.14079617 -0.07232974 0.16819678 -0.12068107 -0.092487335 -0.007576633 0.044349767 0.17322557
0.11440366 -0.11429711 -0.07148104 0.17939365 -0.036123134 0.18137501 -0.062153842 -0.25673026
11.430034 1.9950385 -0.92887294 2.1473672 0.15707335 -0.16914734 -0.0008323908 0.03687167
0.023431683 -0.10146701 0.0019656182 -0.031357408 0.090851925 0.04942861 0.19573627 0.13845761
0.10691533 -0.02136357 -0.13877915 -0.10353935 0.19050942 0.17202437 0.0906354 0.031071115
1.3682564 0.77560294 0.7809693 -0.88241625 -0.50590944 -0.45768842 -0.64043736 0.06444261
0.14681791 0.027839517 -0.13614182 -0.14923842 0.03912666 -0.13409482 -0.05593889 -0.19865201
-0.046737503 0.083546996 -0.12924543 -0.17524488 0.018789077 -0.11631761 -0.05119722 0.14915875
-0.0056792023 0.35216594 -0.18895835 -1.3091433 -0.1835363 -0.17679487 0.46789664 0.489942
0.15565741 0.0625356 0.076440625 0.14699781 -0.024447083 -0.16829179 0.1221494 -0.1662591
-0.07908738 -0.12484362 0.0025316 -0.12259364 -0.12740397 0.1807175 -0.03154347 -0.1614248
-0.17084901 -0.059547592 0.76086426 -0.2481641 1.5187447 -2.001113 -2.6253939 0.5243226
00000000: 1fc1 df3f 5600 9a3f cbdb 3140 b972 b8be
00000010: 4649 5a3f d5e1 9d3f 68b2 8b3f 9703 ed3d
00000020: 6b17 003e 8d3b 74bd dba3 34be b041 21be
00000030: 334c d4bd 132e 7fbd fb2a 11be 00ce 43be
00000040: 00b2 eb3b ffb0 2b3e 0023 713c 58f2 033e
00000050: 48cf 07be cda8 12bb c762 7f3d 9a73 2f3e
00000060: dd17 be3d 3b9c 273f 568e 69bf 9de0 acbe
00000070: 6410 3d40 cfbe a5bc bd1c 04bf e20d e1be
00000080: 0f22 143e 3a68 20be e31b eabd 1779 ff3d
00000090: ea62 923d e736 2dbc 3357 2c3b 9f5f 07be
000000a0: a0e4 023d 736d b5bd d880 45be 526f 2cbe
000000b0: 674f 74bc 1a5b ec3c 6287 0ebe e09f cd3d
000000c0: 9f51 253e 8d6d 673d cb17 0140 9131 f2bf
000000d0: 6369 17be 59e1 903c 3463 0dbe 9392 073f
000000e0: e67d ec3e 9bce 343e f5f3 1cbe a81a 443e
000000f0: fd3c 02be 83a1 0e3e 73d8 323e 5bae 1abe
00000100: 37f3 f63d fd68 36be 00bd 2abc 30bb 373e
00000110: c2af 263e 8a2b 443e d58e 2ebe 8dd5 83bc
00000120: 7ad6 4ebd fd22 04be b7e9 08be 32fb 543d
00000130: 1761 06c0 0619 dd3e 2a77 2240 ef3f a2bf
00000140: 8d9a 58bf c18a 71bf 02d3 2fbe 2d0f d9bd
00000150: cf0f 13be 2743 28bd 8dd2 e1bd ad0d 49be
00000160: 2010 d23d a39c ee3d b021 b53d bd2a 813d
00000170: 7343 923d f833 40be 973f d5bd 1bd5 15be
00000180: 8d8d c13d f31c c9bd 9a99 35b7 c573 243e
00000190: 49cd b3be 0836 993d 6e1e d13e f531 233e
000001a0: 4774 ecbf 9142 55bf 8d41 61bf 402d 4cbd
000001b0: 43c7 193e 4a73 b63d ed08 bd3d d03c f53d
000001c0: b3b6 9cbc e3f9 ea3d 3379 00bc 98de 253e
000001d0: b851 3a3e b376 e43d 2712 12bd 4d0f 593c
000001e0: 359b 1a3e 7abd 1fbe 27e5 94bd 4ae0 46be
000001f0: d70c ab3d 778d 39bf cda0 4c3d 8fed 083f
00000200: 0b44 183e 1ca3 6ebf 19f7 67bf 9953 64bf
00000210: 55ec 21be a040 d23d 3d64 f93d c764 0d3e
00000220: 7a79 df3d 77c4 073e 57c9 8dbd 8dd6 2f3e
00000230: c0ab 993c b80b 21be 0377 d7bd fa62 5d3d
00000240: 708f 2bbe 53e0 0cbe 1aba 8fbc 1a74 5cbc
00000250: 8a41 e03d e76b 423c 4260 173e 595e 2ebe
00000260: 7483 53bf 5daf d9be da59 0f40 b5ac 2a3f
00000270: 45d5 683f b775 063e 1ab4 c13c 0744 17bd
00000280: df2c 10be 9d21 94bd c73b 2c3e a327 f7bd
00000290: 006a bdbd 6745 f8bb 1aa8 353d 0b62 313e
000002a0: 774c ea3d 9a14 eabd a764 92bd f8b2 373e
000002b0: daf5 13bd 5fba 393e 0795 7ebd 2672 83be
000002c0: 6be1 3641 6c5d ff3f 9eca 6dbf 776e 0940
000002d0: d6d7 203e f634 2dbe cd34 5aba c006 173d
000002e0: cdf3 bf3c f0cd cfbd 9ad1 003b a070 00bd
000002f0: 9310 ba3d a775 4a3d 176f 483e d5c7 0d3e
00000300: 6df6 da3d a702 afbc 1f1c 0ebe 700c d4bd
00000310: e714 433e 2827 303e 0d9f b93d da88 fe3c
00000320: 0723 af3f ea8d 463f 9bed 473f 08e6 61bf
00000330: 4883 01bf 2356 eabe b4f3 23bf 7dfa 833d
00000340: 6f57 163e b30f e43c c368 0bbe f5d1 18be
00000350: 4743 203d 2750 09be 2d20 65bd 6f6b 4bbe
00000360: d36f 3fbd b01a ab3d ea58 04be 6573 33be
00000370: 8deb 993c ed37 eebd 2db4 51bd 12bd 183e
00000380: 9a18 babb 184f b43e 4c7e 41be 0292 a7bf
00000390: f1f0 3bbe b709 35be 2690 ef3e aed9 fa3e
000003a0: a864 1f3e aa12 803d e78c 9c3d 9886 163e
000003b0: 4045 c8bc af54 2cbe 7729 fa3d d33f 2abe
000003c0: 90f8 a1bd 03ae ffbd 33e9 253b 6012 fbbd
000003d0: 3076 02be 020e 393e ba33 01bd 8b4c 25be
000003e0: 0bf3 2ebe 2de8 73bd 00c8 423f bb1e 7ebe
000003f0: 3a66 c23f 3c12 00c0 7406 28c0 023a 063f

model.0.bias f4 [128]
1.2372698 -0.7679412 0.27608597 -0.7004418 -0.7549188 -0.9772849 0.91659147 0.19171812
-0.5228483 0.59339416 0.33789954 0.3977598 0.7489111 1.1275015 0.9783296 -0.07950481
0.5550012 -0.6335789 0.043314815 -3.0497866 0.35499224 -0.17792796 0.15632361 0.64277
-0.37682384 1.1078018 0.4949861 0.776563 -0.6449488 -1.661282 -1.6633373 0.5736191
0.26801932 3.053405 0.16667372 -1.0099397 0.37605503 0.17856264 0.40214336 -0.024285423
0.4431887 0.8320067 1.1959902 0.3059322 0.7992655 0.028298981 -0.012407975 -0.34690508
-0.94191146 1.7281263 0.36602333 0.42282522 -0.3170374 0.34733155 0.36958775 0.40923876
-1.3537837 -1.1728717 0.4544934 2.9654806 -0.54385674 -0.19305328 0.21698648 0.031644516
3.0197623 -0.3378221 -1.634768 3.0470722 -0.21408895 0.429999 -0.072642535 -0.7490748
-1.2103577 0.4092053 -0.2737394 -0.4968833 -0.4876164 -0.06804873 0.5963721 0.1896197
-0.09337357 0.91514903 1.4141277 0.5427265 -0.98240167 0.605871 -0.36682004 -0.9407962
0.5742452 -0.4178992 0.25918654 0.7669013 -0.6812708 -0.41074288 -0.59361583 0.38969222
0.2507879 -0.7961452 0.80387783 0.26162997 -0.7274736 0.496787 -0.15908198 -0.516086
1.0214177 -0.049500342 0.8320363 -0.09724378 0.81497663 0.13914315 0.7700181 -0.41574758
0.57885575 0.4536725 -0.37649646 0.3566912 0.9064687 0.3564889 0.5319506 -0.28646263
0.20382437 -0.5247613 0.62133706 0.4789674 -0.35000992 0.59934574 -1.5358195 0.64748424
00000000: db5e 9e3f cb97 44bf 245b 8d3e 2750 33bf
00000010: 5c42 41bf 582f 7abf bda5 6a3f c151 443e
00000020: 63d9 05bf aee8 173f 2b01 ad3e 2ca7 cb3e
00000030: a3b8 3f3f f851 903f cf73 7a3f 6bd3 a2bd
00000040: 8f14 0e3f 3a32 22bf e06a 313d b42f 43c0
00000050: 8bc1 b53e bf32 36be 4c13 203e 938c 243f
00000060: 0eef c0be 73cc 8d3f d16e fd3e d5cc 463f
00000070: 5d1b 25bf e3a4 d4bf 3de8 d4bf b4d8 123f
00000080: d439 893e fd6a 4340 84ac 2a3e b445 81bf
00000090: 498a c03e 20d9 363e bce5 cd3e 39f2 c6bc
000000a0: a1e9 e23e 64fe 543f 3516 993f 25a3 9c3e
000000b0: aa9c 4c3f 44d3 e73c d24a 4bbc 8b9d b1be
000000c0: 1c21 71bf 3e33 dd3f 6967 bb3e 8c7c d83e
000000d0: ba52 a2be 71d5 b13e 9b3a bd3e be87 d13e
000000e0: c948 adbf a920 96bf 5cb3 e83e 6fca 3d40
000000f0: 323a 0bbf c2af 45be b431 5e3e ae9d 013d
00000100: c943 4140 05f7 acbe 1440 d1bf 3b03 4340
00000110: 223a 5bbe d428 dc3e 9cc5 94bd 5ec3 3fbf
00000120: 00ed 9abf 5b83 d13e 9227 8cbe 7d67 febe
00000130: dba8 f9be 225d 8bbd d8ab 183f ab2b 423e
00000140: a43a bfbd 3547 6a3f 2302 b53f 20f0 0a3f
00000150: ad7e 7bbf 5d1a 1b3f d6cf bbbe 05d8 70bf
00000160: bc01 133f e2f6 d5be 19b4 843e a553 443f
00000170: c367 2ebf e44c d2be 35f7 17bf bd85 c73e
00000180: 4667 803e 2cd0 4bbf f0ca 4d3f 5df4 853e
00000190: b63b 3abf de5a fe3e 63e6 22be 361e 04bf
000001a0: d1bd 823f dfc0 4abd 5500 553f bf27 c7bd
000001b0: 4fa2 503f 8b7b 0e3e e81f 453f dedc d4be
000001c0: e42f 143f c347 e83e 25c4 c0be 3ba0 b63e
000001d0: 550e 683f b785 b63e ea2d 083f 3bab 92be
000001e0: 56b7 503e c256 06bf f20f 1f3f 373b f53e
000001f0: 8034 b3be b96e 193f bc95 c4bf 87c1 253f

model.2.weight f4 [128, 128]
0.35212 0.066854544 0.9529128 -0.42838106 -1.7563859 -0.4350743 1.5774784 0.022801453
-0.961983 1.3132381 -0.026466656 1.5090523 0.12603827 0.27195174 1.219272 -1.1571925
0.2615067 -1.0012822 0.10664793 -0.43658933 0.29761538 0.024559084 0.9805382 -0.11737949
-0.18939398 1.35162 -0.4336767 -0.016692286 -1.5459608 -0.30368882 -0.35922047 0.367969
-0.3974488 0.36613092 0.057241622 -0.50861675 0.25708848 -0.5680383 0.4051739 0.6031376
0.46893343 0.14047953 1.7708776 0.6649673 -0.14340045 0.11435032 -0.6216021 -0.73635954
-2.6542282 0.29198968 0.332442 1.5665625 -0.49841067 0.32441342 0.38470352 0.5146605
-0.35788378 -0.6938963 -0.08797145 0.44591895 -0.9276443 -0.8654891 0.8634394 -0.21302801
0.42718598 -0.9493383 -0.32131764 0.37042174 0.977487 0.5408034 0.6603462 -0.68793684
-0.47013983 1.2444938 0.023227962 0.2864192 -1.9807496 -1.4709009 -1.2889295 0.19447252
-1.1118035 -0.2624268 0.5404121 0.34206533 -2.2314181 -0.47486347 -0.38686952 -0.22724904
-0.14130713 -0.5880202 -0.018276436 1.4632156 0.08279877 0.0059672035 -1.7576603 -1.0910043
-0.77503777 -1.9834567 0.85364807 0.16388905 -1.1978076 -0.104093105 -0.57756114 -1.2321379
1.2988029 0.47906405 1.4842129 -1.3410691 0.8079408 -0.3426994 0.87022316 -0.34422532
1.7896303 -0.45574042 -0.116682276 0.23981972 0.3641805 -0.2647395 -0.05524074 -0.41438776
-0.0020164896 -0.7442165 0.6590232 0.04214592 -0.2692221 1.819988 -0.9857511 0.3496561
-0.5426133 -1.4856596 0.08500865 -0.18862835 -0.05925713 0.37683496 0.10137108 -0.25238046
1.247225 0.24752136 0.8863788 0.4174948 1.0420055 1.0003139 0.19431567 -0.11369594
-0.16975994 0.091829695 -0.4264418 0.48079622 0.081624866 -0.07494132 0.64348763 0.5698662
0.3027841 0.25169495 0.6276226 -0.14225824 0.84711933 0.4945962 0.57528794 -0.18020125
-0.21253002 -0.48136097 0.21054314 0.48495194 0.77161556 -0.8191135 0.853525 0.26074675
0.29582518 0.8482273 -0.105808005 -0.14030218 -0.28816682 -0.025249945 -0.85115623 -0.61444163
-0.1283289 -0.30881178 -0.29040727 0.2764699 0.5020936 -0.3968506 -0.536594 -0.4165825
0.41393855 -0.54769784 0.42970648 -0.41038173 0.44448525 -0.044626873 -0.43607572 0.41715547
-0.43123978 -1.0443295 0.52448267 -0.49270317 -0.5111158 0.02787408 0.21512717 0.15174124
0.5232147 -0.3622119 0.50434893 -2.0254776 -0.012980755 -0.2205186 0.8438907 0.06463402
0.32756075 0.464613 -0.26190203 0.2834249 -0.42084423 0.11615987 0.5313335 0.057677712
1.2834672 0.21341267 -0.18700248 0.39312068 0.008093076 0.6449235 -0.02645491 0.06309171
0.19989976 -0.22770892 0.5806141 0.60085595 -0.7562635 1.5183609 0.6127987 0.725571
0.31505558 0.934305 -0.075147435 -0.19258332 -0.09302789 0.124226674 0.5414255 0.2766414
0.41502678 -0.4084198 0.32647824 0.051924977 -0.022124803 0.15204369 -0.13159491 0.11854642
-0.38311157 -0.32206672 0.72694653 0.5227437 -0.09536235 -1.6493014 -0.3511356 0.3451159
00000000: 1349 b43e 09eb 883d 18f2 733f c354 dbbe
00000010: 41d1 e0bf 0fc2 debe d0ea c93f 1dca ba3c
00000020: 8544 76bf 3018 a83f 9ad0 d8bc a028 c13f
00000030: 2d10 013e 423d 8b3e 1b11 9c3f e21e 94bf
00000040: 35e4 853e 042a 80bf 3b6a da3d a388 dfbe
00000050: 0b61 983e 2230 c93c 8d04 7b3f a864 f0bd
00000060: 7ff0 41be e201 ad3f df0a debe 43be 88bc
00000070: 0be2 c5bf 1a7d 9bbe bfeb b7be 6f66 bc3e
00000080: 697e cbbe 8375 bb3e 3176 6a3d b534 02bf
00000090: 1aa1 833e f56a 11bf f472 cf3e 3a67 1a3f
000000a0: 0b18 f03e ded9 0f3e 1eac e23f 4c3b 2a3f
000000b0: 91d7 12be 8030 ea3d 5121 1fbf 0f82 3cbf
000000c0: e0de 29c0 ac7f 953e d635 aa3e 1f85 c83f
000000d0: af2f ffbe 8419 a63e dcf7 c43e cac0 033f
000000e0: 8b3c b7be 30a3 31bf 602a b4bd 7d4f e43e
000000f0: 197a 6dbf b290 5dbf 5d0a 5d3f 0424 5abe
00000100: 1fb8 da3e d607 73bf bf83 a4be eba7 bd3e
00000110: 973c 7a3f 1772 0a3f 730c 293f a11c 30bf
00000120: 2bb6 f0be 934b 9f3f 9148 be3c 8aa5 923e
00000130: 3489 fdbf 7b46 bcbf a4fb a4bf ce23 473e
00000140: 944f 8ebf ce5c 86be 7358 0a3f 3023 af3e
00000150: 8ecf 0ec0 4e21 f3be c313 c6be f9b3 68be
00000160: d1b2 10be 7e88 16bf 77b8 95bc a64a bb3f
00000170: 6792 a93d 8888 c33b 03fb e0bf 07a6 8bbf
00000180: e068 46bf e9e1 fdbf ae88 5a3f 88d2 273e
00000190: c251 99bf c42e d5bd 0cdb 13bf b2b6 9dbf
000001a0: 2c3f a63f e247 f53e b0fa bd3f 27a8 abbf
000001b0: 35d5 4e3f 4c76 afbe f2c6 5e3f 4d3e b0be
000001c0: 9b12 e53f cf56 e9be 1ef7 eebd 4d93 753e
000001d0: de75 ba3e f08b 87be 1d44 62bd a22a d4be
000001e0: 1527 04bb f984 3ebf bfb5 283f 33a1 2c3d
000001f0: 7bd7 89be 5ef5 e83f 2f5a 7cbf 2006 b33e
00000200: b5e8 0abf 182a bebf 0419 ae3d ca27 41be
00000210: 9bb7 72bd 83f0 c03e a49b cf3d 0338 81be
00000220: 12a5 9f3f 3d76 7d3e b9e9 623f e1c1 d53e
00000230: 7060 853f 490a 803f b0fa 463e 6bd9 e8bd
00000240: 8dd5 2dbe 3511 bc3d 9456 dabe ec2a f63e
00000250: f02a a73d d67a 99bd 9bbb 243f c0e2 113f
00000260: 8406 9b3e 29de 803e e0ab 203f 25ac 11be
00000270: d0dc 583f b73b fd3e 1246 133f ad86 38be
00000280: 78a1 59be f274 f6be 9f98 573e 9f4b f83e
00000290: 9988 453f 6cb1 51bf 9d80 5a3f 9980 853e
000002a0: 6676 973e 6d25 593f deb1 d8bd 60ab 0fbe
000002b0: 9a8a 93be f9d8 cebc 60e5 59bf 0c4c 1dbf
000002c0: a768 03be 941c 9ebe 43b0 94be 768d 8d3e
000002d0: 3589 003f 0030 cbbe 395e 09bf 4d4a d5be
000002e0: c1ef d33e ed35 0cbf 7d02 dc3e 8e1d d2be
000002f0: 9293 e33e abca 36bd 5145 dfbe 6795 d53e
00000300: 76cb dcbe 97ac 85bf 7f44 063f 9743 fcbe
00000310: 7cd8 02bf 2f58 e43c 4c4a 5c3e 0e62 1b3e
00000320: 66f1 053f d773 b9be 031d 013f 6da1 01c0
00000330: 3cad 54bc a1cf 61be 3909 583f d75e 843d
00000340: 0bb6 a73e c1e1 ed3e 0618 86be 121d 913e
00000350: e578 d7be 3ae5 ed3d 7905 083f 773f 6c3d
00000360: a748 a43f da88 5a3e 947d 3fbe 1d47 c93e
00000370: d298 043c b519 253f f8b7 d8bc 3a36 813d
00000380: 86b2 4c3e 872c 69be 20a3 143f b2d1 193f
00000390: 7c9a 41bf a659 c23f 60e0 1c3f 05bf 393f
000003a0: f74e a13e 9d2e 6f3f e6e6 99bd 9034 45be
000003b0: 6885 bebd 8e6a fe3d dd9a 0a3f f1a3 8d3e
000003c0: 647e d43e 661c d1be 2828 a73e 49af 543d
000003d0: 133f b5bc 57b1 1b3e d1c0 06be 77c8 f23d
000003e0: 3327 c4be eee5 a4be 2b19 3a3f 88d2 053f
000003f0: 564d c3bd 4f1c d3bf 0cc8 b3be 08b3 b03e

model.2.bias f4 [128]
0.3137331 -0.35124958 0.38669723 0.51912594 -0.22021864 -0.25549346 0.21881372 -0.29525763
-0.970168 0.68898314 0.20044827 0.3241254 0.43780464 -0.19486518 -0.37378335 0.44358915
-0.10479329 -1.0241565 0.09991192 0.17188145 -0.41535452 0.39173406 0.3743768 -0.34135914
-0.13312922 0.6129731 0.93743026 0.3030363 -0.28843793 -0.8604688 0.18228486 -0.43345228
-0.2770092 -0.28432536 0.25919333 -0.3905056 -0.26916125 0.85153985 0.27050698 -0.1377548
-0.89199245 -0.34127057 0.24642794 0.937771 0.40127173 -0.10667777 -0.90157586 0.19132595
0.22947286 0.6054966 0.2802616 0.9110837 0.836214 -1.065117 -0.98776764 0.47209665
0.3078275 -0.21478452 -0.09122493 0.8419541 0.3796874 0.21406543 -0.16205086 -0.40832114
-0.34237453 -0.30252892 0.5243194 -0.29219222 0.4676683 -0.46222976 -0.29205775 0.31075817
-0.2123237 -0.35912818 0.35369 -0.27528244 -0.17720142 -0.34886017 0.22312327 -0.25111118
-0.2762011 0.7059302 -0.2552234 0.3613347 -0.85986406 -0.6755126 0.32722118 0.661471
-0.5902415 0.13077493 -0.9999636 0.2859827 -0.5652813 0.25541344 -0.38631862 -0.3999225
0.034729462 0.03439601 0.23331541 -0.5062765 -0.33065698 -0.6550185 0.4217491 0.9263257
0.5250143 0.41342685 -0.11424833 -0.15487845 0.45288593 -0.4868736 0.47150686 0.17793645
-0.37531367 -0.2578801 0.75460505 -0.25586694 -0.032419287 -0.09076971 -0.05801799 0.37354517
0.6200116 0.3213616 0.89360243 0.79565144 -0.028084867 0.08599289 0.24776182 -0.11226767
00000000: a0a1 a03e fcd6 b3be 2efd c53e 70e5 043f
00000010: ff80 61be 0ad0 82be b410 603e 022c 97be
00000020: ee5c 78bf 3361 303f 5042 4d3e c4f3 a53e
00000030: ee27 e03e bd8a 47be 8860 bfbe 1e1e e33e
00000040: dd9d d6bd 8f17 83bf 9f9e cc3d b101 303e
00000050: 59a9 d4be 5e91 c83e 51ae bf3e a0c6 aebe
00000060: 0753 08be ceeb 1c3f 6efb 6f3f 9327 9b3e
00000070: 23ae 93be af47 5cbf e2a8 3a3e 75ed ddbe
00000080: 26d4 8dbe 1893 91be fdb4 843e 5af0 c7be
00000090: 81cf 89be 84fe 593f e47f 8a3e 980f 0dbe
000000a0: 9e59 64bf 04bb aebe 9b57 7c3e c311 703f
000000b0: 7d73 cd3e e079 dabd adcd 66bf f3ea 433e
000000c0: effa 6a3e d301 1b3f 737e 8f3e c83c 693f
000000d0: 1f12 563f c155 88bf 57de 7cbf a7b6 f13e
000000e0: 919b 9d3e 79f0 5bbe 23d4 babd 4e8a 573f
000000f0: 6366 c23e f833 5b3e a9f0 25be 780f d1be
00000100: b74b afbe 12e5 9abe cc39 063f 389a 95be
00000110: 3872 ef3e 61a9 ecbe 9888 95be b21b 9f3e
00000120: 626b 59be a6df b7be db16 b53e d2f1 8cbe
00000130: 4a74 35be cd9d b2be 6d7a 643e a591 80be
00000140: 3b6a 8dbe d7b7 343f a4ac 82be dd00 b93e
00000150: 0d20 5cbf 65ee 2cbf 8989 a73e 2a56 293f
00000160: 111a 17bf dde9 053e 9dfd 7fbf 536c 923e
00000170: 46b6 10bf 8dc5 823e 8ecb c5be a4c2 ccbe
00000180: 7b40 0e3d d5e2 0c3d 3cea 6e3e 569b 01bf
00000190: df4b a9be 4baf 27bf 7fef d73e ae23 6d3f
000001a0: 5667 063f afac d33e 07fb e9bd 7598 1ebe
000001b0: aae0 e73e 7f47 f9be 5969 f13e f934 363e
000001c0: 1d29 c0be dc08 84be cc2d 413f fe00 83be
000001d0: 16ca 04bd 78e5 b9bd 46a4 6dbd 5041 bf3e
000001e0: 15b9 1e3f 8289 a43e 21c3 643f d0af 4b3f
000001f0: 3c12 e6bc 0a1d b03d 46b5 7d3e 98ec e5bd

model.4.weight f4 [5, 128]
11.11624 5.2239428 9.062609 9.075799 -11.869004 -10.8338 11.424067 -4.4984136
-7.8126955 4.6971025 6.529146 6.6701 9.530683 0.36578467 -1.6824158 6.3705764
-8.223955 -7.834648 -3.68085 4.342494 -1.1434696 11.6344 10.982962 9.300954
-4.2216434 5.4841413 7.6242523 -17.813236 -0.048195623 -6.676752 12.0813055 -0.92320085
-8.8814535 -4.010204 8.174899 -15.7035 -23.082605 7.7867856 -15.28349 -1.5783267
-10.606658 -17.298447 -15.89512 7.6702724 6.3065925 -4.6229687 -7.800537 2.497491
16.039692 7.8809786 10.27487 7.7217126 6.997369 -8.016278 -7.6974134 14.3841
8.385927 -10.777403 -3.3288157 7.4905233 8.312685 6.599449 -6.6513753 -0.44449437
-14.20392 -21.68148 10.876683 8.272952 -7.824973 -11.446794 -5.8603325 10.358079
-10.716069 4.8007274 6.4661665 -2.9358542 -7.9040656 -10.563397 -1.6285466 2.2989511
3.0580351 8.885875 -4.303402 0.6652042 -7.6462183 -7.254737 3.2352793 6.085223
0.553713 10.063136 -7.5586286 4.0573053 -12.65119 8.634309 -10.773726 -5.4949856
-3.3237164 12.722625 9.080832 -10.377864 -4.94549 -9.030436 -13.553161 7.6815085
12.411404 7.00363 -8.948444 -10.651651 6.529272 -7.4926662 9.134588 9.786927
12.959547 3.1056008 7.7714815 -9.819487 -9.536894 -3.3532681 -2.5409133 -6.2715206
6.521196 -1.3120918 7.6986217 0.48461533 -22.569946 11.533724 2.5026817 1.1288838
10.410464 -24.965254 0.7149746 -0.9106843 -12.264302 -2.1477928 10.32968 -5.2655277
-8.123476 2.0862575 5.6072893 7.3317227 6.8945303 -4.582306 -1.1972556 7.32133
12.862253 -7.7978992 -3.547839 -0.16023925 18.208185 10.655792 9.759593 18.670757
-4.48818 2.7408147 7.865873 16.021772 0.99255526 -6.1906314 13.573315 -8.455658
-8.8667345 3.0462422 5.7843747 -9.778757 -6.7527685 8.1935 -8.795586 3.7736847
-6.458235 -5.087992 16.77093 7.7579904 9.078385 -4.5983768 -7.9127946 13.580385
19.42207 6.3570585 8.5103855 7.8461237 6.640632 -7.706496 -7.9216037 11.152614
-3.0678785 9.835257 -3.3695743 7.90937 7.70895 3.015269 -12.261523 -11.002496
-13.415331 2.1735237 9.3561735 11.951119 -21.644117 -9.96756 1.2006346 7.453077
-10.3600445 -9.256065 7.8438354 13.951849 -4.1587048 -7.6140027 -2.3672779 -0.7835694
-4.0076904 14.447134 11.867096 2.2930157 -7.665176 -7.8199115 4.8580894 6.297533
-2.2237062 9.732098 -7.9740376 1.8501531 -3.9527965 6.486368 -10.378004 -6.3198457
7.3210363 16.24334 9.350087 -13.019137 -6.0511184 -7.416151 -24.560606 7.8967614
6.407944 7.6123514 -7.8623405 -12.417996 7.0184703 -6.230648 9.132418 10.900654
-17.6587 -1.079993 9.479377 -10.364737 -6.6127477 9.529838 -5.4132547 -19.5736
6.030362 -2.035024 7.941112 7.5856776 -1.3474824 3.6069562 4.3781114 11.752379
00000000: 1edc 3141 8a2a a740 7200 1141 7936 1141
00000010: 71e7 3dc1 3f57 2dc1 fac8 3641 01f3 8fc0
00000020: 9a01 fac0 aa4e 9640 c4ee d040 7671 d540
00000030: ad7d 1841 2148 bb3e 6759 d7bf c3db cb40
00000040: 5295 03c1 70b5 fac0 0c93 6bc0 b6f5 8a40
00000050: 365d 92bf 8126 3a41 36ba 2f41 b5d0 1441
00000060: b417 87c0 167e af40 e0f9 f340 8281 8ec1
00000070: c668 45bd f4a7 d5c0 074d 4141 e456 6cbf
00000080: 6f1a 0ec1 9753 80c0 63cc 0241 8941 7bc1
00000090: 2da9 b8c1 592d f940 2d89 74c1 9c06 cabf
000000a0: dfb4 29c1 3863 8ac1 6952 7ec1 df72 f540
000000b0: 9bcf c940 5cef 93c0 009e f9c0 e4d6 1f40
000000c0: 4a51 8041 fa30 fc40 de65 2441 4518 f740
000000d0: 72ea df40 ad42 00c1 3651 f6c0 4625 6641
000000e0: c22c 0641 3e70 2cc1 510b 55c0 5eb2 ef40
000000f0: c200 0541 b02e d340 11d8 d4c0 c494 e3be
00000100: 4243 63c1 ac73 adc1 e506 2e41 035e 0441
00000110: 2e66 fac0 1126 37c1 d887 bbc0 b1ba 2541
00000120: 0575 2bc1 8f9f 9940 d6ea ce40 09e5 3bc0
00000130: 1bee fcc0 ad03 29c1 3774 d0bf 0422 1340
00000140: d9b6 4340 8b2c 0e41 78b5 89c0 d34a 2a3f
00000150: d2ad f4c0 ce26 e8c0 d10e 4f40 26ba c240
00000160: 23c0 0d3f 9b02 2141 49e0 f1c0 72d5 8140
00000170: 466b 4ac1 2126 0a41 2f61 2cc1 ecd6 afc0
00000180: c5b7 54c0 df8f 4b41 164b 1141 bb0b 26c1
00000190: 7441 9ec0 aa7c 10c1 bfd9 58c1 ebce f540
000001a0: 1c95 4641 bd1d e040 d42c 0fc1 2a6d 2ac1
000001b0: ccef d040 ecc3 efc0 4627 1241 4197 1c41
000001c0: 4e5a 4f41 2ac2 4640 faaf f840 9e1c 1dc1
000001d0: 1e97 18c1 f29b 56c0 539e 22c0 4cb0 c8c0
000001e0: a3ad d040 a0f2 a7bf 1c5b f640 801f f83e
000001f0: 408f b4c1 228a 3841 f02b 2040 447f 903f
00000200: 4391 2641 d7b8 c7c1 9308 373f 9b22 69bf
00000210: 953a 44c1 7075 09c0 5f46 2541 347f a8c0
00000220: c2f9 01c1 3e85 0540 ea6e b340 799d ea40
00000230: fe9f dc40 40a2 92c0 ac3f 99bf 5648 ea40
00000240: cacb 4d41 6488 f9c0 cb0f 63c0 c215 24be
00000250: 5daa 9141 207e 2a41 4b27 1c41 b65d 9541
00000260: 2c9f 8fc0 8269 2f40 3bb5 fb40 972c 8041
00000270: 1a18 7e3f a719 c6c0 4c2c 5941 604a 07c1
00000280: 25de 0dc1 a2f5 4240 9919 b940 ca75 1cc1
00000290: ae16 d8c0 9318 0341 b8ba 0cc1 0d84 7140
000002a0: dca9 cec0 d5d0 a2c0 dd2a 8641 7541 f840
000002b0: 1141 1141 e725 93c0 9d35 fdc0 4249 5941
000002c0: 6660 9b41 066d cb40 8a2a 0841 7213 fb40
000002d0: 0f80 d440 9d9b f6c0 c77d fdc0 1b71 3241
000002e0: 1f58 44c0 365d 1d41 1ba7 57c0 8f19 fd40
000002f0: b8af f640 2bfa 4040 332f 44c1 390a 30c1
00000300: 32a5 56c1 031b 0b40 e3b2 1541 c937 3f41
00000310: 2727 adc1 207b 1fc1 65ae 993f 9b7f ee40
00000320: bec2 25c1 d818 14c1 b300 fb40 c63a 5f41
00000330: 1c14 85c0 e9a5 f3c0 7b81 17c0 0198 48bf
00000340: 003f 80c0 7627 6741 a0df 3d41 c5c0 1240
00000350: 1f49 f5c0 b73c fac0 7875 9b40 6485 c940
00000360: 3451 0ec0 acb6 1b41 512b ffc0 d1d1 ec3f
00000370: 9efa 7cc0 5490 cf40 4e0c 26c1 2d3c cac0
00000380: ee45 ea40 5cf2 8141 f599 1541 634e 50c1
00000390: c3a2 c1c0 1c51 edc0 1f7c c4c1 45b2 fc40
000003a0: e10d cd40 6298 f340 4b98 fbc0 1db0 46c1
000003b0: 4f97 e040 7861 c7c0 621e 1241 1469 2e41
000003c0: 0545 8dc1 363d 8abf 87ab 1741 f6d5 25c1
000003d0: a19b d3c0 377a 1841 6239 adc0 bc96 9cc1
000003e0: baf8 c040 d53d 02c0 971d fe40 dfbd f240
000003f0: 4e7a acbf 5fd8 6640 7d19 8c40 bf09 3c41

model.4.bias f4 [5]
12.051036 9.885508 9.038076 9.747272 92.163765
00000000: 0bd1 4041 0a2b 1e41 f69b 1041 d3f4 1b41
00000010: d953 b842
