results/palindrome/ql_8.pt (torch, 84325 bytes, 6 tensors)

model.0.weight f4 [128, 25]
00000000: 88c4 523f 3bed 12bf 07b8 21bf b2fb 9cbf
00000010: c49d ae3e b7a2 883f 0d13 8b3f 2a64 db3d
00000020: f395 11be 1d04 e6bd 9334 f33d 5344 4a3e
00000030: a75a 113d baaf e9bd c398 4bbe 7a9e db3d
00000040: 0791 683d c744 02bd 074c 16be 73ef dfbc
00000050: 13d1 6e3d 0ab6 21be 278f f4bc 804a 24bd
00000060: f37b bc3d 57e5 6d3d a7a1 0940 7668 8c3e
00000070: fcc1 18c0 493a 233f a827 e53e 4ee9 c73e
00000080: d712 933d 87a8 34be 8d9d 4a3d a7c7 b2bd
00000090: b70d 01be 273a 2cbe 0a9b 44be 9af1 a8ba
000000a0: 436a f2bd bb15 3c3e 7097 2ebe 5ab2 e73c
000000b0: c0f0 083e 7d23 803d 8d7c 31bd 5758 473e
000000c0: 67ff ad3b 6051 053e 25d1 373e 9f9c 57bf
000000d0: 6694 9d3f f856 d7be 1ff8 c33f b0c8 24be
000000e0: 0622 ccbe 670b 0e3c 4d24 ed3c f361 31bd
000000f0: 6765 a6bc f250 483e 4084 8dbd 58ba 02be
00000100: 1301 43be ad23 1abd d2bb 2dbe 78c8 3f3e
00000110: e02e 05be 277c fcbc 9a6b dc3c 5844 263e
00000120: 8d13 c8bd bab8 aabd 1ae4 fdbc 76dd b7bf
00000130: 24fa 18be 99a6 29be 1a96 0d40 3e34 dfbf
00000140: 7e3a a0bf 1887 a1bf 00ca d53d 377d 9b3d
00000150: 6d03 e63d 8f1f 4b3e b39e 04be fa5f 65bd
00000160: 6a45 49be 3354 18bd 8716 f03d cfe8 49be
00000170: 171c 40be a817 0abe f0c1 8d3d f298 1ebe
00000180: fd96 cb3d 976f 253e 6d73 bcbd 2013 f9bd
00000190: 1b7c 29c0 cef5 2ec0 7413 8b3e e6a7 893f
000001a0: 1a79 0340 f897 8dbe 7201 4ebe f3e1 f4bd
000001b0: 9a46 843c 2d61 96bd 5a1f 933c aabe 80bd
000001c0: 3dbd d5bd 4069 f5bd e70e 53bd e711 7b3c
000001d0: e7cf 2abc 677a 64bb 0704 663d 6fa0 293e
000001e0: bdda 983d 87f2 15bd eba7 273e b53d 213e
000001f0: a7f4 3a3e d94f 133e 4f44 4dbe 1dab 48bf
00000200: 1cf8 203e 67de 2dc0 563e 693e 38d6 713e
00000210: a7d7 1a3d eb46 063e 1a52 d03c 6772 ad3b
00000220: 1de2 b43d fd36 8dbd 536a 05be 37a9 fc3d
00000230: 029b 403e ca0a a6bd 7099 343e 852a 153e
00000240: 27ad 0e3e 6748 3c3d 7301 32be 3f33 20be
00000250: 9718 edbd 2767 c13d 6585 fa3f 8322 f33f
00000260: 4d37 8fbe 8b62 98bf f738 c43f ae57 1a3f
00000270: 1011 513f 4094 c63c 3714 a7bd 7349 afbc
00000280: 6d9b 5dbd e756 97bc 60e8 2e3d df5e 32be
00000290: 1a5e a93d ef2c 133e 6748 e0bb 1aa5 223e
000002a0: e7a5 ef3d 5a93 223d 3880 2abe 6056 79bd
000002b0: 7a0c 153d c747 44be 1781 c03d 2843 e240
000002c0: c6c7 91bf 51d2 7540 bd0f c7bf 7639 733f
000002d0: ac12 673f 8cd1 383f c38d b73d 071a 003d
000002e0: 708a 0a3e 42f6 01be 2323 243e 2d21 37bd
000002f0: eae9 f3bd 536a 06bd d215 30be 25ef 1b3e
00000300: 5d2a 4abe 4fbc 2e3e 137c a73d b2ab 2a3e
00000310: d888 033e fb69 123e 408d 123e c0f1 323d
00000320: b488 2340 bd09 3ac0 1459 0e3e 5546 05bd
00000330: 2c8a 05c0 7fb6 74be 05d9 e5be 00e7 043d
00000340: 0d77 dd3d 8013 83bc 9a88 acbc 3010 463e
00000350: db5d 393e 1a60 2f3d 53e5 e83d f044 9dbd
00000360: d511 1cbe 9098 c83d 200c eb3d 0dd4 b63d
00000370: 889c 243e 6d65 51bd 6779 a43b 9aa0 073c
00000380: ada0 8a3d b5c2 dfbe 4244 92bd 9ae0 7d3f
00000390: 9da2 7ebe 4a0a b5be 9cf4 1bbf a2bf 5cbf
000003a0: 0ac1 db3d fac7 853d 20f3 4c3d a860 4abe
000003b0: 323a 1abe dba3 41be c07a 8abd 57b4 b0bd
000003c0: 9f3f 443e 8355 273e a752 d73d 7fdc 063e
000003d0: e0df bebd 2de8 c43d 7ac3 a8bd 5f43 17be
000003e0: 80ae 9d3c b51e 2cbe 2f32 f53c fc7b 1b41
000003f0: f361 ae3f 7313 97bf 53ba d03e 185b 303f
0.8233113 -0.57393235 -0.6317143 -1.2264311 0.3410474 1.0674657 1.0865189 0.10712464
-0.14217357 -0.11231253 0.11875262 0.19752626 0.035486843 -0.1141047 -0.19882493 0.107235864
0.056778934 -0.031803872 -0.1467744 -0.027335858 0.058304857 -0.15792099 -0.029853417 -0.04011011
0.09203329 0.058080044 2.1504915 0.27423447 -2.3868399 0.6376081 0.44756818 0.39045185
0.07181328 -0.17642413 0.04946666 -0.08729487 -0.12602888 -0.16819058 -0.19199768 -0.0012889386
-0.11836674 0.18367665 -0.17049956 0.028283287 0.13373089 0.06256769 -0.04333167 0.19467293
0.0053099873 0.13019323 0.17950876 -0.8422336 1.2310913 -0.4205854 1.5310096 -0.16092181
-0.39869708 0.008669711 0.028947974 -0.043306302 -0.020312024 0.19562128 -0.0690999 -0.12766397
-0.19043379 -0.03763168 -0.16966179 0.18728817 -0.13006163 -0.03082092 0.026906777 0.16237009
-0.09769354 -0.08336015 -0.030992556 -1.436446 -0.14939171 -0.16567458 2.2122865 -1.7437818
-1.251785 -1.2619352 0.10438919 0.07592242 0.11231122 0.19836257 -0.12951164 -0.055999734
-0.19655386 -0.037189674 0.11723047 -0.19717716 -0.18760715 -0.13485587 0.06921756 -0.15488032
0.09940908 0.1615585 -0.09201703 -0.12161851 -2.6481998 -2.7337527 0.2716328 1.0754364
2.0542665 -0.27655005 -0.20117739 -0.11957159 0.016146947 -0.073427536 0.017959286 -0.06286366
-0.10436485 -0.119829655 -0.051527884 0.0153240925 -0.010425544 -0.0034862997 0.056156185 0.16565107
0.07463596 -0.036608245 0.1637265 0.15746196 0.1825739 0.14385928 -0.20045589 -0.783861
0.15719646 -2.7166994 0.22777686 0.23616874 0.03780332 0.1311299 0.025429774 0.005293179
0.0883219 -0.06895254 -0.1302884 0.12336963 0.18809131 -0.081075266 0.17636657 0.14567001
0.1393324 0.045967486 -0.17383365 -0.15644549 -0.11576956 0.09443503 1.9571959 1.8994907
-0.2797188 -1.1905073 1.5329884 0.6029004 0.8166666 0.024240613 -0.081581526 -0.021397328
-0.054103304 -0.018474055 0.04270208 -0.17419003 0.082699016 0.1437261 -0.0068445685 0.15883294
0.11701565 0.039691307 -0.16650474 -0.06087339 0.03638885 -0.19168006 0.09399622 7.070698
-1.1389091 3.8409617 -1.5551678 0.95009553 0.90262866 0.72194743 0.08962586 0.03127482
0.13529372 -0.12691596 0.16029029 -0.044709373 -0.1190985 -0.032816242 -0.17195824 0.15227945
-0.19742723 0.17064022 0.08177962 0.16667059 0.1284517 0.14298241 0.14311695 0.043687582
2.5552187 -2.9068444 0.13901168 -0.032537777 -2.0865583 -0.23897742 -0.44892135 0.03244686
0.10813723 -0.01600051 -0.02106123 0.19342113 0.1810221 0.04281626 0.11371865 -0.076791644
-0.15241177 0.09794724 0.11476922 0.08927164 0.16075337 -0.051122118 0.005019355 0.0082780365
0.06768928 -0.43703237 -0.071419254 0.9917084 -0.2486672 -0.35359412 -0.6092012 -0.8622991
0.10730179 0.06532283 0.05003655 -0.19763434 -0.15061262 -0.18910162 -0.06761694 -0.08628147
0.19164895 0.16341214 0.105138116 0.1317005 -0.093200445 0.096145965 -0.08240409 -0.14771794
0.019248247 -0.16808589 0.029931156 9.71777 1.3623642 -1.180281 0.40767154 0.68889

model.0.bias f4 [128]
00000000: 0b3a 7b3f 1ea1 fc3e d652 0abf b74e b6bf
00000010: d6a3 e3bd 12dc 343e 898e 333f 2024 543f
00000020: 11f9 01bf 2adb 29bf 69dd 1c3f d434 4ebf
00000030: b155 4abf 89e5 123e dfb6 9b3f 6ffb e2be
00000040: a4c0 023e 7ba4 3f3f a947 85be 74ca 583e
00000050: daa6 29bf f7d6 aabf fc48 033f 8641 fa3e
00000060: 086e 6ebf 2ed6 d7bd 0f25 993e 6abd e5bd
00000070: 7306 70bf ca38 a0bd c84e 0e3d 080a 563f
00000080: 4a74 16bf 9ce4 17bf 1d8e 77be 8f54 a1bf
00000090: cce5 4d3f 831a c7bd 380d f93e 2843 ce3e
000000a0: 076b 1d3e 24a9 873c fac6 573f 7fcc 51be
000000b0: 60d2 d2be 8866 653e 3cec 423e 03d9 1e3f
000000c0: f45c f63c b2af 6b3f ade4 c8bd a628 72bf
000000d0: 4772 693d 8161 bd3e 1af8 6ebf 5f54 93bf
000000e0: 7152 cc3e 6230 29bf 486a fa3e 7f23 99bd
000000f0: c6e2 ff3e 73bd 12bf 173f e83f ef5e e63f
00000100: a252 0d3f e9d8 983e 2250 2d3e 5688 66bf
00000110: dc98 8c3e a2f4 9bbe 4b27 d43e 69aa a6bf
00000120: 859d 163e de86 1a3f 2875 ccbe 52db 1bbf
00000130: 33d3 2e3f c752 f4be 7463 1e3f f202 8fbe
00000140: dc29 cfbe 5230 53bd f709 8cbe 423a ddbf
00000150: 84fb b1be 0855 81be b066 023f 2485 c9be
00000160: fd01 87bf 0ba9 24bf 7c06 663f 444c 8e3e
00000170: e935 febf 2ea6 ac3e 3ce2 41bf ad2f b5bf
00000180: 6839 953e c54b c73d abf8 0abf b4e4 153f
00000190: aa76 32bf 2f85 34bf 21fc 4cbf b11e 05bf
000001a0: 37a0 c8be 3497 8d3e 7bb4 18be 4546 1bbd
000001b0: 131d 193f e486 0f3f 32ab 6a3f f987 ee3e
000001c0: 6592 e63e 0779 023f 16a1 b33f 7f70 333e
000001d0: d957 393f bab9 3e3f 31d0 173f f1c4 c3be
000001e0: b12a b7be ea4f 3fbf 3d85 403f 8ad1 153f
000001f0: 8572 a9be 117f 1b3f fe43 1d3f c6c0 ad3e
0.9813544 0.49341673 -0.5403265 -1.4242772 -0.111152336 0.17662075 0.70139366 0.8286762
-0.5077067 -0.6635004 0.61275345 -0.8054936 -0.79037005 0.14345373 1.2165183 -0.44332454
0.12768799 0.7486035 -0.26031235 0.2117098 -0.6627022 -1.3346852 0.5128324 0.48878115
-0.93136644 -0.105388984 0.29911086 -0.112177685 -0.9375984 -0.07823332 0.0347431 0.83609056
-0.58771193 -0.59333205 -0.24175306 -1.260393 0.8042877 -0.097218536 0.48642898 0.4028561
0.15372859 0.016560145 0.8428799 -0.20488165 -0.41176128 0.22402394 0.19035429 0.62049884
0.03007362 0.92064965 -0.098092414 -0.94593275 0.05699375 0.36988452 -0.9334732 -1.1510123
0.39906648 -0.6608945 0.4890921 -0.074774735 0.49977702 -0.57320327 1.8144253 1.7997721
0.5520421 0.2985299 0.169251 -0.9005178 0.27460372 -0.30460078 0.41436228 -1.3020755
0.14708526 0.6036204 -0.39933133 -0.6088153 0.68291014 -0.47719404 0.61870503 -0.27931935
-0.40461624 -0.051559754 -0.27351353 -1.7283404 -0.34762204 -0.25260186 0.5093794 -0.3935939
-1.0547482 -0.6432044 0.89853644 0.2779256 -1.9860202 0.33720535 -0.7573583 -1.4155174
0.2914536 0.09731249 -0.5428569 0.585521 -0.69712317 -0.7051572 -0.8007222 -0.51999956
-0.39184734 0.2765442 -0.14912598 -0.03790881 0.5980999 0.560652 0.91667473 0.46588114
0.45033565 0.50965923 1.4033535 0.17523383 0.7239967 0.74502146 0.5930205 -0.38236192
-0.35774758 -0.74731314 0.75203305 0.58522856 -0.33095184 0.6074076 0.6143187 0.33936137

model.2.weight f4 [128, 128]
00000000: 4c37 61be 0c6b 5d3f 0f2c 153e 476a 20bf
00000010: 7e5e 22bf 14ab eabc 5d7c 0b3f 99b1 3c3f
00000020: 1b1f 0cbf ed54 173f 517e 213f 98a2 94be
00000030: 8674 8dbe 56c5 6b3e f157 babf fa76 523d
00000040: e3dc 6bbf 822b 5ebe fd8e f23e 927e cbbf
00000050: dee8 9a3e 3d59 853f 8a4b 1dbf 5030 403e
00000060: b963 943f 10ca f33d ff8d 2abf 490e 203f
00000070: 0306 41bf 1af8 ba3e 40a4 323d 03bd 103f
00000080: 00d0 953f 8f2f 20bf 13ae 11bf 6e04 8a3e
00000090: 9b20 b4be c94e a83f cd63 98bf 138a 97bf
000000a0: caf0 e73e 8278 83be 83bb 3c3f 6159 2ebe
000000b0: fd0d 43bf aae5 9bbf 83bc 4d3e 8128 b83e
000000c0: eb1f 123f 4396 30be c813 48be 6711 28bf
000000d0: e0d3 bfbd 015c 403f f68f 753f 3363 0b3f
000000e0: 6e62 0b3f afcf 553f 3a10 953e 5a34 24bf
000000f0: 1e6f 31bf 3096 93bf 991b 00be 3db0 0cbe
00000100: ae06 1c3e 7de6 31bf 46fb 4bbf eaca 253f
00000110: d774 733f 3a3c 573f 5f05 2cbf e170 1e3e
00000120: 95c8 0fbf 20d5 86be 887c d83e 1f1a 873f
00000130: d54b 433e 9acb 883e c367 53be 1676 6bbf
00000140: efae 5c3f fc7c 9fbf 4bd6 003f b4d9 b9be
00000150: c462 873f ab0c 0b3c da5e 3bbd 2dac 7cbf
00000160: adb7 ecbd cd41 f33e df47 1cbf 811d 473e
00000170: 1692 503e 1f6f bfbe 3dbc 8e3e 902b 923e
00000180: 448a 223e 058a 4f3f 4027 e8be fbba 9c3d
00000190: a749 ddbe 3c10 3a3f 795b 14bf 5e1f 543f
000001a0: 8bb7 dc3f beec e93e 9b70 c93e f79f a93f
000001b0: 249a 4d3f ae20 253d bf7a b6bf 6040 08be
000001c0: ed93 d9be a90d ee3e 7ec9 81bf 785b c63e
000001d0: b671 83bf 99b5 593f 3e50 873e 8a63 4f3e
000001e0: ac86 383e 1710 483f e28e 623f a73e a4be
000001f0: e196 223f 1c8c 2c3d bd1e 79be 5fe7 39bf
00000200: 0432 0f3e c83f 60bf d088 68be 3d37 183e
00000210: 5608 0bbf b2db 023e afcb 053f 49af 273f
00000220: 02ff 7fbf 891e 6f3e 6be0 1f3f 3590 56bf
00000230: 8614 553f 0117 103f 8e6f 9b3e 5028 f4bd
00000240: ca6f 0bbf 0b19 733d d68e 7cbe c6c3 59be
00000250: 54b6 cdbe 94b8 ef3a 5733 ee3e a68c 953e
00000260: 1378 2e3f 714f 8abf 413f 2c3f 2153 d3be
00000270: 3652 3f3c c5d0 973f 90c0 893e dade ca3d
00000280: 3e20 4e3f 2e0b 2a3f 99af fabe 9a54 21bf
00000290: 1edc 5f3f 0603 073e 1805 9d3e 1c02 a5bc
000002a0: 2378 593e 4511 003f 1371 343f 0850 b3be
000002b0: 37ca 223e f73a 163e f803 ff3d 37b2 723e
000002c0: 5af6 dd3d cc83 92be 1786 883e 3b47 f53e
000002d0: 41d8 023e 87b3 a93f b0b3 523d aa5c a2bd
000002e0: 8cd9 2f3f fa29 4d3d a4d1 19be 3941 1abd
000002f0: bd8d c73e 6c41 5e3e ecc8 203f 4a8c 163f
00000300: 6a63 293e 43ac d23e 2a74 0ebf 8be9 cfbe
00000310: 0a26 1b3f b381 27bf 0c5c 26bf 73af f5be
00000320: 50b1 413f 4c38 ff3e b75e 6f3f 74e8 c23e
00000330: 136d a93d 20cc efbe abd6 323e 4af9 333f
00000340: 518d 0cbf f4d7 293f 9b9e 58bd 861c 7b3f
00000350: f941 55bd 68dd 473e c357 703e 2589 5ebe
00000360: a71e d43e 47bc 81be c118 883e a1c2 f3be
00000370: 635c 30bf 1ec1 32bf 9913 bbbe 73d9 01bf
00000380: a54f 12be 4148 fdbe 1297 5b3e 5377 7cbe
00000390: 3ccc 103f c679 23bc 4ccc 7b3e 3c44 b2be
000003a0: f2b6 4dbd eaca 99be 5b57 413e 59c6 56be
000003b0: 0bd8 3f3f 5d6e 17be cc48 3abe 5f0b 933d
000003c0: 7317 d4be 1802 4b3f c2c3 e1bd bb42 da3e
000003d0: a0fd b9bd 1769 543f 8d81 17bf a071 0bbf
000003e0: ad86 b8ba 723a c2bd 7e8d 19bf 8d3e d53d
000003f0: 8eda 373f 4e39 90bc 19cc 2a3f 463e af3e
-0.2199375 0.86491466 0.14567588 -0.62662166 -0.63425434 -0.02864603 0.5448664 0.7370849
-0.54734963 0.5911396 0.6308337 -0.290303 -0.27627963 0.23024496 -1.4558088 0.051382996
-0.9213392 -0.21696284 0.47374716 -1.5898001 0.3025579 1.0417858 -0.6144339 0.1876843
1.1592933 0.11903775 -0.6662292 0.625218 -0.753998 0.3651741 0.043613672 0.5653841
1.1704102 -0.6257257 -0.5690624 0.26956505 -0.35181126 1.3149043 -1.1905457 -1.1839012
0.45300895 -0.25677878 0.7372362 -0.17026283 -0.7619322 -1.2179463 0.20091443 0.35968402
0.5707995 -0.1724482 -0.19538796 -0.65651554 -0.09366584 0.75140387 0.9592279 0.5444824
0.54447067 0.83520025 0.29113942 -0.6414238 -0.69310176 -1.1530209 -0.12510528 -0.13739105
0.15236923 -0.6949232 -0.7968029 0.6476275 0.9510016 0.84076273 -0.67195696 0.15472747
-0.5616544 -0.26334476 0.4228251 1.0554847 0.19071896 0.26717836 -0.2064505 -0.9197706
0.8620443 -1.2460017 0.50326985 -0.36298907 1.0577016 0.008486907 -0.045744754 -0.9870022
-0.11558471 0.4751114 -0.61047167 0.19444849 0.20368227 -0.37389466 0.2787799 0.2854886
0.15873057 0.81069976 -0.45342445 0.07652851 -0.43220255 0.7268102 -0.57952076 0.8286036
1.7243513 0.45688432 0.39343724 1.3251942 0.80313325 0.04031437 -1.4256209 -0.13305807
-0.4249567 0.46494797 -1.0139616 0.3874166 -1.0269077 0.8504272 0.26428407 0.20252815
0.18020123 0.7814955 0.8849927 -0.3207905 0.6351147 0.042125806 -0.24328132 -0.7261867
0.13983923 -0.8759732 -0.2270844 0.14864822 -0.54309595 0.1277912 0.5226392 0.6550184
-0.99998486 0.23351492 0.6245181 -0.8381379 0.8323444 0.562851 0.30358547 -0.119217515
-0.5446745 0.059350055 -0.24663863 -0.21266088 -0.40178168 0.0018289261 0.46523544 0.2920887
0.6815197 -1.0805494 0.6728402 -0.4127436 0.011677315 1.1860586 0.26904726 0.09905787
0.8051795 0.6642331 -0.48962095 -0.63019717 0.8744525 0.13184747 0.3066795 -0.020142607
0.21237235 0.5002635 0.7048504 -0.35021996 0.15897451 0.14670931 0.12451929 0.23700796
0.108380035 -0.28616178 0.26664802 0.47905907 0.12777807 1.3257912 0.051440895 -0.079278305
0.68691325 0.05008886 -0.15021378 -0.037659857 0.38975325 0.21704644 0.6280658 0.58807814
0.1654183 0.4114705 -0.55646 -0.40607867 0.6060492 -0.6543228 -0.649842 -0.4798542
0.7566118 0.4984764 0.935039 0.38067973 0.082727574 -0.46835423 0.17464702 0.7030226
-0.5490313 0.66345143 -0.052885633 0.980904 -0.05206487 0.19518054 0.23470978 -0.21732004
0.41429636 -0.25338957 0.26581386 -0.47609428 -0.6889097 -0.69825923 -0.3653839 -0.50722426
-0.14288194 -0.49469188 0.21444348 -0.24654894 0.56561637 -0.0099777635 0.24589652 -0.34817684
-0.0502233 -0.30037624 0.1888098 -0.20974101 0.7493903 -0.14788194 -0.18191832 0.07179903
-0.4142414 0.7930007 -0.11023666 0.42629036 -0.09081578 0.82972854 -0.59182054 -0.54470253
-0.0014078222 -0.09483804 -0.59981525 0.10412321 0.71817863 -0.01760545 0.6671768 0.34227198

model.2.bias f4 [128]
00000000: e17f b2be 8b05 163f 75de 153e 23d2 b7be
00000010: efd0 6bbf cb72 e93e f7bf 123f ca63 e63e
00000020: 5608 823e f2a9 12be ac7c 743e 35f8 3a3f
00000030: ce78 7d3f e201 403e 83c9 223f 8cb4 e7bd
00000040: 091a 26bf a682 8dbe 7049 b3be 8764 463f
00000050: b2f0 bfbe 3f3a d3be 0aaf 743f 8c32 5fbe
00000060: 6271 2e3f 2aa0 6dbe 2252 75bf 9a9c 14bf
00000070: b447 173e 653d 99be d677 e63e f8ad 14bc
00000080: cef8 e8bd ddb7 773f fffc 4b3e 677f 603e
00000090: cacb c1be cda3 75bd de47 0dbf 487c 9fbe
000000a0: d75b 14be 614b 5f3f 0fa5 61bf a3c3 0cbe
000000b0: a59d 89be 865e d8bd 6b91 a6bc bfa2 6f3f
000000c0: f2c5 a53e 479d b83d a8d8 223e 73b8 0e3f
000000d0: 06d3 b5be 0b4f 9bbe 25db 113f 7299 5a3e
000000e0: 2d09 883e 1757 fd3e 84be 0a3f 5cac d03e
000000f0: 0707 6a3d 53e5 593f 6238 993d f5a7 b63e
00000100: d342 d53d e195 c8be b3b8 4a3e 4552 893e
00000110: e6fe b03e e4ac 23bf 29c6 443f c958 31bf
00000120: 972c 36be fe94 afbe c96e df3e 6eac b5bc
00000130: 2517 2a3e f42f 323f a2e0 82bd 0452 c13e
00000140: 363d 68be 0a31 e0be 0bcd 13bf 38ef e23d
00000150: d5df 09bf d3d2 5abf 6faf fc3c 0adc d6be
00000160: eb1b dabe ebff f4be ee5a f6be 4639 aa3c
00000170: 352b a3be cf2c 8abe 7dd8 33be c0ec 363e
00000180: 4715 593f 9eef 94be 63c1 ac3e 9d23 c4bc
00000190: 0f23 8fbd 6637 ea3e 60c5 923e b5cd 9a3e
000001a0: 2dd9 dd3d e5fd 03bf faec fb3d 3041 da3e
000001b0: 2f00 9dbe 1b51 8b3e e5b5 113f cb47 19bf
000001c0: 1c43 213e 1d9d 34bf ceef df3d 7d57 473e
000001d0: e3d3 22bf 06ca 7abe c97d 513e 3adf 88be
000001e0: 3437 b33e 37b8 fb3e bbab e63e 3015 8abe
000001f0: 99bf 6ebe 74c8 0ebf bd07 f0be 863f 643f
-0.3486319 0.5860221 0.14635642 -0.3590251 -0.9211568 0.45595393 0.57324165 0.44998008
0.25396985 -0.14322641 0.23875684 0.73034984 0.9901246 0.18750718 0.6358873 -0.113137335
-0.64883476 -0.2763874 -0.35016966 0.7749714 -0.37488323 -0.41255376 0.9557959 -0.21796626
0.6814176 -0.23205629 -0.9582845 -0.58051455 0.14773446 -0.29929653 0.45013303 -0.0090746805
-0.11375581 0.9676493 0.19920729 0.219236 -0.3785079 -0.059970666 -0.55187786 -0.31149507
-0.14488159 0.87224394 -0.88142484 -0.13746504 -0.26878086 -0.10564904 -0.020333013 0.93607706
0.32377583 0.09014373 0.1590296 0.557502 -0.3551256 -0.30333742 0.56975013 0.21347597
0.265695 0.49480507 0.54196954 0.407565 0.057135608 0.85115546 0.07481457 0.35675016
0.10413136 -0.3917685 0.1979702 0.2682058 0.34569472 -0.63935685 0.7686487 -0.692761
-0.17790447 -0.3429336 0.4363921 -0.022176947 0.16610391 0.6960442 -0.063905016 0.37757885
-0.226796 -0.43787414 -0.57734746 0.110807836 -0.53857166 -0.8547794 0.030845372 -0.4196475
-0.42599425 -0.478515 -0.4811625 0.020779263 -0.31868902 -0.2698731 -0.17563052 0.1786375
0.8479809 -0.29089063 0.33741292 -0.023942763 -0.06989109 0.4574539 0.2866621 0.30235067
0.108324386 -0.5155929 0.12301059 0.4262786 -0.30664203 0.27210316 0.56918174 -0.5987517
0.15748256 -0.70552236 0.10934411 0.19466968 -0.63604563 -0.24491128 0.2045814 -0.26732808
0.35003054 0.49163982 0.45052895 -0.2696929 -0.23315276 -0.5577462 -0.46880904 0.8915943

model.4.weight f4 [5, 128]
00000000: e16b e23f 82a4 bb41 8eaf 433f be8a 61c1
00000010: 1db5 92c1 694c 5741 f932 5241 4068 9541
00000020: 42cf dc40 ef4d 0540 658c 4841 b5ea 3141
00000030: c227 f640 c628 9b40 3730 f640 ca1c 33c1
00000040: cc64 abc1 8743 57c1 c5f6 8ac1 bd0d 6241
00000050: 8154 0fc1 d189 42c0 3940 9141 97fe b23f
00000060: 4ec1 5c41 2a01 2fc0 8285 90c1 58f7 84c1
00000070: 162e 06c1 0c02 9040 0e8a 4d41 47a9 91c1
00000080: 813f 1541 a869 9341 b9df 2f41 0b44 1641
00000090: bac4 f8bf 69cf d140 a9b1 8dc0 b4e8 63c1
000000a0: 585d 1e3f d84e 8d41 22e8 92c1 4ad0 55c1
000000b0: 7351 e4c0 b499 88bf 1cc8 b8bf d868 8d41
000000c0: fd51 48c1 cc6c ef3d df79 0b41 c510 8941
000000d0: d113 ccc0 8352 e2bf 6492 b041 28a1 3540
000000e0: 05d6 7240 1618 9d41 37c5 02c1 5b38 f340
000000f0: 983a fc40 bbda 9041 c13d 2441 4158 d140
00000100: c386 8041 c40c 14c1 d367 a140 f9d3 3f40
00000110: 9fb9 3941 21c0 89c1 4ead 36bf ba0b a7ba
00000120: 2b78 4fc0 5641 3fc1 f46b 99c0 0d35 8b3f
00000130: 5867 893f 6968 f0c0 f5d8 283f b08d 5f41
00000140: 0d1d 24bf 3d2f a3c1 a0f7 8ac0 4a48 7840
00000150: 308c 57c1 a089 62c0 3893 3241 1788 3dc1
00000160: cce2 8fc1 8c13 eec0 7097 a8c1 be5e 2741
00000170: ea91 25c1 85d5 fcc0 1ce7 0540 91cd 85bf
00000180: 5f47 963f 1d83 8bc1 7e08 8941 df07 4dc0
00000190: f703 8dc1 7b1f 3d40 674e 3140 3fea 9941
000001a0: 8586 55c0 b9e0 93c1 d0e6 84c0 d88d 3040
000001b0: d81f 3dc1 9ef8 8841 61c2 0541 05bd 1fc1
000001c0: 0a3a 983c 560f 8ac1 77d2 87c1 761f 7341
000001d0: 86a7 10c1 14ee e640 a2a7 2241 fc27 aec0
000001e0: 95f7 7d41 e9c3 9040 eece 8841 fe34 e5c0
000001f0: ad62 82c0 f3d8 84c1 f661 59c1 eb91 9241
00000200: bb03 7ac1 f7bb 8041 ffcf 1d40 eaab fec0
00000210: 4d2d 44c1 2910 3841 34da 0841 8762 34c1
00000220: cfa4 cf40 3036 52c1 cead 42c1 f0d7 de40
00000230: 8d51 3e3f eebc aa40 e238 4dbe 7431 2bc1
00000240: 3693 71c1 18ac 69c1 18b1 4fc1 a8a0 0941
00000250: 9e0b e9c0 0652 78c0 0555 4941 dff6 8040
00000260: 062e 0941 4ed8 4c40 aa36 43c1 672d 7cc1
00000270: 6b4b 6bc1 556c a640 193e 2941 5742 8240
00000280: 9007 ca40 e4e0 4541 e5e5 0a41 519e 42c1
00000290: ac7d d03f f708 dbc0 34e5 aac1 be06 8f40
000002a0: cd09 4a41 57b6 3841 5241 44c1 498a 78c1
000002b0: 9e50 cb40 57c9 10c0 db1c eb40 f0ee 4641
000002c0: 50e9 9ac1 51eb 1040 f6c2 3f41 bf3a 3841
000002d0: ef03 b2c0 d605 0ec0 7025 6b41 ace7 5840
000002e0: 0af8 2040 33b1 6a41 b57b 7541 6b0d a440
000002f0: 6516 1e40 46a4 4641 937d 5641 25f6 e240
00000300: 0e32 dbc0 5175 0cc1 6029 09c1 eb45 b240
00000310: 6961 2041 6d08 c1bf 8437 a041 3fab 80c1
00000320: 55a8 bcc0 c9a0 82c1 ce51 9e41 207f 36c1
00000330: 6e39 19c1 8585 6441 e784 fcbf 8a54 1f41
00000340: 272f a63f 27f1 f13f 53cf afc1 ba73 d240
00000350: c769 4cc1 75fa 80c0 d642 f740 40a8 0fc1
00000360: d38d 60c1 0b52 fcc0 63df f9c0 0ec6 1641
00000370: abf6 8341 adc6 9441 ea31 98c1 15ee 0a40
00000380: bb41 ab41 de6b 41c1 4c20 3c41 e23b 9e3f
00000390: 6fab 89c1 d323 f640 a1fb 3840 5696 6241
000003a0: 304c a33f 11a9 55c1 b6b6 4cbf bfba 9dc0
000003b0: 5002 30c1 9cc4 4941 5e3b 0f41 2d2d 1e40
000003c0: e4ed f0c0 2cf3 3ac1 fa5f d240 4cf1 3441
000003d0: ed17 7c41 aab2 5bc1 b498 4dc1 5393 bfc0
000003e0: a598 3841 fbdf 8a40 f902 7b41 f153 81c0
000003f0: 3dfe a8c0 3a69 6cc1 bafb 3c41 7edd 4341
1.7689172 23.455326 0.7643975 -14.096373 -18.338434 13.456155 13.1374445 18.675903
6.9003 2.0828817 12.534276 11.1198015 7.6923532 4.848727 7.6933856 -11.194529
-21.424217 -13.453986 -17.370493 14.128354 -8.958131 -3.0396616 18.156359 1.3983945
13.797194 -2.734446 -18.06519 -16.620773 -8.386251 4.50025 12.846205 -18.207655
9.328004 18.42659 10.99212 9.391612 -1.9435036 6.5565686 -4.427937 -14.244312
0.6186118 17.663498 -18.363346 -13.363352 -7.1349425 -1.0671906 -1.4436069 17.676193
-12.520017 0.11690673 8.717254 17.133188 -6.377419 -1.768143 22.07148 2.8379612
3.7943127 19.63676 -8.173148 7.6006293 7.8821526 18.106802 10.265077 6.542023
16.065802 -9.253117 5.043924 2.9973128 11.607818 -17.218813 -0.7135819 -0.0012744584
-3.2417095 -11.953451 -4.794428 1.0875565 1.0734663 -7.5127454 0.6595605 13.972092
-0.6410683 -20.398066 -4.3427277 3.8794122 -13.471725 -3.53965 11.160942 -11.845725
-17.98574 -7.439886 -21.073944 10.46063 -10.348124 -7.9010644 2.0922308 -1.0453359
1.1740531 -17.43902 17.129147 -3.2036054 -17.626936 2.9550464 2.7704103 19.239378
-3.3363354 -18.484728 -4.1531754 2.7586575 -11.820274 17.121395 8.359956 -9.983647
0.018582363 -17.257488 -16.977766 15.195181 -9.040899 7.2165623 10.165926 -5.442381
15.872945 4.523915 17.10104 -7.162719 -4.0745454 -16.605932 -13.586416 18.321249
-15.625911 16.09178 2.46582 -7.9584856 -12.26106 11.503945 8.553272 -11.274055
6.488868 -13.138229 -12.167433 6.9638596 0.74343187 5.3355627 -0.2004123 -10.6995735
-15.09844 -14.604515 -12.980736 8.601723 -7.282668 -3.8800063 12.583257 4.0301356
8.573736 3.2007022 -12.200846 -15.761085 -14.705913 5.200724 10.577661 4.070598
6.313423 12.367405 8.681127 -12.163651 1.6288352 -6.8448443 -21.361916 4.469573
12.627393 11.544517 -12.265947 -15.533761 6.353591 -2.2622888 7.3472724 12.433334
-19.363922 2.2643626 11.985098 11.514342 -5.56298 -2.2191062 14.69664 3.3891401
2.515139 14.668262 15.342702 5.126638 2.4701169 12.415106 13.405658 7.092547
-6.84986 -8.778642 -8.572601 5.571035 10.023782 -1.5080696 20.027107 -16.083616
-5.8955483 -16.328508 19.789944 -11.406036 -9.576521 14.282598 -1.9728059 9.958139
1.298314 1.8901719 -21.976233 6.576627 -12.775825 -4.0305734 7.7269087 -8.978577
-14.034625 -7.885015 -7.808519 9.423353 16.495443 18.59701 -19.024372 2.1707814
21.407095 -12.088835 11.757885 1.2362025 -17.208708 7.691873 2.8903582 14.161703
1.2757626 -13.353776 -0.79966295 -4.929046 -11.000565 12.6105 8.951994 2.4715073
-7.5290394 -11.684368 6.574216 11.30891 15.755841 -13.731119 -12.849781 -5.986734
11.537267 4.3398414 15.688226 -4.0414968 -5.281035 -14.77569 11.811457 12.241575

model.4.bias f4 [5]
00000000: 01a8 aa41 91ed 6f41 5b55 6a41 dddd 5141
00000010: 9eb3 a442
21.332033 14.9955 14.645839 13.116666 82.350815
