results/palindrome/ql_9.pt (torch, 84325 bytes, 6 tensors)

model.0.weight f4 [128, 25]
0	0x3d0655fa	0.032796837
1	0x3f48501f	0.78247255
2	0x3f210a0f	0.62905973
3	0xbef14a85	-0.47127166
4	0xc0978260	-4.734665
5	0xbee62b9c	-0.44955146
6	0xbefa44a2	-0.48880488
7	0x3c9e539a	0.019326974
8	0x3da44c5d	0.08022378
9	0xbd7a9080	-0.061172962
10	0xbe279cd2	-0.16368416
11	0x3e453210	0.19257379
12	0x3c89249a	0.016741086
13	0x3d8bb7c3	0.06822159
14	0xbdf6ae97	-0.12045019
15	0xbcea8100	-0.028625965
16	0xbb9d029a	-0.00479157
17	0xbd53020d	-0.051515628
18	0xbd09e7fa	-0.033668496
19	0xbdccdadd	-0.10002682
20	0x3e0b64cb	0.13612668
21	0x3e2857b0	0.164397
22	0x3e15043d	0.14552398
23	0x3e1af3f3	0.15132122
24	0x3e1c7425	0.1527868
25	0xbe37fd8e	-0.17967817
26	0xbdd7ab9e	-0.1053078
27	0x3fc0e506	1.5069892
28	0x3d94c338	0.072637975
29	0x3f940b76	1.1565998
30	0xbe92f90e	-0.2870564
31	0xbe5f22ee	-0.21790668
32	0x3e31d130	0.17364955
33	0xbe1eb217	-0.15497623
34	0xbd9af00d	-0.07565317
35	0xbe116a7d	-0.14200778
36	0x3db9a7bd	0.09065197
37	0xbce499da	-0.027905393
38	0xbd6d202d	-0.057892013
39	0xbbbd31cd	-0.005773759
40	0xbd2da6fa	-0.04239557
41	0xbde925e3	-0.113841794
42	0xbdb41a3d	-0.08794067
43	0x3da8c22d	0.08240161
44	0x3b23a733	0.0024971485
45	0x3e3f308f	0.18670867
46	0xbe2d8a5a	-0.16947308
47	0x3de386fa	0.11109729
48	0xbe2a32d5	-0.16620953
49	0x3e071aa0	0.1319375
50	0x403cac3f	2.948013
51	0x4050ce75	3.2626011
52	0xbec2e2b3	-0.38063583
53	0xbefc53c4	-0.49282658
54	0x3faf66aa	1.3703206
55	0xbf438c6a	-0.7638613
56	0xbf79b86e	-0.9754704
57	0xbd920ebd	-0.07131717
58	0xbd151f8d	-0.036407042
59	0x3e07c068	0.13256991
60	0x3d25811a	0.040406324
61	0xbe47309b	-0.19452135
62	0xbe2d8b8f	-0.16947769
63	0x3bc58e67	0.0060289386
64	0xbc0a3c33	-0.008437204
65	0xbe351b78	-0.1768626
66	0xbc7c589a	-0.015401984
67	0xbe10f76f	-0.14156888
68	0xbdf78670	-0.12086189
69	0x3dc920b7	0.09820693
70	0x3e3cb2e2	0.18427613
71	0xbcfea027	-0.031082226
72	0xbe4ac505	-0.1980172
73	0x3a623e67	0.00086305145
74	0xbd9f8880	-0.07789707
75	0xc14c60fa	-12.773676
76	0xbecad589	-0.3961604
77	0xbf39410e	-0.7236489
78	0x3f96af72	1.1772292
79	0xc03592e0	-2.8370895
80	0xbe4edb93	-0.20200948
81	0xbead8fe2	-0.33898836
82	0xbdb23eb3	-0.08703365
83	0xbd04d000	-0.032424927
84	0x3e286d28	0.1644789
85	0x3dc95acd	0.09831772
86	0x3cab1600	0.020884514
87	0x3d9a4607	0.07532888
88	0x3e1fa1f8	0.1558913
89	0x3e1544c3	0.14577012
90	0xbe383ce7	-0.17991982
91	0xbd18d5a7	-0.03731313
92	0xbdfeebed	-0.12447343
93	0x3d69e5c7	0.0571039
94	0x3df0893a	0.11744924
95	0xbd14179a	-0.03615532
96	0x3e2501d2	0.16113976
97	0xbd2e97cd	-0.042625237
98	0xbd6e2b2d	-0.058146644
99	0xbe2b8277	-0.16748987
100	0xbee32479	-0.44363764
101	0xc08cec5d	-4.403853
102	0x3fbca604	1.4738164
103	0xbfec0213	-1.8438133
104	0x3f687ea5	0.90818244
105	0x3df510af	0.11966073
106	0x3e73f52e	0.23823997
107	0x3d86fdb0	0.06591356
108	0x3e1a0a0f	0.150429
109	0xbe4521d7	-0.1925119
110	0x3c6837b3	0.014173436
111	0x3e2da8a7	0.16958867
112	0xbe150d83	-0.14555936
113	0xbe029d30	-0.12755275
114	0xbd5a9d73	-0.05337281
115	0xbe4a2127	-0.19739209
116	0xbe1e3215	-0.15448792
117	0x3df58c10	0.119896054
118	0xbdd03a87	-0.10167413
119	0xbd160c67	-0.03663292
120	0xbe1ec635	-0.15505297
121	0xbce1ad4d	-0.027548457
122	0xbdbd6193	-0.092471264
123	0xbc0ab5e7	-0.00846622
124	0xbe4619bb	-0.19345753
125	0xc018f201	-2.3897707
126	0xbed9719a	-0.42469484
127	0x3ff5cfc8	1.9204035
128	0xbfc1f8a9	-1.515401
129	0xbe247b1e	-0.1606259
130	0xbd9c1481	-0.07621098
131	0xbc36b4a9	-0.011151471
132	0xbe2c42b3	-0.16822319
133	0x3e1cd5d8	0.1531595
134	0xbe33154f	-0.17488597
135	0xbe310825	-0.17288263
136	0x3e336b72	0.17521456
137	0x3df0e96a	0.1176327
138	0x3dbb906d	0.091584064
139	0xbe2d82f7	-0.1694449
140	0x3d9939da	0.074817374
141	0xbe22e0a3	-0.15906005
142	0x3b9ad200	0.004724741
143	0xbd83c83d	-0.06434677
144	0xbe1d76a7	-0.15377294
145	0x3e4539b7	0.19260298
146	0xbe414f43	-0.18877892
147	0x3e10c313	0.14136915
148	0xbcd556a7	-0.026042296
149	0x3c632e4d	0.013866019
150	0xbec15c34	-0.37765658
151	0x3ee09d43	0.4386998
152	0xbf4939c3	-0.7860376
153	0x3da7f817	0.08201616
154	0xc0743639	-3.8158095
155	0x3ea7f66c	0.32805192
156	0x3f01e8b5	0.5074571
157	0xbdf85ed0	-0.12127459
158	0x3c8c93c0	0.017160296
159	0xbe3d2ada	-0.18473378
160	0xbe2f09b0	-0.17093539
161	0x3b95389a	0.0045538666
162	0xbdc48d00	-0.09597206
163	0x3dccd9e7	0.10002499
164	0xbdcd8297	-0.10034674
165	0x3e278b47	0.16361724
166	0x3d7ba547	0.061436918
167	0xbcf0acda	-0.029379297
168	0xbd9f503d	-0.07778976
169	0xbd0839c0	-0.0332582
170	0x3de442fa	0.11145587
171	0xbe431900	-0.19052505
172	0x3d34aad3	0.044108223
173	0x3d9d1cea	0.076715305
174	0xbe05a2ff	-0.1305046
175	0x3f68b710	0.9090433
176	0x3e1c87ed	0.15286227
177	0x3de5bcf1	0.11217678
178	0xbff893e1	-1.9420129
179	0xc002dd76	-2.044767
180	0x3f86251b	1.0480074
181	0x3f9bba6f	1.216627
182	0xbdb31497	-0.087441616
183	0xbe1f0e88	-0.15532887
184	0xbe3a32fb	-0.1818351
185	0x3e3a524a	0.18195453
186	0x3e1db42a	0.15400758
187	0xbd813017	-0.063080005
188	0x3c87a0c0	0.016556144
189	0xbd382f93	-0.044967245
190	0xbe0a5c92	-0.13511875
191	0xbe3b9e0f	-0.18322013
192	0xbe14208a	-0.14465538
193	0x3d4bc8b3	0.04975195
194	0xbda98cb0	-0.08278787
195	0x3da14f8d	0.07876501
196	0xbd60ef6d	-0.054915834
197	0x3dda752d	0.10666881
198	0x3df48927	0.11940222
199	0xbd87cc10	-0.06630719
200	0xbe3b0670	-0.18264174
201	0xbfa533b0	-1.2906399
202	0xbe89dc6b	-0.26925978
203	0xbe91b322	-0.2845698
204	0xc026d16b	-2.6065319
205	0xbfd59f7b	-1.6689295
206	0xbfe462a3	-1.7842602
207	0xbe2288bd	-0.15872474
208	0x3e29840a	0.16554275
209	0x3d4bad07	0.04972556
210	0xbe4bdf63	-0.19909434
211	0xbde4c6c0	-0.11170721
212	0xbe28e69f	-0.16494225
213	0x3de346a3	0.11097457
214	0x3d61b140	0.05510068
215	0xbce04427	-0.027376248
216	0x3daa1f30	0.0830673
217	0x3db604dd	0.08887646
218	0x3e3ca578	0.18422496
219	0xbb844667	-0.004036713
220	0x3e389ba7	0.18028127
221	0xbd4e3540	-0.050343752
222	0xbe378b6a	-0.17924276
223	0xbe039cfb	-0.12852852
224	0xbda88d5a	-0.08230086
225	0x3f56e88b	0.8394858
226	0x3e5be19a	0.21472779
227	0x3fe2e32c	1.7725577
228	0xbebc29ea	-0.36750728
229	0xbf571ef2	-0.84031594
230	0xbef3f838	-0.47650313
231	0xbf0eda13	-0.55801505
232	0x3c9c428d	0.019074703
233	0x3d9d115a	0.07669325
234	0xbc817140	-0.015801072
235	0x3cc9b927	0.02462442
236	0xbdba5200	-0.090976715
237	0xbe4577ab	-0.19283931
238	0x3dd0bbda	0.1019208
239	0xbe2e1ec5	-0.17003925
240	0x3e3eb69a	0.18624344
241	0xbe4626b8	-0.19350708
242	0x3dc98340	0.09839487
243	0xbd3a71d3	-0.045518707
244	0x3de4f8ba	0.11180253
245	0x3d9248e0	0.07142806
246	0x3e0470e3	0.12933688
247	0x3e07c8d0	0.13260198
248	0xbd8e4117	-0.06946009
249	0x3c8d16a7	0.017222716
250	0x402ac40b	2.6682155
251	0x3f8b74e6	1.089505
252	0x3f825591	1.0182363
253	0xbf9cdee2	-1.2255518
254	0x4040a910	3.0103188
255	0xbdfa3d85	-0.12218765

model.0.bias f4 [128]
0	0xbf07bd46	-0.53023183
1	0xbefdac7a	-0.49545652
2	0xbf3673d2	-0.7127048
3	0xbec104e5	-0.37699047
4	0x3deb4793	0.11488261
5	0xbe614849	-0.22000231
6	0x3e74f215	0.23920472
7	0x3fa795df	1.3092612
8	0xbfe3c409	-1.77942
9	0xbee2be42	-0.4428578
10	0xbe59c874	-0.21267873
11	0xbe4af872	-0.19821337
12	0xbf439169	-0.76393753
13	0xbf22144b	-0.63312215
14	0xbe74b2de	-0.23896357
15	0x3df3aff6	0.11898796
16	0xbef7064e	-0.48246998
17	0x3fc1a637	1.512885
18	0xbf15728e	-0.5837792
19	0x3ee0781e	0.43841642
20	0x3e278f60	0.16363287
21	0xbeba11c2	-0.36341673
22	0xbe0c7ed4	-0.13720256
23	0x3eb8fc4b	0.36129984
24	0xbf22b4eb	-0.6355731
25	0xbf148a31	-0.58023363
26	0xbf890e54	-1.0707498
27	0xbeeddb59	-0.4645641
28	0x3c8bbc1e	0.017057475
29	0xbf2c769a	-0.6736847
30	0xbe47a8db	-0.19498007
31	0x3df9963b	0.12186857
32	0xbf1605b2	-0.5860244
33	0xbe4ce832	-0.2001045
34	0xbeb03c18	-0.34420848
35	0xbf5dc53f	-0.866291
36	0x3e872b58	0.26400256
37	0xbf10d44f	-0.5657396
38	0x3f3b2eaa	0.7311808
39	0x3d20f7b1	0.039298717
40	0xbe684356	-0.22681937
41	0x3c8eea8f	0.01744583
42	0x3f4ec460	0.80768394
43	0x3eea2ace	0.45735782
44	0xbefe50c1	-0.49670985
45	0xbefaea4f	-0.49006888
46	0x3e20cd18	0.15703237
47	0xbed2cc4a	-0.41171485
48	0xbf8da4d2	-1.1065924
49	0xbeadb5cc	-0.33927763
50	0x3f38f031	0.72241503
51	0xbf58b62d	-0.8465298
52	0x3ead3a59	0.33833578
53	0x3df10fc8	0.11770588
54	0xbe9db369	-0.30800942
55	0x3f39a7d5	0.72521716
56	0xbeea4b27	-0.45760462
57	0xbf3149da	-0.69253314
58	0x3e929896	0.2863204
59	0x3ead971f	0.3390436
60	0x3f67473b	0.90343064
61	0x3f6c2666	0.9224609
62	0x3f86c10e	1.0527666
63	0x3eb84ecc	0.35997617
64	0xbe2549be	-0.16141412
65	0xbf04d75a	-0.518911
66	0x3e98208b	0.29712328
67	0xbf1942f6	-0.598678
68	0xbf81124c	-1.0083709
69	0x3f5a6600	0.8531189
70	0xbf890196	-1.0703609
71	0xbf1d38cd	-0.61414796
72	0x3f079e23	0.5297567
73	0x3f08d0f7	0.53443855
74	0xbf36bb5b	-0.7137963
75	0x3f7f45a5	0.99715644
76	0x3e2fa060	0.17151022
77	0xbf078bc2	-0.5294763
78	0x3f283824	0.65710664
79	0x3e3e2f45	0.1857272
80	0x3f03b64e	0.5145005
81	0x3e1e3a6b	0.15451972
82	0x3f8f7eba	1.1210549
83	0x3f541903	0.82850665
84	0xbe54abcd	-0.20768662
85	0x3f639a77	0.8890757
86	0xbf9bb514	-1.2164636
87	0xbf80ac2f	-1.0052546
88	0x3d00b44a	0.031421937
89	0xbf491481	-0.7854691
90	0x3e6b8eff	0.23003767
91	0xbf36b1ad	-0.7136486
92	0x3f30d186	0.6906971
93	0xbe97c132	-0.29639584
94	0xbeb0c751	-0.34527066
95	0xbea2f228	-0.31825376
96	0x3ee0ca4d	0.43904343
97	0x3e906126	0.28199118
98	0x403c275d	2.9399025
99	0xbef636ec	-0.48088777
100	0x3e70133d	0.23444839
101	0xbf2e2c1e	-0.6803607
102	0xbf4b20f2	-0.79347146
103	0x3f8f30de	1.1186788
104	0x3f2f4a79	0.6847301
105	0x3e7706ca	0.24123684
106	0x3f2cdeca	0.6752745
107	0x3c8977e7	0.016780807
108	0xbf3a71f8	-0.7283015
109	0x3f466b78	0.77507734
110	0xbf2156c8	-0.6302304
111	0xbf50f1b4	-0.8161881
112	0xbeab136b	-0.33413252
113	0x40101db8	2.251814
114	0xbeb56361	-0.35427383
115	0xbe33499d	-0.1750855
116	0xbcade703	-0.021228319
117	0x3f69f206	0.91384923
118	0x3f04b6bc	0.5184133
119	0x3e20c1d1	0.15698935
120	0xbeb0c70c	-0.3452686
121	0xbf35cc2e	-0.7101468
122	0xbf636edb	-0.8884103
123	0xbe9dc693	-0.30815563
124	0x3e5454dd	0.20735498
125	0xbf146a56	-0.57974756
126	0xbf4b56a2	-0.79429066
127	0xbf4e0ab0	-0.8048506

model.2.weight f4 [128, 128]
0	0xbd036612	-0.032079764
1	0x3e1f1977	0.15537058
2	0x40379dc2	2.8690038
3	0xbf97c380	-1.1856537
4	0x3f2169f1	0.6305228
5	0x3f1e3d19	0.6181198
6	0xbc72a0fb	-0.014808889
7	0x3f5ce258	0.86282873
8	0x3ee76ed2	0.45201737
9	0xbf831e8a	-1.0243695
10	0xbfdb1988	-1.7117167
11	0xbef2ca0b	-0.47419772
12	0xbdafdd0b	-0.085870825
13	0x4025ec65	2.5925534
14	0x3fdacbce	1.7093446
15	0x3ec45e52	0.3835321
16	0xbe9e50a8	-0.3092091
17	0xc08f82d8	-4.484722
18	0xbed22479	-0.4104345
19	0xbf7720a3	-0.96534175
20	0xbefff2b3	-0.49989852
21	0x3f7e5620	0.99350166
22	0xbd18b7f1	-0.037284795
23	0xbf9adeac	-1.2099204
24	0xbda3d059	-0.079987235
25	0xbefce4c2	-0.49393278
26	0x4021ea4c	2.5299253
27	0x3e49bea1	0.19701625
28	0x4008bd54	2.1365557
29	0x3f131604	0.5745547
30	0xbcc8a5e0	-0.024493158
31	0x3f1a2ddd	0.6022623
32	0xbf8a6225	-1.0811201
33	0xbf06c1a7	-0.5263924
34	0xbeae5e6f	-0.34056422
35	0x3fe4175d	1.781963
36	0xbef391dc	-0.4757222
37	0x3f1e036c	0.6172397
38	0xbfb5b98c	-1.419725
39	0x3deb32fa	0.114843324
40	0xbef86c27	-0.48520014
41	0x3eb2cde4	0.34922707
42	0xbf9ac87f	-1.2092437
43	0xbeb57d41	-0.35447124
44	0xbd8147ba	-0.06312509
45	0xbf922a77	-1.1419209
46	0xbf59b46a	-0.85040915
47	0xbf81a737	-1.0129155
48	0x3f89927d	1.074783
49	0xbfc68658	-1.5509748
50	0x3d8a72d2	0.067601815
51	0x3f90284f	1.1262301
52	0xbeeb8ac4	-0.46004307
53	0xbfd25f63	-1.643536
54	0x3f204ece	0.62620246
55	0xc00af482	-2.1711736
56	0xbec8d6c4	-0.39226353
57	0x3f45028d	0.7695702
58	0xbecec614	-0.40385497
59	0xbc159846	-0.009130543
60	0xbffc1107	-1.9692696
61	0xbf66420a	-0.8994452
62	0x3f322690	0.6959009
63	0x3ef75a06	0.4831087
64	0x3f22543d	0.6340979
65	0x3f814f31	1.0102292
66	0xbec3d7b3	-0.38250503
67	0x3ef314eb	0.47476897
68	0xbf23ac78	-0.6393504
69	0x3f89787b	1.0739893
70	0x3fea8590	1.832201
71	0x3f5da42f	0.8657865
72	0xbe7adaa5	-0.24497469
73	0xbf8821c6	-1.0635307
74	0x3fe9fe30	1.8280697
75	0xc00ff2ba	-2.2491899
76	0x3f918c83	1.1371006
77	0x3f1c197f	0.60976404
78	0x3e93881f	0.2881479
79	0xbe3352a9	-0.17512001
80	0xbfe0088f	-1.7502612
81	0xbf77af29	-0.9675165
82	0x3f7f87f0	0.998168
83	0xbfad1e16	-1.3524806
84	0x3efdc7cf	0.49566504
85	0xbfde99c5	-1.7390677
86	0xbf300428	-0.6875634
87	0x3fd0e39f	1.6319464
88	0x3f683e0c	0.90719676
89	0xbf186e11	-0.5954295
90	0x3f16ab58	0.588552
91	0x3cb9a659	0.022662329
92	0xbfef0d0f	-1.867586
93	0x400e2c29	2.2214453
94	0x3d9cd3ef	0.076576106
95	0x3dfee80f	0.124466054
96	0x3eca78b8	0.39545226
97	0xbf8700db	-1.0547136
98	0xbf002c10	-0.50067234
99	0xbe8dd150	-0.27698755
100	0x3fcbef53	1.5932411
101	0xbf680e8f	-0.90647215
102	0x3f0c4fbe	0.54809177
103	0xc00aa0bb	-2.1660602
104	0x3ef9c884	0.48785794
105	0xbf241a26	-0.641024
106	0xbf318f8b	-0.69359654
107	0xbec0e08a	-0.3767131
108	0x3f42a3e2	0.76031315
109	0xbffc5064	-1.9712033
110	0x3f21f266	0.63260496
111	0xbea5f845	-0.32415977
112	0x3ebc39d0	0.36762857
113	0xc01118e0	-2.2671432
114	0xbd818e53	-0.06325974
115	0x3f5f4cd6	0.8722662
116	0x3edb19f4	0.42793238
117	0x3f609ee3	0.8774244
118	0x3dbcc8f2	0.09218015
119	0xbf2786df	-0.6544017
120	0xbed9ad1a	-0.4251488
121	0x3f59c663	0.8506834
122	0x3eee9c6b	0.46603712
123	0x3ea4f8ec	0.32221162
124	0x3d1beeac	0.038069412
125	0x3f39d831	0.72595507
126	0xbeaf9440	-0.34292793
127	0x3f0c823f	0.5488624
128	0x3fb495ab	1.4108175
129	0x3d6286ad	0.055304218
130	0xbe119ed8	-0.1422075
131	0x3fa8285f	1.313732
132	0xbeb27be9	-0.3486016
133	0x3ce068c4	0.027393706
134	0x3f26e564	0.6519377
135	0x3d6bb92f	0.05754965
136	0xbe99021d	-0.29884425
137	0x3fc6d7ec	1.5534644
138	0x3edfb7cc	0.43694913
139	0xbf93b8da	-1.1540787
140	0xbdd455dd	-0.103679396
141	0xbf6cd196	-0.925073
142	0x3ecb6609	0.39726284
143	0xbe9699a5	-0.29414096
144	0x3ec111c5	0.3770887
145	0xbeb58c65	-0.35458675
146	0x3ec74fb2	0.3892799
147	0x3f63a2aa	0.8892008
148	0xbd521f3d	-0.051299322
149	0xbf9eef31	-1.2416745
150	0x3e82b76f	0.25530574
151	0xbf5063ed	-0.81402475
152	0x3f6effb1	0.93358904
153	0x3f41f213	0.7576
154	0xbfe3a2a9	-1.7784015
155	0xbf51a7a9	-0.81896454
156	0xbe130028	-0.14355528
157	0x3de6627b	0.112492524
158	0x3ca6bf7d	0.02035498
159	0x3f57f7b3	0.84362334
160	0x3e7ee7dd	0.24893136
161	0xbf2ac990	-0.6671381
162	0x3e7f5a32	0.2493675
163	0x3f9759c9	1.1824275
164	0x3d5f3cac	0.05450122
165	0x3e41bac6	0.18918905
166	0x3f2014ff	0.6253204
167	0xbfa36cf5	-1.2767626
168	0x3e098db4	0.13432962
169	0xbf9aa5c1	-1.2081834
170	0xbf3b2fcd	-0.73119813
171	0xbf82c989	-1.0217754
172	0xbf7be0d4	-0.98389935
173	0x3f94d894	1.1628594
174	0x3faf106d	1.3676888
175	0x3fc90734	1.5705323
176	0x3f495022	0.786379
177	0xbc2658ae	-0.010152979
178	0xbefdd7f2	-0.49578816
179	0x3f6e2d2a	0.93037665
180	0x3f559d9b	0.8344361
181	0xbfca364e	-1.5797822
182	0xbea4ed0e	-0.32212108
183	0xbecbb502	-0.39786536
184	0x3f3baa1b	0.73306435
185	0x3fc1b0db	1.5132097
186	0xbe7d70a0	-0.24749994
187	0xbe59444b	-0.21217458
188	0x3fd4f225	1.6636397
189	0x3f53a8a3	0.82679194
190	0xbf58f19b	-0.8474366
191	0x3ca04195	0.019562522
192	0x3eda219d	0.4260377
193	0x3ed2e7e0	0.41192532
194	0xbf4e8bca	-0.8068205
195	0x3f073a40	0.5282326
196	0x3f41b9b9	0.75674015
197	0xbe3c6318	-0.18397176
198	0xbfed2839	-1.85279
199	0x3e26d35f	0.16291569
200	0xbeaa9c9b	-0.33322605
201	0x3fb31acd	1.3992554
202	0x3f9ebcd6	1.2401378
203	0xbefc03a7	-0.49221537
204	0x3f843eac	1.0331626
205	0xbc7983b4	-0.015229154
206	0x3d99aeec	0.07504067
207	0xbcd099e6	-0.02546401
208	0xbf95e125	-1.1709334
209	0x3f805b0a	1.0027783
210	0xbeae49e9	-0.34040764
211	0xbf6cad73	-0.9245216
212	0x3f843521	1.0328714
213	0x3fbc3b1e	1.4705541
214	0x3f15d503	0.58528155
215	0x3edde360	0.43337536
216	0x3ee9a8d3	0.45636615
217	0x3c8605f9	0.01636027
218	0xbecab943	-0.39594468
219	0x3ee6f4b0	0.45108557
220	0x3f01abfb	0.50653046
221	0xbe2ec6d1	-0.1706803
222	0xbfa3bcaa	-1.2791951
223	0x3cdc3931	0.02688274
224	0xbecfbb81	-0.40572742
225	0x3ffb4f3a	1.9633553
226	0x3e8e3bb7	0.27779934
227	0x3f8012ed	1.0005776
228	0xbe76e311	-0.24110056
229	0x3fa238f1	1.2673627
230	0xbf1c7ebd	-0.6113089
231	0x3dca3234	0.09872857
232	0xbf52847d	-0.8223341
233	0xbf454df9	-0.770721
234	0xbfbe92f4	-1.4888597
235	0xbd4f9b68	-0.050685316
236	0x3f04582d	0.51697046
237	0xbf69c754	-0.91319776
238	0x3da97ec4	0.08276132
239	0x3dd7a373	0.10529222
240	0x3f357ec8	0.7089658
241	0x3dbebb43	0.09313061
242	0xbebb9d37	-0.36643383
243	0xbf92bd9a	-1.1464112
244	0x3e74ebde	0.23918101
245	0xbf80deb8	-1.0067968
246	0x3e6aee97	0.22942577
247	0x3f016f0a	0.5056006
248	0xbf32f932	-0.6991149
249	0xbf0189a0	-0.50600624
250	0x3eb73b0a	0.3578723
251	0xbe887446	-0.2665121
252	0xbf04d7f1	-0.51892
253	0xbf5dc6c9	-0.8663145
254	0x3f662c8e	0.89911735
255	0x3f8b9b6a	1.0906804

model.2.bias f4 [128]
0	0xbf0c1873	-0.54724807
1	0x3e8b7edc	0.27245224
2	0x3eb1fa87	0.3476145
3	0xbeb3e487	-0.3513529
4	0xbf23896e	-0.63881576
5	0xbedbb8ea	-0.42914516
6	0x3f81dc35	1.0145327
7	0xbda38561	-0.079844244
8	0x3e8c480f	0.27398726
9	0xbe2c2b21	-0.16813327
10	0x3de9b216	0.1141092
11	0xbe80fbf0	-0.25192213
12	0xbea23ea0	-0.31688404
13	0x3f312e08	0.69210863
14	0xbee876ff	-0.45403287
15	0x3d6a7c99	0.05724773
16	0xbe668bcd	-0.22514267
17	0x3e1624ed	0.14662524
18	0x3f22d139	0.636005
19	0xbeca3305	-0.3949205
20	0xbf06f63c	-0.52719474
21	0x3e1a3dd5	0.1506265
22	0x3f045f11	0.5170756
23	0x3eb87e7e	0.36034006
24	0x3f4408f1	0.76576144
25	0xbc927f35	-0.017882923
26	0x3f4f770c	0.81041026
27	0x3f771cee	0.9652852
28	0x3e8e6c58	0.27817035
29	0xbe4840e6	-0.19556007
30	0x3dc820bd	0.09771869
31	0x3eba75f8	0.36418128
32	0x3cd16541	0.025560977
33	0x3ea10752	0.31450897
34	0x3e41113d	0.18854232
35	0xbda7ff5f	-0.08203005
36	0x3f1a1fe2	0.602049
37	0x3e320193	0.17383413
38	0xbeb2a169	-0.3488877
39	0x3e03a3b9	0.12855424
40	0xbea331a7	-0.3187382
41	0xbe2b1f7f	-0.16711234
42	0xbf0e8e49	-0.5568586
43	0xbef495a4	-0.47770417
44	0xbed857a2	-0.4225436
45	0xbf0d0820	-0.5509052
46	0xbc9c5491	-0.019083293
47	0xbe468222	-0.19385579
48	0x3e47143c	0.19441313
49	0xbe971039	-0.29504564
50	0x3e57fb2a	0.21091905
51	0x3f61d711	0.8821879
52	0x3f8cb69d	1.0993229
53	0x3f2df219	0.67947537
54	0x3eea2a9e	0.4573564
55	0x3e386abe	0.18009469
56	0xbe902c02	-0.28158575
57	0xbea7b8da	-0.32758218
58	0xbe01d13f	-0.12677477
59	0xbeb2c4a6	-0.34915656
60	0x3e4368f5	0.19083007
61	0xbea76e82	-0.32701498
62	0xbf510d95	-0.8166135
63	0x3f162c90	0.58661747
64	0xbe560751	-0.20901228
65	0xbe2af5ce	-0.1669533
66	0xbedc6651	-0.4304681
67	0x3ef9fbf2	0.48825032
68	0x3e03f015	0.12884553
69	0x3e7bafd1	0.24578787
70	0x3e09296e	0.1339471
71	0x3f2793ae	0.65459716
72	0xbb64b0c2	-0.0034895395
73	0xbf1ad8d0	-0.6048708
74	0x3d8d93db	0.06912967
75	0xbe671201	-0.22565462
76	0xbf1a4e5d	-0.6027582
77	0x3ea48186	0.3213007
78	0x3e36007c	0.17773622
79	0x3e871e61	0.26390365
80	0xbeccb322	-0.39980417
81	0xbe82a24e	-0.25514454
82	0x3c507cce	0.012725068
83	0x3dd8d99a	0.10588379
84	0x3ea78128	0.32715726
85	0x3e8f64ee	0.2800669
86	0x3e0371b0	0.12836337
87	0x3ef546c0	0.4790554
88	0x3e8b2956	0.27179974
89	0x3ee7a840	0.45245552
90	0xbed80cad	-0.4219717
91	0xbe9041f2	-0.28175312
92	0x3f955989	1.1667949
93	0xbe819dfa	-0.2531584
94	0xbf83fa2b	-1.031072
95	0x3ee89a67	0.454303
96	0x3dc84801	0.09779359
97	0x3d70fa32	0.058832355
98	0xbe24a414	-0.16078216
99	0x3f013d36	0.50484025
100	0xbe8c32eb	-0.27382597
101	0x3bed3574	0.007239038
102	0x3ec60d54	0.38682044
103	0x3e90c9fd	0.28279105
104	0x3ed54503	0.41654214
105	0x3ee364c4	0.44412816
106	0xbed401f6	-0.41407746
107	0x3e617f99	0.22021331
108	0xbd3e8c1b	-0.046520334
109	0xbf5d4df5	-0.8644708
110	0x3f7da6af	0.99082464
111	0xbed1af22	-0.40953928
112	0xbf377c51	-0.71674067
113	0xbe79e7c0	-0.24404812
114	0xbdb49e06	-0.08819203
115	0x3df18393	0.11792674
116	0x3e89f155	0.26941934
117	0xbe064b88	-0.1311475
118	0x3eb2d62f	0.34929034
119	0x3ef598aa	0.47968036
120	0x3ea4f701	0.322197
121	0x3f35a770	0.70958614
122	0x3dbd7cc0	0.0925231
123	0x3ef48419	0.47757033
124	0x3e9d9715	0.3077933
125	0xbdff642b	-0.124702774
126	0xbf35ba2e	-0.7098721
127	0x3ee157d7	0.4401233

model.4.weight f4 [5, 128]
0	0xc19815e4	-19.010689
1	0x41236827	10.212928
2	0x409ca178	4.8947105
3	0xc1d2f3f6	-26.369122
4	0xc18e2d23	-17.77204
5	0x40e3ede4	7.1227894
6	0x41b1e9e4	22.239204
7	0x4100ba5e	8.0455
8	0x418e1d71	17.764376
9	0xc119ca38	-9.61187
10	0x4192c0a0	18.344055
11	0xc17afd11	-15.686784
12	0xc1b94dfe	-23.163082
13	0x41cbf58a	25.494892
14	0xc1a37c6d	-20.435755
15	0x4187b6ad	16.964197
16	0xc160c037	-14.046927
17	0x41ae0724	21.753487
18	0x41e23359	28.275072
19	0xc0e7009a	-7.2188234
20	0xc1e3ded6	-28.483807
21	0x419c21fb	19.516592
22	0x40d81ecc	6.7537594
23	0x3f1bbd62	0.6083585
24	0x419d5275	19.665262
25	0xbfe3c3d6	-1.7794139
26	0x41f2af02	30.335453
27	0x41a5ffb0	20.749847
28	0x4036043f	2.8440092
29	0x40829b98	4.0814934
30	0x3f78a91b	0.97133034
31	0x41dbee3d	27.491327
32	0x410ccc54	8.799885
33	0xc0a2c1e7	-5.0861697
34	0xc149c173	-12.609729
35	0x40b19b0c	5.5501766
36	0x410de938	8.869438
37	0xc188a1f7	-17.079084
38	0xc108eaee	-8.557356
39	0x41a280e9	20.312944
40	0xc1b40d55	-22.50651
41	0xc1ad4d86	-21.662853
42	0xc198a72d	-19.081629
43	0xc18ee82f	-17.86337
44	0xc0f5f727	-7.68642
45	0xc0ddb326	-6.9281187
46	0x40c0a6a1	6.0203404
47	0xc1911c66	-18.138866
48	0x408c8d9b	4.392286
49	0xc1a0ea0d	-20.114283
50	0x3d7412a5	0.059588093
51	0x41a1e12a	20.234943
52	0x41ab1a89	21.387957
53	0x41afbc9e	21.967098
54	0xbf8b924b	-1.090402
55	0x419f9bd0	19.95108
56	0xc1aa7fb8	-21.312363
57	0xc18095ca	-16.07314
58	0x402e3252	2.7218213
59	0xc195f588	-18.744888
60	0xc1106c7e	-9.026487
61	0x3e8a5854	0.27020514
62	0xc1a7d176	-20.977276
63	0x4192c01c	18.343803
64	0xc194b846	-18.589977
65	0xc0985361	-4.760178
66	0xc20e3377	-35.55026
67	0x41b9d133	23.227148
68	0xc1147c71	-9.280381
69	0x41c9e785	25.238047
70	0xc1e464a5	-28.549143
71	0x41dd7267	27.68086
72	0x3fbe7980	1.4880829
73	0xc1bede8e	-23.85867
74	0xc09b8811	-4.8603597
75	0xc0b1069c	-5.532057
76	0xc18dd46b	-17.72872
77	0x41927639	18.307726
78	0x419dfae8	19.747513
79	0x420d7c82	35.37159
80	0xc12ee483	-10.930789
81	0xc187c55c	-16.971367
82	0x41d36823	26.425848
83	0x40319f26	2.7753386
84	0xbfd4f0e4	-1.6636014
85	0x41832c28	16.39656
86	0xc1c3ba3b	-24.465933
87	0x419030db	18.023855
88	0x4180a79b	16.081839
89	0x40fa4a2a	7.821553
90	0xc1af868d	-21.940699
91	0xc19e1d79	-19.76439
92	0x41616932	14.088182
93	0xc1a8581d	-21.043024
94	0xc1a39ed6	-20.452557
95	0x41c7a4ce	24.955471
96	0xc0ae21e3	-5.4416366
97	0xc185e7d4	-16.738197
98	0xc1d7e046	-26.984509
99	0x41baf5a6	23.369946
100	0xc1bab137	-23.33653
101	0xc18f5a97	-17.919233
102	0x4169e3be	14.618101
103	0xbfec6400	-1.8468018
104	0x40d95a5b	6.7922797
105	0x4183ddc4	16.483284
106	0xc100bea2	-8.046541
107	0x41b1700a	22.179707
108	0xc19d0b69	-19.630571
109	0xc0aa50a7	-5.3223453
110	0x41ab1f67	21.390333
111	0xc1d29fc9	-26.32802
112	0xc190720a	-18.055683
113	0x40a970c4	5.2950153
114	0x3f11f70c	0.5701759
115	0x4184c015	16.59379
116	0x40ea7356	7.326579
117	0xc18601e7	-16.750929
118	0x40461d95	3.0955555
119	0x41b89b8d	23.075953
120	0xc132ea3b	-11.182185
121	0x41df802e	27.937588
122	0xc01bd1b6	-2.4346747
123	0x41ae2bb6	21.771343
124	0x4197a4f0	18.955536
125	0x3fa0c016	1.255862
126	0xc1bddefa	-23.733875
127	0x40a6451c	5.195936
128	0xc181771d	-16.18316
129	0xc105c849	-8.361398
130	0x3fe00e76	1.7504413
131	0xc1ee615a	-29.797535
132	0xc17f23c9	-15.946237
133	0xc2052ce7	-33.29385
134	0x419e48f1	19.785616
135	0x411fd104	9.988529
136	0x41761b16	15.381613
137	0x408c9bc5	4.394015
138	0x41961510	18.760284
139	0xc15beb83	-13.744998
140	0xc11cfc89	-9.811654
141	0x4195269f	18.643858
142	0x40d7aff6	6.7402296
143	0x41686ae1	14.5260935
144	0xc1b9084c	-23.129051
145	0x41eb077e	29.378658
146	0x41c4263f	24.518675
147	0xc14c8a2e	-12.783735
148	0xc0105a42	-2.255509
149	0x417dc323	15.860141
150	0xc0b76774	-5.7313786
151	0xc113901e	-9.222685
152	0x418c4bc3	17.536993
153	0xbe9b1c5e	-0.3029508
154	0x41b048bc	22.035515
155	0x41974c05	18.912119
156	0x408abb03	4.3353286
157	0x412c5142	10.769838
158	0xc16dff84	-14.874882
159	0xc0c92377	-6.285579
160	0xc06cbdfb	-3.6990955
161	0xc1a52295	-20.641886
162	0xc0fdf866	-7.936572
163	0xc20149e5	-32.322163
164	0x404189c2	3.024033
165	0xc20c51c5	-35.079853
166	0x41c11c7f	24.138914
167	0xc09ff3c7	-4.998508
168	0xc1ac8954	-21.567055
169	0xc1965527	-18.791578
170	0xc1826598	-16.299606
171	0xc188a447	-17.080214
172	0x41c73d85	24.905039
173	0xc087d241	-4.2444158
174	0x40ce14f8	6.4400597
175	0xc15e8164	-13.9065895
176	0xc11220f9	-9.13305
177	0x40db644e	6.855994
178	0x3fd57732	1.6677
179	0x4190b075	18.08616
180	0x419adcc5	19.357798
181	0x41a2385f	20.277525
182	0xc10b2948	-8.697578
183	0x4185b84e	16.714993
184	0x412b6c2f	10.713912
185	0xbfec5b02	-1.8465273
186	0x40f69dd0	7.706764
187	0xc17af6cb	-15.685252
188	0x41941361	18.509462
189	0x40f0b49e	7.522048
190	0xc190041a	-18.002003
191	0x40517d4f	3.2732732
192	0xc1a3d45e	-20.478695
193	0xc133a730	-11.228317
194	0xc0851577	-4.15887
195	0x41a5ab32	20.708591
196	0x41e17e96	28.18681
197	0x41c271f4	24.305641
198	0x40cc277c	6.37982
199	0x41a7b302	20.962406
200	0x413a1a59	11.631433
201	0xc19f585c	-19.918144
202	0xc17c0cd4	-15.753132
203	0x3f9906b3	1.195517
204	0xc173d2a8	-15.23893
205	0x417c1c1d	15.756864
206	0x418a87f2	17.31638
207	0x40f1bb96	7.5541487
208	0x41d6637e	26.79858
209	0xc0829b56	-4.081462
210	0x41c0ca50	24.098785
211	0x41a2e3a4	20.361153
212	0xc054d984	-3.325776
213	0x414b838b	12.719615
214	0x40d123b8	6.53561
215	0x416b35b4	14.700611
216	0x4150f70c	13.060314
217	0xc1cbd94f	-25.481108
218	0xc19b456d	-19.4089
219	0x40eb8ef6	7.3612013
220	0x3f9f7f2d	1.2460686
221	0xc18ee4e0	-17.861755
222	0xc1915c61	-18.170107
223	0x41bfa393	23.95487
224	0xc0fb691c	-7.8565807
225	0xc1d0e128	-26.10994
226	0x4119b34e	9.606276
227	0x41a5a90a	20.707539
228	0xc1ad7c61	-21.685732
229	0xc1cb3ffc	-25.406242
230	0x41568e31	13.409715
231	0x4152928e	13.16078
232	0x4147823c	12.4692955
233	0x4190dea5	18.108713
234	0xc0b81cb2	-5.753503
235	0x41d18f34	26.194923
236	0x4183dd5e	16.48309
237	0xbf19eb65	-0.6012481
238	0x4199555b	19.166677
239	0xc1deeea7	-27.86653
240	0xc180ece6	-16.115673
241	0x410c1ba2	8.756746
242	0xc0b65412	-5.6977625
243	0x41c46c92	24.553013
244	0x3f96d63b	1.1784128
245	0xc1694437	-14.579154
246	0x412765c7	10.462348
247	0x4194ff9e	18.624813
248	0xc15e16e5	-13.8805895
249	0x41c2cf96	24.35136
250	0x3fba5fd9	1.45605
251	0x41a0010e	20.000515
252	0x417fa3a0	15.9774475
253	0x3ef7488e	0.48297542
254	0xc1b9f0b7	-23.242537
255	0xc0e68ea0	-7.2049103

model.4.bias f4 [5]
0	0x41de1757	27.761396
1	0x41cad4bb	25.353872
2	0x41afb4af	21.963224
3	0x41b4149e	22.510067
4	0x42a0156b	80.04183
