results/palindrome/rql_5.pt (torch, 84325 bytes, 6 tensors)

model.0.weight f4 [128, 25]
000000 31 18 12 40 2e 09 32 3f ab 95 3f 40 75 9c 94 bf
       2.2827265 0.6954526 2.99351 -1.1610247
000010 40 98 33 c0 67 62 7b 3f 0c 50 51 3f 1a 34 16 be
       -2.8061676 0.98197025 0.81762767 -0.14668313
000020 6e 28 36 3e 19 68 70 3e 90 3d 2d be 73 4e 6f be
       0.1778886 0.2347721 -0.16918015 -0.2336977
000030 20 6c 65 3e 07 b9 d4 3d c5 34 f9 bd 4d f1 b1 be
       0.22404528 0.10386854 -0.12168268 -0.3475441
000040 76 ee 27 3c 68 05 9c be ec 71 12 3e c9 d5 f0 bc
       0.010249725 -0.30472875 0.1430127 -0.029398816
000050 48 58 33 3f d5 60 c3 be 61 85 a8 3e a5 f8 a3 be
       0.7005658 -0.38159814 0.3291426 -0.32025638
000060 f5 6c b0 3d aa 27 1a c0 6a 94 f2 bf e6 af 6a 40
       0.08614532 -2.408671 -1.8951542 3.666986
000070 cf 7d 4b be dc 3a fe c0 3c 4c ab 3e 30 09 97 3e
       -0.19872211 -7.944685 0.334566 0.29499197
000080 a5 0b 70 bf 43 87 f1 be d8 1d 4c be 80 ad 30 3d
       -0.9376777 -0.4717351 -0.1993326 0.043134212
000090 09 8d f2 be 86 f0 15 3f dd e9 a5 bd 06 ae dd 3e
       -0.47373226 0.58570135 -0.081012465 0.43296832
0000a0 56 53 e9 3b c3 5e 08 3d db 96 3e bf 75 fa 8e be
       0.00712053 0.033293497 -0.7444894 -0.2792546
0000b0 2a d6 f8 be 8f da 84 3f f9 6c 23 bf 66 10 74 3e
       -0.48600894 1.0379199 -0.63838154 0.2383438
0000c0 59 63 35 be b4 85 66 3f f3 13 29 be 24 09 9c 3e
       -0.1771368 0.90047765 -0.16511516 0.30475724
0000d0 b0 da f9 3f d3 75 0a 3e b9 e0 20 c0 28 f4 dd be
       1.9519863 0.13521509 -2.513716 -0.4335034
0000e0 01 f8 15 bf 28 09 55 40 9f e9 9d 3e d7 08 98 3f
       -0.5858155 3.3286839 0.308423 1.1877698
0000f0 83 3a 0d 40 31 34 26 bf 0a 76 cd 3e 7d 53 09 40
       2.2066963 -0.6492339 0.4012912 2.1457207
000100 3d 2d 2d bf eb cc 9a bc ca 1c 49 40 4f 45 b2 3c
       -0.67647153 -0.01889654 3.1423821 0.021761565
000110 fc cb 6a 3e 2d 4a e1 3f ee 3b ae 3e 78 6f e0 3f
       0.22929376 1.7600762 0.34030098 1.7534018
000120 27 ed ba 3e d7 bb 9c 40 97 5f 2f 40 c2 fd 65 3e
       0.36509058 4.8979297 2.7402093 0.22460082
000130 55 91 13 be c7 79 22 bf b9 e0 b4 3d 26 a8 82 bf
       -0.14410909 -0.6346707 0.08831925 -1.0207565
000140 99 44 33 bf 1f 06 36 bf e3 38 6a 3d c5 05 2e 40
       -0.70026547 -0.7110309 0.057183158 2.7191021
000150 cd 0b f8 3f 78 84 52 3e 51 d4 af 3e 15 93 e8 3e
       1.9378601 0.20558345 0.34341672 0.45424715
000160 a4 d7 e1 3e 2d 73 4e bd 46 22 09 bf 6e 46 cc bf
       0.44109833 -0.05040281 -0.5356792 -1.5958993
000170 e8 da e8 3c ec 16 71 be c6 c0 2d 3f fb c7 e6 3e
       0.028424695 -0.235439 0.67872274 0.45074448
000180 34 aa 6f 3f 0b 68 91 3f 84 a4 d5 3e a2 26 90 3f
       0.93619084 1.1359876 0.41727078 1.126179
000190 68 ce 17 bf 79 b3 dd bf eb 8c 25 3f a3 27 8d be
       -0.59299326 -1.7320396 0.6466815 -0.27569303
0001a0 28 3b 2b 40 f1 28 af bd 39 64 b8 3d 47 26 55 3f
       2.6754856 -0.08552731 0.09003491 0.8326153
0001b0 a4 5d 20 3f 3d d8 ee 3f a1 f4 0d 40 5d a2 e3 3f
       0.62642884 1.8659741 2.218056 1.7783924
0001c0 2c b9 b9 3f f0 8c 12 3d f8 9a 8f 3e ba 88 6c 3e
       1.4509635 0.03577894 0.2804792 0.23099032
0001d0 48 da 6d 3f b0 ca 73 3f 6b 17 b4 3f 47 4c 0a bf
       0.92911196 0.9523115 1.4069647 -0.5402264
0001e0 26 f7 04 bf 57 eb d9 be a1 b8 0e bd fa f0 d8 3e
       -0.5193962 -0.42562363 -0.034844045 0.4237135
0001f0 ff aa 3c 3e 81 3f 59 bf a4 a0 05 3f 6f 46 73 3f
       0.18424605 -0.84862524 0.52198243 0.9502935
000200 aa 56 37 3e 96 d5 71 3f 9a 14 b9 3e 8e eb dc 3d
       0.17904153 0.9446653 0.3614853 0.10787116
000210 a6 46 0a be 98 a2 d7 be 21 3b 11 be 44 80 ab 3f
       -0.13503513 -0.42116237 -0.14182712 1.3398519
000220 b1 df aa 3e 82 7e b1 3f 5d 2e 7d bf 0a 25 7f bf
       0.33373788 1.3866732 -0.9889887 -0.9966589
000230 43 20 f7 ba f6 6a db 3f de 5b b1 3f 61 ec 37 3f
       -0.0018854219 1.7142017 1.3856161 0.7184506
000240 2f 5c ef be 9b 8a 38 bd e0 f6 17 3f 58 45 b2 3f
       -0.46750018 -0.04505406 0.59361076 1.3927412
000250 65 1c b9 3f 52 99 ce be d7 c3 36 40 8b d2 79 bf
       1.446179 -0.4035135 2.855703 -0.9758689
000260 e2 0d 20 bf de 37 6a bd c6 55 d3 3e 63 35 45 3f
       -0.62521183 -0.057182185 0.41276377 0.77034587
000270 ff 96 3c 3f d5 eb ff bc 1c d6 bb bc 32 25 68 be
       0.736679 -0.031240383 -0.022929244 -0.22670439
000280 af a7 34 be ec 18 de 3e 1e 0e dc 3e 34 8f ea 3d
       -0.17642091 0.4337839 0.4297952 0.11453095
000290 ce a5 bc 3d 7b 1b ee bd 55 d6 83 3e c9 c1 96 3c
       0.09211312 -0.11626335 0.2574946 0.01840295
0002a0 fe 6a 2c 3e 23 eb 87 3d 7f 5f b9 be 58 26 19 be
       0.1683769 0.06636646 -0.3620567 -0.14956033
0002b0 46 3d 82 be 31 0c dc 3d 13 72 7b bd 1c 77 3d bf
       -0.25437373 0.10744513 -0.061388087 -0.7400987
0002c0 73 26 ac bf 19 bb bb be 1d 0e 8f c0 d5 b4 a8 c0
       -1.3449234 -0.36666182 -4.470473 -5.272074
0002d0 61 63 7f bf ed 09 78 bf c0 43 d0 3b 5d 36 4d 3d
       -0.99761015 -0.96890146 0.0063557327 0.050100673
0002e0 ce cd df 3d b0 69 80 bd d1 a5 96 3c 3e ff 7d 3d
       0.10927926 -0.06270158 0.018389614 0.062010996
0002f0 5e f6 b5 bc 7d 1c ab 3d 5a a3 ec 3a 4e de c9 3d
       -0.022212204 0.08355043 0.0018054054 0.098568544
000300 20 2b 6f bc 37 6b 36 be b2 47 b0 3c 4c 2c a3 bd
       -0.014597684 -0.17814337 0.021518562 -0.07967433
000310 b3 ed 04 3c 92 7a 9f bd e9 c0 d4 3c d1 46 d7 3c
       0.008113313 -0.0778705 0.025970893 0.026278885
000320 82 bd 0e 41 ec ee 0d bf 35 2d f8 3d b3 a7 1d be
       8.921267 -0.5544269 0.121179976 -0.15396003
000330 cb 1f f3 40 a0 4c 88 3e d4 df fe 3b a8 51 84 bb
       7.597631 0.2662096 0.0077781472 -0.0040380545
000340 c9 c0 ba bd 4a 77 8a 3d 44 3e d1 bd 34 97 43 3e
       -0.09118802 0.06761034 -0.10216954 0.19100648
000350 76 8c d3 bd b4 03 cf bd 92 eb e6 3d 20 01 d6 bc
       -0.10329525 -0.10108128 0.112754 -0.026123583
000360 8a 12 10 be 43 f8 da bd 65 6f 8c bd da a1 01 3e
       -0.14069572 -0.106918834 -0.06857184 0.12659398
000370 59 2f ab 3d 02 c5 de 3c 0e f8 6c 3e 25 44 9f ba
       0.0835864 0.02719355 0.231415 -0.0012151046
000380 c8 9c cd 3c 5a 03 41 bf 61 ff 62 be 31 5b 6c 40
       0.025099173 -0.7539574 -0.22167732 3.693066
000390 2d ab 92 bd a0 2a f7 bf 32 b4 16 bf d4 e4 b8 be
       -0.071615554 -1.9309883 -0.58868706 -0.36112082
0003a0 ba 14 36 3f 13 dd ab 3e f1 a7 ef 3e a7 eb 90 3e
       0.71125376 0.33567104 0.46807817 0.28304788
0003b0 ed 72 8b 3f 30 4d bc 3e f0 73 83 3e 08 a0 29 bf
       1.0894448 0.3677764 0.2567439 -0.66259813
0003c0 42 0c c7 3e b7 1d f9 3d 41 f8 8f 3d a1 78 15 3e
       0.3887654 0.12163871 0.070297725 0.14596798
0003d0 7a 91 27 3f 62 1e 98 be 63 2a 29 be fb e5 e4 be
       0.65456355 -0.2971068 -0.16520076 -0.4470671
0003e0 24 03 c9 be 2d f2 07 3e d2 b7 e9 bf a2 dc 6a 3f
       -0.3926021 0.13275976 -1.8259223 0.9174291
0003f0 dc 51 bb 3f 46 bc 8f 3c 22 ee 02 40 1c 63 c6 3e
       1.4634356 0.01754583 2.0457845 0.3874749

model.0.bias f4 [128]
000000 53 d9 86 3f 33 9d 9c 3e de dd 15 bf 83 4e 2f bf
       1.0535072 0.30588683 -0.5854167 -0.68479174
000010 3e 70 a1 bd 15 d1 3f 3e 17 78 27 3f fb 9c 65 bf
       -0.078827366 0.18732102 0.6541762 -0.8969266
000020 5c ec 88 3d e8 b5 d7 be 03 18 9f 3e 28 b4 e5 3e
       0.06685707 -0.4213097 0.31073007 0.4486401
000030 1c 7f ff be 5c 96 aa be a7 59 59 3e 35 d4 47 3e
       -0.49901664 -0.3331784 0.21225606 0.19514544
000040 10 c4 d8 be 22 5b c4 3e f2 12 cf 3b 15 9c 09 3f
       -0.42337084 0.3835078 0.006319397 0.5375379
000050 12 98 c5 3f 32 5b 69 be c0 55 87 3f 3c 8d 1c bf
       1.5437033 -0.22788695 1.0573044 -0.61153007
000060 82 4d 1f bf a6 e4 b1 3f a2 8b e8 3f a4 e7 c0 bd
       -0.6222764 1.3897903 1.8167613 -0.09419182
000070 b0 55 ab 3f 38 b9 ad bd 16 b9 ab 3e b3 40 3f 3f
       1.3385525 -0.08482593 0.33539647 0.747081
000080 ef 83 25 3f 4f 70 35 3e 87 64 cc 3c 27 9c ee be
       0.6465444 0.17718624 0.024950279 -0.4660351
000090 ab 6b 9e be 67 bd 89 be f9 fe 84 3c 4c 28 d0 3e
       -0.3094152 -0.26902315 0.016234862 0.40655744
0000a0 ac 4d 05 be 17 0f 90 3f 4d 9a 22 3f 54 85 c1 be
       -0.1301791 1.1254605 0.63516694 -0.37797034
0000b0 80 d7 bb 3e a9 7b 7c be d8 b7 17 bf 68 24 62 3e
       0.3668785 -0.24656548 -0.592649 0.220842
0000c0 65 15 8e bf 76 1e 9d 3f 5f 43 91 3f d6 b2 7b bf
       -1.1100279 1.2274921 1.1348685 -0.98319757
0000d0 eb f9 41 3e fa ea 1f 3f ac 94 09 3d 85 cc 06 bf
       0.18942992 0.6246792 0.03358905 -0.5265582
0000e0 f9 97 ed 3e 28 7a a8 bd 1a e2 8c 3f a8 72 14 3f
       0.46405008 -0.082264245 1.1006501 0.5798745
0000f0 fd 60 4b 3e 3a 90 18 bf 2e 99 0d 3e 46 5b b2 3f
       0.19861217 -0.5959507 0.13827965 1.3934104
000100 56 a5 6a bf 38 69 57 3d 5e a5 9a bb b2 94 0c 3f
       -0.9165853 0.05259058 -0.0047194203 0.5491439
000110 ec e8 1f 3e 06 fe 42 3c d0 ee 1b 3e 75 a9 15 bf
       0.15616196 0.011901384 0.15227818 -0.58461696
000120 48 09 d5 3e 90 da 6e be af 8b 4e be 4e f7 04 3e
       0.41608644 -0.23325562 -0.20170473 0.12984964
000130 82 36 dc be b7 5c ee 3e 8b b9 05 3e ab e8 50 be
       -0.43010336 0.4655511 0.1305906 -0.20401256
000140 1c 62 e4 3e 4e 39 83 3f 06 c5 16 bf a8 48 f2 be
       0.44606102 1.0251863 -0.58894384 -0.47321057
000150 76 a2 87 3e 2c 08 35 bf d0 43 d7 be b4 9f 83 3f
       0.26491135 -0.70715594 -0.42043924 1.0283113
000160 17 8e a3 3f c0 31 3b bf 11 a8 8e 3f cf 14 e3 bd
       1.2777737 -0.7312279 1.114504 -0.11087953
000170 8f b1 4e 3f da cc d7 3e fb fc 8d 3e 27 8b ac bd
       0.8073968 0.42148477 0.2773207 -0.08424979
000180 44 29 a6 be 17 17 38 be 54 cc 4f 3f 69 b5 1b 3e
       -0.32453358 -0.17977558 0.81171155 0.15205921
000190 95 09 c6 3e b8 70 41 3f 76 7e b4 3f e0 33 74 3e
       0.38679186 0.7556262 1.4101093 0.23847914
0001a0 ff 24 32 bd 46 4f 2a 3f 29 b8 86 3e 05 20 01 3e
       -0.043492313 0.6652721 0.26312378 0.1260987
0001b0 d6 40 90 bf 26 ef c2 3e 4d 11 5a 3d 64 ed a1 3e
       -1.1269786 0.3807308 0.053239156 0.31626427
0001c0 c8 90 2f be ad 68 e9 bd da ce 6c bf 63 d8 8c 3c
       -0.17145073 -0.113969184 -0.9250313 0.017193025
0001d0 d5 21 12 3f b9 45 0e bf f2 dd 8c 3f 29 e6 f4 bf
       0.57082874 -0.5557514 1.1005232 -1.9132739
0001e0 ba b1 08 bf 62 b9 4c be 4c b5 63 be 2b 9c 15 3e
       -0.5339619 -0.19992593 -0.22237128 0.14610355
0001f0 2f 96 70 be 59 c2 26 3f ae 4c fd 3f f6 54 79 3f
       -0.2349479 0.651403 1.9789026 0.97395265

model.2.weight f4 [128, 128]
000000 f1 19 5d bf 8b 8b ac 3f 7d 29 22 be 1b 1c c1 3e
       -0.8636771 1.3480085 -0.15836139 0.37716755
000010 c2 40 42 3e c5 6a 65 3e 88 76 3b bf 6a 7a e4 3e
       0.18970016 0.2240401 -0.7322774 0.44624645
000020 f8 b1 02 bf 98 36 90 be f0 68 91 bc b7 d4 20 3e
       -0.5105281 -0.28166652 -0.017750233 0.15706144
000030 74 86 40 3e 81 b7 87 be 70 8f 54 3e c7 08 b4 bd
       0.1880129 -0.2650719 0.20757842 -0.08790737
000040 83 31 c4 3e df d2 a5 bf 4b d2 30 bf f4 0e 02 3e
       0.38319024 -1.2954978 -0.6907088 0.12701017
000050 51 e0 22 bf 6e c1 d6 be b5 a5 07 be 93 72 13 3f
       -0.6362353 -0.4194445 -0.13246806 0.575967
000060 f6 3a 39 3e 3a 4a 72 3f 58 e3 67 3e 82 c6 50 be
       0.18088898 0.9464451 0.22645319 -0.20388225
000070 33 51 3d bf a3 83 6e 3d e4 35 27 be 2a 42 89 bd
       -0.73952025 0.058231007 -0.16329151 -0.06702073
000080 99 ad 82 be 5b c1 4c be 9f c2 3d bf 68 10 47 be
       -0.2552307 -0.19995634 -0.74125093 -0.19439852
000090 f7 0e 5e 3e e2 3f 0b 3f e0 80 11 be 76 5d da be
       0.21685396 0.5439435 -0.14209318 -0.4264943
0000a0 f2 34 1c bf 42 7e 3d bf ad 9d d7 3f ac b9 1b 3e
       -0.6101829 -0.7402078 1.6844994 0.15207547
0000b0 2c 78 98 bd 63 45 c1 bc e9 dc 53 bd f6 23 62 3d
       -0.07444796 -0.023592656 -0.05172435 0.055210076
0000c0 f8 cc c5 bf 15 b0 98 3d 0b fd 7b bf 5a 47 b2 be
       -1.5453176 0.0745546 -0.9843299 -0.34820062
0000d0 d5 cc c8 be ec ce c3 3e 3c 90 0c be 7c 16 35 3e
       -0.39218774 0.38243806 -0.13726896 0.17684358
0000e0 f7 46 09 3e 09 26 86 3e 51 57 4f be e1 66 fa be
       0.13405977 0.26200894 -0.20248152 -0.48906615
0000f0 c3 11 08 bd 8b a7 58 3e e0 48 25 be 3e 56 d5 be
       -0.033220064 0.21157663 -0.16141081 -0.4166736
000100 53 df 10 3f 7c 69 e5 bd 44 a1 ba 3e 5f 49 2b 3d
       0.56590766 -0.1120176 0.3645116 0.04181802
000110 63 f6 58 bd 7d d3 33 bd 4f ad a3 3d 66 53 45 3f
       -0.052969348 -0.043902863 0.0799204 0.7708038
000120 c7 2a d0 3e 29 0b 92 bf 6e 82 ca 3e c2 6e 84 3e
       0.40657637 -1.1409656 0.39552635 0.25865752
000130 c6 3a 03 3f 52 5f 4a 3c b6 dc 7e 3e 4c 57 61 3f
       0.51261556 0.012351828 0.24888882 0.8802383
000140 65 40 90 bf 8c a4 a0 3f 14 83 56 3e d1 42 35 3f
       -1.1269652 1.2550216 0.2094844 0.7080508
000150 7e b4 22 3f 86 d2 25 3f 1c 92 e4 3e d3 81 d5 bc
       0.6355666 0.6477436 0.44642723 -0.026062882
000160 ba a1 3c 3f 2f 25 ce 3d 9d 35 34 bf f2 ad f5 be
       0.73684275 0.10065686 -0.7039431 -0.47984272
000170 6c 07 69 be 4f 0b 27 be a7 7c 05 be 1c 39 8f 3d
       -0.22756737 -0.16312908 -0.13035832 0.069933146
000180 d1 3c c9 be f7 96 ee 3e c9 9a 40 3f a6 ec 07 be
       -0.39304212 0.46599552 0.75236183 -0.13273868
000190 1b ee 0a 3f 67 a4 98 3e 21 b1 36 3f 43 1e c9 3e
       0.5426957 0.2981293 0.7136403 0.392809
0001a0 2a 54 9e 3f b6 98 23 bf ea dc 94 3f 3e 38 f9 be
       1.2369435 -0.63904893 1.1629918 -0.48675722
0001b0 63 f0 94 3e 16 3f 04 3e bc 40 48 be 66 69 b7 3f
       0.2908965 0.1291469 -0.19555944 1.432904
0001c0 0f 40 18 bd fa c8 1c bd 2b af 79 3f cd bf a8 bd
       -0.037170466 -0.038277604 0.9753291 -0.08239708
0001d0 3f 87 19 bf f8 49 b7 bb ce c0 80 be 1c 8f 5f bf
       -0.59971994 -0.0055935346 -0.25147098 -0.8732774
0001e0 2c 2b 2c bd ea b2 b5 3e 9a 18 70 3e 1a e2 f6 3d
       -0.04203336 0.35488063 0.23446885 0.12054844
0001f0 64 22 82 bf ef f7 67 bf 2b 36 46 bf 33 ab b3 3e
       -1.0166745 -0.9061269 -0.77426404 0.35091552
000200 09 d8 33 bf 11 fd 8c 3f d6 a3 16 3f d4 1e d2 bd
       -0.7025152 1.101473 0.58843744 -0.10259786
000210 5e cb 06 bd 21 96 14 3e e0 46 31 bf bb 6d 04 3e
       -0.03290879 0.14510395 -0.6924877 0.12932484
000220 e7 93 fb bf 52 16 98 3e c3 b4 f6 3e 41 1d fb bd
       -1.9654511 0.2970453 0.48184785 -0.12261439
000230 79 6a 73 bf 4e be 55 3e 4e d2 22 be 0d af 35 3f
       -0.9508434 0.20873377 -0.15900537 0.7097023
000240 44 f3 b9 be dd e7 62 3e 59 94 ad 3e ea e0 9c be
       -0.3631841 0.22158761 0.33902243 -0.30640346
000250 b2 23 4d 3f e0 6d 14 3e 39 a4 53 bf ca 77 1e 3d
       0.8013259 0.14495039 -0.8267246 0.03868846
000260 ff b7 a1 be e2 64 64 bd cf 97 21 3e cd f5 e3 3e
       -0.3158569 -0.05576027 0.15780567 0.4452347
000270 08 0c b0 be d4 37 4d bf 62 60 ae 3e d5 bc 47 3f
       -0.3438418 -0.8016331 0.3405791 0.7802251
000280 3c 70 7d 3e 44 60 d0 3e eb a3 a2 3d 51 6d 9f 3e
       0.24749845 0.40698445 0.07941421 0.3113809
000290 42 c5 fe 3e bb 00 c5 be 0e 08 63 be 09 3c 41 bf
       0.4975987 -0.3847712 -0.22171041 -0.7548223
0002a0 61 46 4e be 93 1c ee 3e 30 48 eb 3e e4 07 ed be
       -0.20144035 0.46506175 0.45953512 -0.46295083
0002b0 d0 9c c8 3c cd c7 52 3e 92 25 5c 3e 92 6c 18 bf
       0.024488837 0.2058403 0.21498707 -0.59540665
0002c0 af d0 49 bf 04 35 d1 be 77 6d 03 bf 2a ab ed 3e
       -0.7883405 -0.4086076 -0.51338905 0.4641965
0002d0 70 cd f4 be b9 82 43 3f 11 70 d4 be a2 49 e0 bd
       -0.47812986 0.7637134 -0.4149175 -0.10951544
0002e0 07 1c af be 8c d6 6d be 8e 09 49 bf 5a 98 ee 3c
       -0.3420107 -0.23226374 -0.78530204 0.029125381
0002f0 92 fb 14 bf be b9 fe 3d 70 20 a5 3e d4 fa 0b be
       -0.58196366 0.12437771 0.3225131 -0.13669902
000300 26 82 7b 3f f4 05 4a bf b4 96 d3 3e 47 8b 13 3f
       0.98245466 -0.78915334 0.41325915 0.57634395
000310 4e a5 47 3e 6c 0b f7 be 72 2d 6a bc 26 55 00 3e
       0.19496652 -0.48250902 -0.014293062 0.12532482
000320 64 cb 64 3f a4 40 4e bf e6 f1 d5 be 63 28 3f 3f
       0.8937285 -0.80567384 -0.41786116 0.74671
000330 02 de ad 3f 46 97 d9 3e 93 54 e8 be a6 3f 3c 3f
       1.3583376 0.42498225 -0.45377025 0.7353462
000340 e9 56 23 3e b2 6a 50 3f 68 37 da 3d 8a ac 5f 3e
       0.15951122 0.81412804 0.10655099 0.21843162
000350 d3 34 37 3e 5e a3 5b 3d 21 42 e4 bd 58 54 b0 be
       0.17891245 0.053622596 -0.111454256 -0.3443935
000360 84 70 e7 3e 2e 8a aa bf 1f d6 50 3f 5b 0a ad be
       0.4520303 -1.3323419 0.8157672 -0.33796963
000370 34 f5 5a bf f3 4f a3 be 24 ea 38 bd c8 31 77 be
       -0.855304 -0.31896934 -0.04514517 -0.24140084
000380 6f f2 33 3f d6 06 6e 3f 0b 7c b3 be 42 18 41 3f
       0.702918 0.9297918 -0.35055575 0.7542764
000390 ef 81 06 be 71 f7 b5 3f 6b b9 8a 3f 6f 4c 4b bf
       -0.13135503 1.4216138 1.0837835 -0.79413503
0003a0 9f 69 84 3f 45 a5 c2 bd 24 88 a5 3f 02 32 4a be
       1.0344733 -0.09504179 1.2932172 -0.19745639
0003b0 92 12 13 bf 18 bd 28 be 9c 0c 50 3e ec ac 8c be
       -0.5745021 -0.16478384 0.2031731 -0.2747568
0003c0 94 ae 8a be 5c 0e 9f bf ad 3b 8a bf bf 5d bb 3d
       -0.27086318 -1.2426257 -1.0799462 0.0914874
0003d0 0b 64 88 bd 9d 55 1c 3f 04 33 76 3c 5a 3c a1 be
       -0.06659707 0.61068135 0.0150268115 -0.31491357
0003e0 ff 05 9c 3d ac f1 f5 3d 12 c2 84 3e 31 6e 10 be
       0.07618331 0.12008986 0.25929314 -0.14104535
0003f0 11 0f 4b 3e 75 7b b6 3e c0 80 e5 3e 26 a2 87 3e
       0.19829966 0.35641065 0.4482479 0.26490897

model.2.bias f4 [128]
000000 db c2 f5 bd 8a bd b5 bd 1e c8 00 be bc 84 0e 3e
       -0.12000056 -0.08874042 -0.12576339 0.13917822
000010 58 7d fb be 35 49 a7 be e7 ce 04 bd 48 c8 80 3e
       -0.49119067 -0.3267304 -0.03242388 0.25152802
000020 c8 72 a1 bc c9 2b 72 3e 2d 3c a5 3d 6b 5e d6 bc
       -0.019708052 0.23649515 0.08068118 -0.026168069
000030 2a 2e 35 bc 0b 4d c6 bd 0a b1 4d 3e 63 84 a8 3d
       -0.01105837 -0.096826635 0.20087066 0.08228376
000040 98 b9 c4 bd cc bc 6a be 5f c7 b8 3e e6 01 17 3d
       -0.09605712 -0.22923583 0.36089608 0.036867045
000050 5a d0 9a bc 04 b3 e0 3d 10 aa f3 bd 51 95 f2 3d
       -0.018898178 0.109716445 -0.11897671 0.11844886
000060 af 14 2e bd b7 aa 70 be 82 8c b8 3c f4 7b 2f 3e
       -0.042500194 -0.23502623 0.022527937 0.17137128
000070 64 8b 3f 3e f5 b2 b1 be 42 fa 0d be dc a7 ab 3e
       0.18705517 -0.34706846 -0.13864997 0.33526504
000080 8b 42 be be 54 6c d7 bd dc ce 01 3e d6 78 b8 3e
       -0.37160143 -0.10518709 0.12676567 0.3602969
000090 ab 94 d3 be 67 46 16 bd d3 83 04 3f 09 9e 5b be
       -0.41324362 -0.036688235 0.5176365 -0.21447004
0000a0 94 53 a5 3d 12 28 ab 3c 60 1e 96 3e 18 b0 ef bd
       0.08072582 0.02089313 0.2932005 -0.11703509
0000b0 19 41 1a be eb d8 2a 3e a8 0c f5 3c 40 de 56 bd
       -0.15063895 0.1668431 0.029913262 -0.052458048
0000c0 3a d4 b3 3b 7d b3 26 bc 11 27 9f 3d c5 05 fc bd
       0.005487946 -0.010174629 0.07771123 -0.12305788
0000d0 80 89 e7 bd 19 4d e6 3d 6e dd 66 bd 20 2c 3d 3d
       -0.11305523 0.11245174 -0.056363516 0.04618466
0000e0 36 51 b4 3e 58 13 09 be 8d de 1d 3e a4 e3 8a 3e
       0.3521821 -0.13386285 0.15416928 0.271268
0000f0 26 1f 10 3e 98 ae 9c be 96 1a 4b be f8 bc 94 3e
       0.14074382 -0.30601954 -0.1983436 0.29050422
000100 33 c5 93 bc 28 e1 ee be 88 46 ea bc 82 1a 03 3e
       -0.018038368 -0.46656156 -0.028598085 0.1280308
000110 cc e0 c2 be 5c 59 92 be fd b9 b2 3e d1 48 6a 3e
       -0.3806213 -0.285838 0.34907523 0.2287934
000120 fa ce 87 be 72 61 f4 3d 19 3e 10 bf ac cf e2 3e
       -0.26525098 0.11932649 -0.56344754 0.44299066
000130 89 5b 20 be fd 4e 63 3e d7 ab 39 3e 8a 24 5a be
       -0.15659918 0.221981 0.18131958 -0.21303001
000140 43 8e 23 3e 01 f1 95 bd 0c 79 00 be ee 7d 51 bb
       0.15972237 -0.073213585 -0.12546176 -0.003196593
000150 2f 85 f9 3d b1 0b 6c be ba 3a 33 bd 63 9c bd be
       0.12183606 -0.23051335 -0.043757178 -0.37033376
000160 a6 c6 05 bf a7 3e d1 be e5 f2 b5 3e a0 64 b6 3e
       -0.5225624 -0.40868112 0.35536876 0.35623646
000170 06 ec 94 3d 40 aa 30 3e 81 2d 81 3e ee 72 a5 be
       0.072715804 0.17252445 0.2523003 -0.32314247
000180 37 0b 9c be ce 58 47 3c f1 ec a7 be 59 00 91 be
       -0.30477306 0.012167169 -0.3279796 -0.28320578
000190 86 71 84 be b4 6b cf 3e d3 9b de 3d 84 f4 9f 3c
       -0.25867862 0.40511858 0.10869565 0.019525774
0001a0 83 01 a4 3d 1b 54 13 be 77 f3 e6 bd 1f eb ca bd
       0.08008101 -0.14387552 -0.11276906 -0.09908127
0001b0 74 2f 08 3e 26 95 0b be fc ea 4c 3e bb 9e 46 be
       0.13299352 -0.13631114 0.20011514 -0.19396488
0001c0 93 89 dd bb ba 2a c6 be 59 2c 91 be 99 1d c0 3e
       -0.006760785 -0.38704473 -0.28354147 0.3752258
0001d0 2f 30 0b bd bb cc eb 3d 63 47 fa bd 67 e5 85 3e
       -0.0339815 0.115136586 -0.12220647 0.26151583
0001e0 7d 17 82 be 71 3b 70 bd 65 7a 60 bd e3 58 ee 3d
       -0.25408545 -0.058650438 -0.054804225 0.116380475
0001f0 bd c0 02 be 7f ab 1e 3e 92 f1 7e 3d ec a0 ac 3c
       -0.12768836 0.15495108 0.0622421 0.021072827

model.4.weight f4 [5, 128]
000000 74 d4 c0 bf 4a 80 38 3f 33 08 28 40 14 51 c0 bf
       -1.5064836 0.72070754 2.6255004 -1.5024743
000010 15 e0 0a c0 e7 a9 18 c0 75 80 a7 bf 7e 5c b0 bf
       -2.169927 -2.38537 -1.3086077 -1.3778226
000020 d5 71 ef bf b7 ce 39 40 14 89 8f c0 b3 cc 98 3f
       -1.8706614 2.9032419 -4.485483 1.1937469
000030 48 8b bc 3f f0 b2 1f bf ab ae 70 3f df a9 a5 3f
       1.4730005 -0.6238241 0.9401652 1.2942466
000040 04 50 98 bf 47 f4 eb 3d 3e 57 b5 3f 77 04 d0 3f
       -1.1899419 0.115212016 1.4167249 1.6251363
000050 17 c9 bf bf ad b9 2e 40 3b b4 8d bf ba 61 87 40
       -1.4983243 2.7300828 -1.1070627 4.2306795
000060 e8 02 c7 bf 7d 44 41 c0 55 9f 5c bd 74 06 a3 c0
       -1.5547762 -3.0198052 -0.05386289 -5.0945377
000070 5e ea f3 3c 9e 39 55 bf 10 28 a2 3f 4d aa 9a c0
       0.02977484 -0.8329104 1.2668476 -4.8332887
000080 b8 5e 5d 3f c9 89 5d be 56 6e de 3f 98 f5 4e 40
       0.86472654 -0.21634592 1.7377422 3.2337399
000090 4e 15 c5 bf 70 bf 2b 40 30 f2 e4 be 84 3e c1 be
       -1.5397127 2.6835594 -0.44716024 -0.37743008
0000a0 2e db ae be 29 aa 10 bf c4 cc 02 40 49 2c 4f 3f
       -0.34151596 -0.56509644 2.043748 0.8092695
0000b0 60 96 36 40 21 20 47 3f f1 44 8e bd 14 6f de bf
       2.8529282 0.777834 -0.06946743 -1.7377648
0000c0 fa e0 9f be 7e 79 78 be 8a 22 83 40 77 58 86 bf
       -0.3122633 -0.24265096 4.097966 -1.0495747
0000d0 36 73 8c be d3 6a 03 3f 9f 4f ee be 14 01 5e be
       -0.2743165 0.51334876 -0.4654512 -0.21680099
0000e0 e3 0b 14 40 00 5a 07 40 a0 13 05 3f e2 31 6a 3c
       2.3132255 2.1148682 0.5198307 0.01429412
0000f0 cb 3d 88 40 66 4e 87 40 13 c1 88 3e 66 22 24 c0
       4.257543 4.22832 0.26709804 -2.5645995
000100 e5 ca 12 3f de c5 8f bd a3 4c f9 bf d7 49 4b bf
       0.5734084 -0.07020162 -1.9476513 -0.79409546
000110 21 50 91 c0 ab 7d 26 c0 70 23 06 3f e1 3f 82 bf
       -4.5410314 -2.6014202 0.52397823 -1.0175744
000120 54 8d 2e c0 4f 2b 10 c0 1d c8 d1 bf 07 57 55 3f
       -2.727376 -2.2526433 -1.6389195 0.8333592
000130 be d5 51 bd 5c 95 47 40 06 ae cf 3e a5 39 8d bf
       -0.05122923 3.1184912 0.40562457 -1.1033217
000140 83 fc c5 3f 56 dd 27 3e ef 61 85 3f d1 7c 60 bf
       1.5467685 0.16393027 1.0420512 -0.87690455
000150 fb 1b 61 3f b9 42 b4 be ee ae 2a 40 ed 4c a2 bf
       0.8793332 -0.35207155 2.6669269 -1.2679726
000160 0c 1f 14 c0 4b e9 4a c0 c4 5c 8f 3f 86 af 4a 40
       -2.314395 -3.170489 1.1200185 3.166963
000170 c1 95 b6 3e 86 39 69 3e 77 7a dd 3f 6a 3e 0f bd
       0.35661128 0.2277585 1.7302998 -0.034971632
000180 00 7e 3a 3e 7a 95 81 bf b8 ac d7 bf 2e 59 d1 be
       0.18212128 -1.0123742 -1.6849585 -0.4088835
000190 5a 41 9c 3f 79 de 37 40 60 00 e7 3f 53 84 84 be
       1.2207444 2.8729537 1.804699 -0.25882205
0001a0 40 60 4b 40 e2 57 4f 3f 1b 98 0f c0 7b 74 a4 bf
       3.1777496 0.80993474 -2.2436588 -1.2848047
0001b0 51 36 f9 bf 76 06 1c 40 74 34 a9 3f c7 c0 e4 3f
       -1.9469701 2.4378943 1.3219132 1.7871331
0001c0 81 52 fb be b5 e6 3b c0 7f da 8c 40 af 42 ec 3e
       -0.49086383 -2.9359562 4.401672 0.46144626
0001d0 46 08 6e 3f d9 81 90 bf 9b e1 e0 bf 73 5a 89 3e
       0.92981374 -1.1289626 -1.7568849 0.2682682
0001e0 a4 37 01 c0 1b 3f 97 3e 9c 04 6b be 20 24 fd 3f
       -2.019021 0.29540333 -0.22950977 1.977665
0001f0 97 be 00 c0 98 fb 32 c0 62 e9 92 3f 60 00 2d 3f
       -2.0116327 -2.796606 1.1477473 0.675787
000200 81 12 f2 bf b8 c8 7b bf 59 36 c1 bf 9f 33 5d 3f
       -1.8911897 -0.9835315 -1.509471 0.8640689
000210 b7 0f bf be c9 2e 50 c0 22 6c a4 bf 45 a1 eb 3f
       -0.37316677 -3.2528555 -1.28455 1.840859
000220 20 97 59 40 29 36 35 3f db 3b 2b c0 29 4d 65 bf
       3.399849 0.70785767 -2.6755283 -0.8957086
000230 65 47 12 40 8d 54 61 3f 9d 75 ca c0 93 6c 87 bf
       2.2856076 0.8801964 -6.326857 -1.0580009
000240 5f 80 88 bf 78 53 fb 3d 5b 4d 92 bf fe 3f 88 3f
       -1.0664176 0.1227178 -1.1429857 1.0644529
000250 63 b6 cb 3f 2d 8e 5d 40 c2 73 43 c0 e0 f4 33 40
       1.5915035 3.4618027 -3.0539403 2.811821
000260 ba 70 39 c0 01 86 a7 3f 00 6b 0c c0 b3 56 8e 3e
       -2.8975053 1.308777 -2.1940308 0.2780052
000270 f1 df f3 3f 13 7a c8 bf 5c a3 ed 3f ed 69 87 40
       1.9052716 -1.5662254 1.8565478 4.2316804
000280 54 de 0f c0 ca 3d 2b bf 0d 55 eb 3f bd e9 bb 3f
       -2.2479448 -0.6689116 1.838533 1.4680706
000290 a6 e4 1b c0 b0 3b 7e 3e 5f df 9b bf 12 e3 93 be
       -2.4358306 0.24827456 -1.2177542 -0.28884178
0002a0 81 ab f6 3f 74 39 fa be 26 6a f1 3f 62 4d 5b 40
       1.9271089 -0.48871958 1.8860519 3.426598
0002b0 9b ff e1 3d 67 25 2f bf 4c 72 83 bf f0 7f 05 c0
       0.11035081 -0.68416446 -1.0269256 -2.0859337
0002c0 1b c3 5a 3b 0a b9 87 3f bb aa e6 bf 44 ad 87 3f
       0.0033380452 1.0603344 -1.8020853 1.0599751
0002d0 e7 56 dd 3e a5 3a 32 3e 65 16 67 be 1a f9 cf be
       0.43230364 0.17405184 -0.22567137 -0.40619737
0002e0 d2 f5 25 40 9a 57 8c c0 bf 28 22 40 10 15 8b 3f
       2.5931287 -4.3856936 2.533737 1.0865803
0002f0 92 e2 b7 3f 2f 05 0e c0 30 34 93 bf c5 03 0e c0
       1.4366019 -2.2190664 -1.1500301 -2.21898
000300 50 f3 fd 3f 69 88 81 bf 45 38 38 40 d9 84 da 40
       1.9839878 -1.0119754 2.8784344 6.8287168
000310 6c 47 07 c0 fc f0 3d 3f fd 50 9d be 19 bd 1d bf
       -2.1137342 0.7419584 -0.30725852 -0.61616665
000320 a7 58 96 be 95 2d 3b 40 37 ff bb 3d d9 7f 9f 3e
       -0.2936451 2.924657 0.09179538 0.31152228
000330 c8 bb 42 40 de aa 35 40 98 38 8d 3f 76 89 68 3e
       3.0427113 2.838554 1.1032896 0.22708687
000340 9c 35 ef 3e 7e f3 de 3f 05 03 be bf 90 6d 3f 40
       0.46720588 1.7418058 -1.4844671 2.9910622
000350 da 33 05 c0 90 3b 37 40 d2 8c a3 3f 8f f5 0a bf
       -2.0812898 2.8630104 1.277735 -0.5428094
000360 e1 de 17 c0 96 92 61 bf 21 21 a3 bf 6e 08 06 bf
       -2.3729784 -0.881143 -1.2744485 -0.5235661
000370 7e 05 d7 be 7d 17 cb 3d 7e 7a 3c 3f 0a ba 0f 3f
       -0.41996378 0.099165894 0.7362441 0.5614325
000380 28 8a 34 40 c0 8f 82 bf 3b 41 f0 bf 08 c5 d7 3f
       2.8209324 -1.0200119 -1.8769907 1.6857004
000390 26 6b f9 bf 7b 10 d0 3f a5 ea 40 40 0f a6 80 40
       -1.9485824 1.625503 3.0143216 4.020271
0003a0 66 4f bf 3e c5 fd 68 3f 9c 54 17 40 ce fa 1c 3f
       0.37365264 0.9101222 2.3645391 0.613202
0003b0 13 9d 2f c0 02 b2 5c bf 83 82 f2 be 6c 04 18 bf
       -2.743962 -0.8620912 -0.47365198 -0.5938175
0003c0 cf 90 91 be 38 ee 0f 3f 9f 80 05 c0 21 7f f0 3e
       -0.28430793 0.5622287 -2.0859754 0.46971992
0003d0 fc 7b b7 bf 02 02 07 c0 f5 8f 46 c0 c8 58 b9 be
       -1.4334712 -2.1094975 -3.1025364 -0.36200547
0003e0 38 4c 1d be 84 53 34 3f 3b 82 fa 3d 17 e2 2c bf
       -0.15361106 0.70439935 0.12231871 -0.67532486
0003f0 c3 75 5b bf 94 f7 2d c0 5b 9a 56 40 db 56 03 c0
       -0.85726565 -2.718236 3.353171 -2.0521762

model.4.bias f4 [5]
000000 22 b8 83 3f d3 83 d9 3e 23 4b bb 3f f4 53 2c 3f
       1.0290568 0.42483386 1.4632305 0.673156
000010 84 f5 46 bd
       -0.048573986
