results/palindrome/rql_8.pt (torch, 84325 bytes, 6 tensors)

model.0.weight f4 [128, 25]
-1.0369341 -2.670995 -1.1793587 -0.89074403 -0.7370955 -0.20751865 -0.25667962 0.6539958
0.9048601 0.52202034 1.1304926 -0.011904985 0.13104253 0.37597415 0.55645066 -0.059671883
0.39755583 0.07693335 0.6900926 0.545265 0.9295261 -0.640372 0.6761521 0.15422177
0.040557157 -3.4323828 2.5711153 0.40509522 -0.8527722 1.10129 0.30298245 0.088589996
-0.14925452 0.048280325 -0.23365515 0.118523955 -0.448701 0.0759922 -0.26745623 0.32241276
0.038005915 -0.1460288 -0.044566415 -0.36794952 -0.28971654 0.34411156 -0.12097679 0.267158
0.23131916 0.078520395 -2.086275 2.7946742 -0.8256265 0.20543383 -1.8501219 -0.6764092
-0.38984272 -0.21548656 0.17433703 -0.006312993 0.22746511 0.08883307 0.04718453 0.031775758
0.007149319 -0.2537073 -0.023969432 -0.20293331 0.12123639 -0.18849066 -0.4561984 0.2651325
0.18896085 -0.13881125 -0.18421176 0.40396574 1.6995972 0.47729716 3.3898997 -4.393219
-0.053285167 0.1489614 0.009254314 0.33247125 0.22458643 -0.33726302 -0.75173795 -0.9724279
-0.69607735 0.012726727 -0.06274569 -0.16393282 -0.4391837 -0.25708717 0.025320996 -0.057909016
-1.2606808 -0.0170708 -0.024594538 0.5297177 -0.43889606 -0.27259833 0.6522264 0.51982147
9.760613 1.6133585 1.496809 -0.15832116 0.47729513 0.37689823 0.33095807 -0.18621674
0.25485677 0.341089 -0.14725976 0.22923067 -0.07774118 -0.32859865 -0.34319755 0.35230955
-0.44676527 -0.41503018 0.1591631 0.018353181 0.035375815 -0.29570308 0.5297192 0.5348
0.61986035 -1.8330995 -0.49258268 -0.38933724 1.113818 -0.19537333 0.43139836 -0.25041738
-0.09446504 0.69373 0.46628296 0.67147964 -0.16593646 0.43627235 0.8063829 0.57238495
0.8376738 0.6821692 -0.3673912 1.0233413 0.26546165 0.53008837 0.3605536 0.64215684
0.20666584 0.042572293 -8.72393 -1.3939337 -1.3350254 -0.016056884 -0.046771795 0.03170036
0.0944307 -0.042515714 0.048781823 0.06345202 0.050124757 0.014167443 0.041871097 0.021567581
-0.001818508 0.008816825 -0.009896747 0.03106974 -0.08829671 0.0095172655 0.040348906 -5.131818
1.2149143 1.8215206 -1.0757395 -7.620754 -0.24462548 -0.18163209 -0.020257587 -0.13244557
-0.49240774 0.11169332 -0.2973464 0.13681753 -0.06092378 -0.33954397 0.10153752 -0.0837018
0.17658338 -0.10476329 -0.10535618 0.33523843 -0.030317504 -0.25469744 -1.1129524 0.09623648
0.4539337 -1.5759497 -0.16515465 -0.034021944 -2.5826015 -0.86635816 -0.82421386 -0.39259523
0.717357 -0.3205272 0.044740807 0.23033367 0.5582448 0.4899138 -0.6552202 0.109793015
0.30657345 -0.073367506 0.44575265 -0.021772267 -0.8857973 0.16691667 -0.74083024 -0.20711747
-0.0940845 0.5269227 -0.05385408 -0.32222512 2.9736776 3.4055498 -0.39367822 -0.64639884
0.011061237 0.10987011 0.028926682 -0.0057362835 -0.03424746 -0.1123764 -0.0077809026 -0.08127274
-0.05884261 -0.07754442 0.040703263 0.1693739 0.1082329 0.057429943 -0.112784475 -0.036989648
0.025098875 -0.057327524 0.8970749 1.3441445 -0.16689157 0.30273795 -3.6997852 0.49505582
00000000: 42ba 84bf 95f1 2ac0 3af5 96bf cd07 64bf
00000010: 4ab2 3cbf c57f 54be 836b 83be 456c 273f
00000020: e9a4 673f 20a3 053f fbb3 903f 200d 43bc
00000030: 0330 063e af7f c03e 8d73 0e3f 816a 74bd
00000040: 708c cb3e 3b8f 9d3d e9a9 303f 7d96 0b3f
00000050: 6cf5 6d3f 6bef 23bf 4e18 2d3f 50ec 1d3e
00000060: 431f 263d 29ac 5bc0 278d 2440 a468 cf3e
00000070: 474f 5abf 12f7 8c3f 8420 9b3e ac6e b53d
00000080: 2dd6 18be 97c1 453d 4c43 6fbe b0bc f23d
00000090: 23bc e5be cca1 9b3d 06f0 88be 4913 a53e
000000a0: 17ac 1b3d 9388 15be 468b 36bd e163 bcbe
000000b0: ba55 94be 642f b03e aec2 f7bd efc8 883e
000000c0: eede 6c3e 4dcf a03d 8885 05c0 f1db 3240
000000d0: 425c 53bf 3f5d 523e cbd0 ecbf 2729 2dbf
000000e0: 7799 c7be 82a8 5cbe 6885 323e 39dd cebb
000000f0: 9dec 683e 1dee b53d 9144 413d 4c27 023d
00000100: d644 ea3b ece5 81be 8b5b c4bc c0cd 4fbe
00000110: c94a f83d b203 41be d692 e9be 72bf 873e
00000120: f47e 413e 8924 0ebe 02a2 3cbe 99d4 ce3e
00000130: 678c d93f 4b60 f43e 1ef4 5840 4095 8cc0
00000140: 8c41 5abd 5689 183e 689f 173c ac39 aa3e
00000150: fcf9 653e bdad acbe e671 40bf 09f1 78bf
00000160: 2032 32bf c383 503c d080 80bd 01de 27be
00000170: b0dc e0be eea0 83be fa6d cf3c 0132 6dbd
00000180: fd5d a1bf 10d8 8bbc 7c7a c9bc 949b 073f
00000190: fcb6 e0be 0292 8bbe 4ff8 263f 0513 053f
000001a0: 792b 1c41 8882 ce3f 7097 bf3f f11e 22be
000001b0: 0760 f43e cef8 c03e 5673 a93e 9aaf 3ebe
000001c0: 967c 823e 38a3 ae3e 43cb 16be 72bb 6a3e
000001d0: c536 9fbd 153e a8be 97b7 afbe eb61 b43e
000001e0: 6bbe e4be d67e d4be a7fb 223e 6959 963c
000001f0: 3be6 103d 6566 97be ad9b 073f a7e8 083f
00000200: 2baf 1e3f 01a3 eabf cc33 fcbe 3657 c7be
00000210: 9791 8e3f f20f 48be 3fe0 dc3e b536 80be
00000220: e376 c1bd 4a98 313f a4bc ee3e 17e6 2b3f
00000230: 3feb 29be 175f df3e 1c6f 4e3f d287 123f
00000240: ca71 563f a4a2 2e3f b31a bcbe d9fc 823f
00000250: 97ea 873e dfb3 073f 7b9a b83e 6464 243f
00000260: 36a0 533e 4960 2e3d 3895 0bc1 6b6c b2bf
00000270: 1de2 aabf ba89 83bc c893 3fbd 3dd8 013d
00000280: e264 c13d f524 2ebd 73cf 473d 22f3 813d
00000290: 9e4f 4d3d 901e 683c 0781 2b3d 7fae b03c
000002a0: 015b eeba 7274 103c f725 22bc f885 fe3c
000002b0: e8d4 b4bd 4eee 1b3c e544 253d da37 a4c0
000002c0: 5082 9b3f 9627 e93f d5b1 89bf 37dd f3c0
000002d0: 1a7f 7abe c3fd 39be 3df3 a5bc d09f 07be
000002e0: de1c fcbe 78bf e43d ca3d 98be e519 0c3e
000002f0: 378b 79bd b5d8 adbe e7f2 cf3d d96b abbd
00000300: 46d2 343e 238e d6bd fbc4 d7bd 5fa4 ab3e
00000310: 6a5c f8bc b467 82be 3975 8ebf a217 c53d
00000320: ff69 e83e b8b8 c9bf 4d1e 29be 985a 0bbd
00000330: 5849 25c0 a6c9 5dbf aeff 52bf 3e02 c9be
00000340: b5a4 373f 241c a4be 2342 373d 97dc 6b3e
00000350: 22e9 0e3f fbd5 fa3e 83bc 27bf 29db e03d
00000360: 32f7 9c3e b441 96bd b139 e43e c15b b2bc
00000370: 9dc3 62bf 34ec 2a3e 0da7 3dbf 9a16 54be
00000380: 60af c0bd 68e4 063f 1996 5cbd b1fa a4be
00000390: bc50 3e40 87f4 5940 3190 c9be 657a 25bf
000003a0: 313a 353c 9503 e13d a6f7 ec3c 6ff7 bbbb
000003b0: 1147 0cbd 9925 e6bd f1f6 febb 5372 a6bd
000003c0: f304 71bd 9ccf 9ebd 77b8 263d 5a70 2d3e
000003d0: 36a9 dd3d a93b 6b3d 8cfb e6bd 7582 17bd
000003e0: 289c cd3c 44d0 6abd b3a6 653f ed0c ac3f
000003f0: a0e5 2abe 7800 9b3e 48c9 6cc0 f577 fd3e

model.0.bias f4 [128]
-0.34598932 0.2515528 -0.44820604 0.0735883 1.4692477 -0.3698428 -1.4360876 -0.055634454
-0.56049335 -0.41938907 0.72197175 1.0033627 0.62629646 0.4534266 0.2593034 -0.18082151
-0.72019494 0.16955292 -0.33734024 0.7820721 0.2442075 0.078638084 -0.21484534 0.20764752
-0.27496916 0.10320591 -0.2956797 0.2650119 0.99552745 0.3227644 0.5252439 -0.49440312
0.58746195 0.08009709 0.4957274 -0.47146687 0.10440138 0.10751703 0.23953877 0.2791337
-0.10294557 0.58938897 0.7284059 -0.1727679 0.4597922 -0.35652345 -0.5727301 0.78871685
0.13950917 -0.75443727 -0.07366929 0.06814907 -0.27497083 0.6209891 -0.15906358 -0.7562213
0.26016405 0.4083583 -0.18884082 -0.101016775 1.341437 -0.66255355 1.4540588 -0.33730078
0.1666956 -0.41009638 0.38872573 0.17482188 0.16059707 -1.7530378 -0.23270062 -1.158299
0.06364641 0.28306016 0.22302358 0.45535323 0.03341066 -0.28694895 1.1239792 -1.1888655
0.1877097 -0.27074313 -0.07514359 -0.96699005 0.38087484 0.18962932 0.39261055 0.39896542
-0.9497641 1.0434409 0.66306645 -1.2687217 0.19376305 -1.2142402 0.050619762 0.4308304
1.4288057 -0.9431273 0.43330678 0.21179053 0.9431449 -0.9078163 -0.9448838 0.6412146
0.23144153 -0.5662936 0.23148693 0.31852728 0.34928432 -0.31632105 0.6886266 -0.34142876
0.21335639 0.2355487 -0.31626776 0.3940703 0.65574163 -0.18320085 -0.402306 -0.30872673
-0.31147817 0.22514805 0.44251564 -0.07567078 0.11429354 -0.5575555 0.403989 0.5682128
00000000: 8325 b1be 87cb 803e 437b e5be 76b5 963d
00000010: 4f10 bc3f 095c bdbe b8d1 b7bf f4e0 63bd
00000020: 7e7c 0fbf 2aba d6be 24d3 383f 306e 803f
00000030: f754 203f 8827 e83e 6ac3 843e 4629 39be
00000040: b25e 38bf 489f 2d3e dcb7 acbe e135 483f
00000050: 8811 7a3e 010d a13d 6b00 5cbe 8da1 543e
00000060: c2c8 8cbe 9f5d d33d 5463 97be a4af 873e
00000070: e3da 7e3f 6041 a53e 6276 063f 6822 fdbe
00000080: e863 163f f109 a43d fbcf fd3e 1b64 f1be
00000090: 64d0 d53d e331 dc3d a749 753e 9dea 8e3e
000000a0: 21d5 d2bd 32e2 163f cf78 3a3f 12ea 30be
000000b0: e269 eb3e 3e8a b6be 719e 12bf 59e9 493f
000000c0: 7edb 0e3e cd22 41bf eddf 96bd bd91 8b3d
000000d0: fac8 8cbe 24f9 1e3f 90e1 22be b897 41bf
000000e0: 3934 853e 5714 d13e 7d5f 41be e2e1 cebd
000000f0: 35b4 ab3f 1c9d 29bf 991e ba3f b0b2 acbe
00000100: 40b2 2a3e 27f8 d1be 0f07 c73e 8204 333e
00000110: 8f73 243e 8b63 e0bf 1249 6ebe 2443 94bf
00000120: 0d59 823d 43ed 903e 4b60 643e 0f24 e93e
00000130: 9ed9 083d f9ea 92be 8dde 8f3f bf2c 98bf
00000140: f936 403e d89e 8abe e2e4 99bd a98c 77bf
00000150: 0702 c33e 302e 423e 4004 c93e 3245 cc3e
00000160: bd23 73bf 798f 853f b9be 293f 7965 a2bf
00000170: d269 463e 396c 9bbf ab56 4f3d cd95 dc3e
00000180: 1be3 b63f ca70 71bf 63da dd3e 9edf 583e
00000190: f271 713f a666 68bf e8e3 71bf a426 243f
000001a0: 02ff 6c3e 9ef8 10bf e90a 6d3e 0216 a33e
000001b0: 65d5 b23e d5f4 a1be d549 303f c0cf aebe
000001c0: 197a 5a3e ae33 713e d9ed a1be 95c3 c93e
000001d0: afde 273f 0199 3bbe 0dfb cdbe 6e11 9ebe
000001e0: 117a 9fbe 368d 663e 6991 e23e 48f9 9abd
000001f0: bb12 ea3d f5bb 0ebf a5d7 ce3e 6576 113f

model.2.weight f4 [128, 128]
0.73033726 0.99277246 -0.31977642 0.45030937 0.45383853 0.47506094 -0.023663346 0.44537824
0.38479522 0.40931523 -0.38470495 -0.116539486 -0.06931467 -0.24746998 0.62081033 0.50182414
-0.435192 0.54521585 -0.38374224 -0.610151 0.03581337 0.6877279 -0.5395973 0.36563495
-0.16742405 0.54112965 0.2690404 -0.3447442 -0.72852314 -0.28315032 -0.27367437 -0.065641336
0.22297373 0.07558788 0.6795632 0.07742621 0.10339829 -0.057843834 -0.059401304 -0.37453583
0.020213248 1.2252192 -0.24648426 1.0504735 -0.18046473 0.027858788 -0.2026744 -1.6526453
-0.0282356 1.0922083 0.0673174 -0.28784776 0.80028325 0.56250906 0.6307381 1.0296705
0.38498563 -0.327089 -0.13273138 0.18319397 1.3754162 -0.43913555 -1.3534968 0.13396081
-0.1344314 0.41791964 -0.18129405 0.06794403 -0.09517212 0.31037134 -0.476967 -0.05776186
-0.14174275 -0.6452781 0.07598644 -0.020356268 0.039322816 -0.07739579 0.23234005 1.2646092
0.32623595 0.26542443 0.24098778 -0.0385974 -0.027828747 0.24642962 0.46983987 -0.17312096
-0.07901308 -0.034019202 0.22455722 0.08700389 -0.09629825 1.1041043 0.17287591 -0.14095311
-0.29932207 1.3034879 0.46129718 -0.151994 -0.37986994 0.02694752 0.41537812 0.14929713
-0.43520913 -0.052468065 -0.97804624 -0.70417714 -0.014916013 0.2844588 0.08078814 -0.11820496
0.40040317 0.6170582 -0.09104722 -0.054627158 0.3486808 0.08772407 0.24879643 0.06668245
0.1093683 0.023345904 0.8234899 0.08622492 -0.042365097 0.13730133 -0.35867983 0.7870921
-0.9464606 -0.058948696 0.40407333 -0.27829075 0.16334863 -0.24500412 1.112549 0.33886367
-0.23317412 1.0773703 0.5606144 -0.49288213 0.6828661 -0.5848632 0.68769354 0.34024277
-0.10598159 -0.5670248 -0.0036257824 -0.8326727 -0.25424004 -0.33220714 0.34778124 -2.343851
0.12695038 -0.33463356 1.3355627 -0.18439429 -1.3744692 0.115137346 0.096502155 1.2266256
0.03461671 -0.5712172 -0.07464335 0.4703508 -0.5215366 0.27042454 -1.448069 0.14969926
1.1216013 0.30687445 0.13698599 0.6161381 0.007875257 0.29647517 -0.8646454 -1.1553836
-0.05277833 -1.3916608 -0.84719044 0.08403758 -0.10263303 -1.0529808 0.35063568 -0.69029456
0.3635055 0.38706833 0.070143126 -0.26360598 1.103584 0.7423927 1.6022305 -0.50642157
-0.77842486 0.5115954 0.49249795 0.5198194 -0.2801044 0.642573 0.06263019 -0.19325605
-0.88549984 -0.06605603 -0.88190347 -0.55333394 0.32991403 0.030329455 -0.28147936 -0.92587876
-0.23188005 -0.8817218 0.43136966 0.035408612 0.103391126 0.18967706 -0.964556 0.17881267
0.30064228 -0.14177044 0.005027862 -1.3196777 0.00044872944 -1.6486987 -0.24675065 0.27087155
0.6867697 -1.0758213 0.68021333 0.1791712 0.1511227 0.9417575 0.3303719 0.09149519
-0.15182474 0.087862924 0.6193389 -0.43261638 0.3966511 -0.41232052 0.5275348 0.9911039
-0.34085196 -0.04457521 0.68190545 0.19672522 -0.164855 -0.28750613 0.7455209 1.0180893
-0.66008997 -0.04553962 -1.5848323 0.7840167 1.1282645 0.38392353 0.42155716 -0.93434274
00000000: 62f7 3a3f 5626 7e3f bcb9 a3be f38e e63e
00000010: 865d e83e 303b f33e a2d9 c1bc 9e08 e43e
00000020: e103 c53e c491 d13e 0cf8 c4be 41ac eebd
00000030: daf4 8dbd c568 7dbe 6ded 1e3f 8c77 003f
00000040: 7cd1 debe 4493 0b3f dd79 c4be db32 1cbf
00000050: 0ab1 123d f00e 303f 0c23 0abf 8134 bb3e
00000060: 3671 2bbe 7987 0a3f aabf 893e 5082 b0be
00000070: 7e80 3abf 14f9 90be 0c1f 8cbe f76e 86bd
00000080: 3a53 643e d2cd 9a3d dbf7 2d3f a291 9e3d
00000090: 7cc2 d33d a8ed 6cbd c84e 73bd 29c3 bfbe
000000a0: 4196 a53c fcd3 9c3f 5f66 7cbe ea75 863f
000000b0: bfcb 38be 1d38 e43c e189 4fbe e289 d3bf
000000c0: 584e e7bc 7bcd 8b3f b4dd 893d c860 93be
000000d0: 5ddf 4c3f 9800 103f 0d78 213f 3ecc 833f
000000e0: d61c c53e 3678 a7be bcea 07be 3397 3b3e
000000f0: a30d b03f 60d6 e0be 623f adbf 062d 093e
00000100: 63a8 09be 90f9 d53e 26a5 39be 3d26 8b3d
00000110: 9ae9 c2bd fee8 9e3e 0535 f4be b397 6cbd
00000120: 0325 11be f230 25bf c79e 9b3d 30c2 a6bc
00000130: f610 213d af81 9ebd 8dea 6d3e b7de a13f
00000140: 6608 a73e b6e5 873e 80c5 763e 4f18 1ebd
00000150: 1df9 e3bc 0c58 7c3e da8e f03e 9f46 31be
00000160: 9cd1 a1bd b857 0bbd 54f2 653e 182f b23d
00000170: 0438 c5bd 4a53 8d3f 6206 313e 0356 10be
00000180: be40 99be b1d8 a63f 252f ec3e 51a4 1bbe
00000190: 507e c2be 0cc1 dc3c 71ac d43e 59e1 183e
000001a0: bbd3 debe c1e8 56bd 3d61 7abf f444 34bf
000001b0: 4b62 74bc 95a4 913e 4174 a53d 7115 f2bd
000001c0: a501 cd3e 87f7 1d3f f776 babd bac0 5fbd
000001d0: 4a86 b23e ada8 b33d 7ec4 7e3e cf90 883d
000001e0: 7dfc df3d e93f bf3c 3cd0 523f b196 b03d
000001f0: 0687 2dbd b898 0c3e e2a4 b7be de7e 493f
00000200: 3e4b 72bf 3074 71bd b3e2 ce3e 207c 8ebe
00000210: dd44 273e 5ce2 7abe 0168 8e3f 8a7f ad3e
00000220: 32c5 6ebe 45e7 893f 6d84 0f3f 0c5b fcbe
00000230: 50d0 2e3f 98b9 15bf af0c 303f 4d34 ae3e
00000240: e00c d9bd 8a28 11bf 899e 6dbb 0a2a 55bf
00000250: c02b 82be 0e17 aabe 6210 b23e a801 16c0
00000260: 48ff 013e 1755 abbe b8f3 aa3f dbd1 3cbe
00000270: 9bee afbf 21cd eb3d eca2 c53d 1102 9d3f
00000280: 40ca 0d3d 4a3b 12bf 9dde 98bd d2d1 f03e
00000290: 6c83 05bf 1675 8a3e 535a b9bf c34a 193e
000002a0: a290 8f3f a61e 9d3e 0e46 0c3e 3abb 1d3f
000002b0: 3907 013c 98cb 973e 6759 5dbf 9ce3 93bf
000002c0: 172e 58bd f121 b2bf 79e1 58bf e51b ac3d
000002d0: 4431 d2bd 13c8 86bf 8586 b33e 25b7 30bf
000002e0: 651d ba3e d22d c63e 33a7 8f3d 5df7 86be
000002f0: 3e42 8d3f 730d 3e3f e415 cd3f d8a4 01bf
00000300: da46 47bf ebf7 023f b128 fc3e e212 053f
00000310: d869 8fbe aa7f 243f 4244 803d eae4 45be
00000320: 1eb0 62bf 6248 87bd 6dc4 61bf 4ba7 0dbf
00000330: 7eea a83e 7a75 f83c 101e 90be 6406 6dbf
00000340: f771 6dbe 85b8 61bf 7cdc dc3e 9f08 113d
00000350: babe d33d b43a 423e 24ed 76bf ab1a 373e
00000360: c9ed 993e 452c 11be c3c0 a43b 33eb a8bf
00000370: 7243 eb39 8f08 d3bf 34ac 7cbe adaf 8a3e
00000380: 24d0 2f3f 83b4 89bf 7622 2e3f a878 373e
00000390: e9bf 1a3e 0517 713f 8126 a93e d561 bb3d
000003a0: f277 1bbe 7af1 b33d ff8c 1e3f e57f ddbe
000003b0: da15 cb3e ad1b d3be 850c 073f fcb8 7d3f
000003c0: 2684 aebe 7f94 36bd 5b91 2e3f 5672 493e
000003d0: c0cf 28be 0134 93be 75da 3e3f c050 823f
000003e0: a8fb 28bf c187 3abd c9db cabf 52b5 483f
000003f0: f96a 903f a091 c43e 57d6 d73e 1631 6fbf

model.2.bias f4 [128]
-0.00588013 -0.21991855 0.06597667 0.38505757 -0.17176998 -0.22631088 0.2769883 -0.38278124
-0.3803745 0.07055274 -0.53405523 0.46829233 -0.1988653 -0.24844067 -0.20908536 0.2982634
0.58704185 -0.37216118 0.21153373 -0.0407983 -0.27627292 -0.038974475 -0.49259585 -0.18364587
-0.15079239 0.047324467 0.03156269 -0.04001566 0.10589287 -0.12580197 0.046451982 0.021826835
0.07646434 -0.15697591 -0.1696267 -0.36224937 0.11476264 0.42476195 0.26341677 -0.0676565
-0.29135138 0.31887078 0.16939865 0.2601679 -0.07826763 -0.25357917 0.2639485 0.0039885105
0.0034389647 0.08995141 -0.32854348 -0.23367424 0.40913126 -0.033873696 -0.23095159 -0.04222825
0.33624107 -0.13247369 0.122234605 0.22039187 -0.35902372 -0.068728685 0.07791304 0.5231446
0.097623296 0.112876594 0.16085108 -0.05317416 -0.199936 0.13141638 -0.31624275 -0.10462555
0.11649755 -0.12297459 -0.0025807084 -0.11634288 -0.1455033 -0.00819887 0.0375454 0.0033697253
-0.260524 -0.27200273 -0.08967387 -0.12758565 0.18885614 0.037418924 -0.34498757 0.28764245
0.11736565 0.19139099 -0.01925985 -0.20910577 -0.018990705 0.012138031 -0.0043345136 0.02972007
0.059139255 -0.43052807 0.2657419 -0.037555955 -0.2701619 0.3532532 -0.4038693 -0.16044806
-0.2555991 0.12458444 -0.49006328 0.4449137 -0.24514611 -0.21950552 -0.0972516 0.10450289
-0.047114886 -0.022629006 0.52582896 0.15632837 -0.15592511 -0.019418575 -0.1926896 0.48043075
-0.038665365 0.08320667 -0.03545132 0.07647033 0.059825506 -0.28919864 -0.1547871 0.26864833
00000000: 1bae c0bb 5432 61be c71e 873d 4426 c53e
00000010: 78e4 2fbe 0abe 67be 69d1 8d3e e7fb c3be
00000020: 72c0 c2be f47d 903d d8b7 08bf 03c4 ef3e
00000030: 58a3 4bbe 3b67 7ebe 791a 56be fbb5 983e
00000040: 6048 163f e98b bebe 4c9c 583e 1e1c 27bd
00000050: a573 8dbe b3a3 1fbd 8635 fcbe aa0d 3cbe
00000060: 5269 1abe 4dd7 413d e147 013d 76e7 23bd
00000070: 5cde d83d 3bd2 00be 6f44 3e3d 31ce b23c
00000080: 5699 9c3d 4bbe 20be 9fb2 2dbe c078 b9be
00000090: ad08 eb3d 667a d93e 90de 863e 7e8f 8abd
000000a0: 022c 95be 0843 a33e d776 2d3e ba34 853e
000000b0: c74a a0bd 21d5 81be 4224 873e 0db2 823b
000000c0: 4160 613b 7238 b83d da36 a8be 4d48 6fbe
000000d0: a779 d13e 25bf 0abd 937e 6cbe 88f7 2cbd
000000e0: ca27 ac3e 2fa7 07be 2356 fa3d 68ae 613e
000000f0: f5d1 b7be a0c1 8cbd df90 9f3d ceec 053f
00000100: b9ee c73d d82b e73d 25b6 243e 26cd 59bd
00000110: 06bc 4cbe 0492 063e 92ea a1be ec45 d6bd
00000120: 4496 ee3d 1ada fbbd 1a21 29bb 2d45 eebd
00000130: d1fe 14be 8e54 06bc 35c9 193d 9cd6 5c3b
00000140: 6763 85be f143 8bbe efa6 b7bd d0a5 02be
00000150: 8163 413e 9644 193d 36a2 b0be df45 933e
00000160: 675d f03d 00fc 433e d5c6 9dbc d31f 56be
00000170: 6592 9bbc 98de 463c 8908 8ebb 8177 f33c
00000180: 013c 723d 2d6e dcbe 530f 883e 46d4 19bd
00000190: a952 8abe 9add b43e f5c7 cebe 7f4c 24be
000001a0: e3dd 82be 2026 ff3d 93e9 fabe bacb e33e
000001b0: 9507 7bbe 0ec6 60be d92b c7bd 9c05 d63d
000001c0: 8afb 40bd 7760 b9bc ba9c 063f 8b14 203e
000001d0: d5aa 1fbe b413 9fbc 6c50 45be 05fb f53e
000001e0: 935f 1ebd 4268 aa3d 6735 11bd 7a9c 9c3d
000001f0: 970b 753d d811 94be 8280 1ebe 468c 893e

model.4.weight f4 [5, 128]
1.9356567 -1.1101601 -0.12697445 1.0599599 -0.61004126 -0.76373893 -2.0578654 -1.136064
-2.8439696 0.5019737 5.582185 0.95220196 -2.0313666 -0.73697674 -1.1045936 2.4218893
1.4428579 -1.8654553 -0.46499303 0.09469225 -1.6687738 -3.0328996 -0.70384526 0.5400751
-0.90346354 -0.006130199 0.7451959 -0.872598 0.17286605 -0.44328424 -1.7719822 -0.71491057
-0.4354865 -0.9863783 0.11715653 3.9134614 -3.4050682 0.72138834 1.5458077 -2.642208
-0.23226419 2.3690245 1.8983208 2.6422446 -0.07892606 -0.3427597 2.0986562 -1.619136
3.1450653 -1.790498 -2.1318862 -1.3793497 1.3087767 -0.12081939 0.93984985 -0.54263276
2.7394385 -1.4677318 0.43568343 2.0166812 -2.139625 0.8672164 -2.5274732 -3.981612
-1.5707113 1.2576619 2.0284624 0.67039776 0.82657444 -2.0782423 4.539909 -3.5057697
-0.9709123 -0.112231836 1.2863103 2.1874757 -2.595817 0.90705645 0.51024026 -2.5536942
-0.31063527 -0.65581673 1.2266648 0.28330132 1.1048378 1.9013367 0.6209406 0.42342862
-1.719181 1.5128877 -0.29598147 0.97568816 -0.9238146 0.4336492 -0.27411112 -3.116802
0.036326285 0.6748353 4.000045 -0.9107049 -0.7837794 2.0411525 -1.0561705 1.5894208
-1.3625144 1.21294 -1.8355815 3.099773 0.5861827 -2.428855 -0.044304132 -0.910394
1.3084989 -1.0213963 3.1539562 0.7853945 -0.44119525 2.564927 -1.1991521 -0.5667988
2.3139918 -0.72919226 0.97657657 0.5555551 0.005647987 -0.41630882 -0.6196284 3.4100704
0.1740071 -1.7857932 -1.9014308 1.6217818 -2.1749582 -0.65837604 4.066935 -0.8638803
-1.1787341 3.3255155 -0.77525073 -0.7244426 -1.8030734 3.1922503 -1.3353186 -1.1703174
1.1367532 -0.43629715 1.0494202 -4.4788575 -1.3474733 2.2570112 1.0266745 -1.1539139
-0.73493975 1.3079051 0.41698346 -0.019784546 -0.40735543 2.0708961 -4.7030663 -2.1886125
-1.5188097 0.57358915 -2.3849237 -0.9304746 -2.7335067 -3.3173037 1.4128716 0.40873674
-0.5666921 0.43803957 -4.480789 1.3791494 -0.33194843 -0.42038596 -1.1181062 0.089851744
-0.15974781 0.8232706 -1.7199001 1.601958 1.4148428 -2.956837 -1.5752525 -1.4470148
0.5399497 -2.3158686 -1.5203489 2.4783473 -0.68605065 1.7065579 -0.7226956 1.8042251
-2.335594 -5.866916 2.1169388 -2.9869974 0.4450932 -3.4861684 0.106596164 0.4594247
-0.36916566 4.1229987 1.993422 -0.30955616 0.11578856 1.7195613 -1.9398242 -0.3577467
3.5839496 -0.6265298 0.74568826 -2.803452 2.1478431 0.1369192 0.9018435 -0.5383056
-2.041924 -0.69804853 -2.0493777 -3.1684475 1.2534108 1.6835531 5.974634 -0.04105636
2.0974789 -0.99617845 -2.5001233 -3.2415962 -2.2041078 -0.7225031 2.6185598 -2.5038435
-0.8794613 -1.7252524 -0.65518403 1.4091332 -2.870353 -0.876659 3.0481617 -1.9009345
0.056728892 1.5239972 2.025011 1.8963184 -2.3853903 -0.8419767 -1.1783847 -0.61969215
2.9632335 -0.05148075 1.8469452 0.38652518 -3.1078422 -0.060170747 -0.83606845 -0.6934244
00000000: 99c3 f73f ba19 8ebf 9705 02be c4ac 873f
00000010: aa2b 1cbf 6584 43bf 11b4 03c0 8c6a 91bf
00000020: 9903 36c0 5981 003f 42a1 b240 82c3 733f
00000030: e901 02c0 82aa 3cbf 5363 8dbf 3c00 1b40
00000040: 91af b83f 3dc7 eebf 9113 eebe 03ee c13d
00000050: 619a d5bf 071b 42c0 342f 34bf 5d42 0a3f
00000060: 6349 67bf d6df c8bb 29c5 3e3f 9562 5fbf
00000070: cc03 313e 27f6 e2be 50d0 e2bf 6104 37bf
00000080: 16f8 debe 4a83 7cbf c3ef ef3d 2776 7a40
00000090: a3ec 59c0 e8ac 383f 07dd c53f f019 29c0
000000a0: aad6 6dbe 199e 1740 2dfc f23f 891a 2940
000000b0: fca3 a1bd 337e afbe 6250 0640 d93f cfbf
000000c0: c048 4940 0a2f e5bf d370 08c0 888e b0bf
000000d0: ff85 a73f 2870 f7bd 009a 703f fbe9 0abf
000000e0: f652 2f40 a3de bbbf e611 df3e 4e11 0140
000000f0: 9eef 08c0 e501 5e3f 1fc2 21c0 bbd2 7ec0
00000100: 110d c9bf 11fb a03f 54d2 0140 309f 2b3f
00000110: 629a 533f ec01 05c0 ef46 9140 885e 60c0
00000120: b58d 78bf ced9 e5bd d1a5 a43f 9aff 0b40
00000130: de21 26c0 da34 683f 1b9f 023f ba6f 23c0
00000140: 960b 9fbe 9be3 27bf 5a03 9d3f df0c 913e
00000150: 536b 8d3f 005f f33f f7f5 1e3f a3cb d83e
00000160: 1f0e dcbf 4ea6 c13f e28a 97be b3c6 793f
00000170: 1d7f 6cbf 4507 de3e 4b58 8cbe af79 47c0
00000180: dfca 143d 02c2 2c3f 5e00 8040 f523 69bf
00000190: c4a5 48bf 3ea2 0240 9830 87bf 2472 cb3f
000001a0: df66 aebf 9e41 9b3f 56f4 eabf ae62 4640
000001b0: 1210 163f 5c72 1bc0 4078 35bd 950f 69bf
000001c0: e47c a73f 1dbd 82bf 6bda 4940 9d0f 493f
000001d0: 58e4 e1be c427 2440 d17d 99bf ba19 11bf
000001e0: 7118 1440 58ac 3abf ec00 7a3f dc38 0e3f
000001f0: c012 b93b 6e26 d5be f89f 1ebf 983e 5a40
00000200: eb2e 323e df94 e4bf 1662 f3bf 8c96 cf3f
00000210: 8432 0bc0 558b 28bf 5524 8240 4227 5dbf
00000220: c2e0 96bf 3fd5 5440 d576 46bf 1275 39bf
00000230: 1ccb e6bf d44d 4c40 b8eb aabf f6cc 95bf
00000240: 2181 913f 5762 dfbe 6753 863f cd52 8fc0
00000250: 017a acbf df72 1040 126a 833f 73b3 93bf
00000260: 0325 3cbf 6f69 a73f db7e d53e 3313 a2bc
00000270: e490 d0be 9089 0440 857f 96c0 3a12 0cc0
00000280: 5b68 c2bf bdd6 123f 97a2 18c0 9533 6ebf
00000290: c6f1 2ec0 b44e 54c0 fad8 b43f f145 d13e
000002a0: bc12 11bf b946 e03e a062 8fc0 f887 b03f
000002b0: 25f5 a9be d43c d7be 1b1e 8fbf 3104 b83d
000002c0: ee94 23be ddc1 523f b025 dcbf f60c cd3f
000002d0: 9219 b53f d13c 3dc0 e0a1 c9bf c837 b9bf
000002e0: 253a 0a3f 3137 14c0 cb9a c2bf 3e9d 1e40
000002f0: 04a1 2fbf 7d70 da3f 9402 39bf d9f0 e63f
00000300: 5f7a 15c0 c7bd bbc0 ed7b 0740 f72a 3fc0
00000310: 42e3 e33e 621d 5fc0 174f da3d b739 eb3e
00000320: 4803 bdbe 9bef 8340 7428 ff3f 257e 9ebe
00000330: 8d22 ed3d 961a dc3f 294c f8bf 932a b7be
00000340: 6e5f 6540 4264 20bf 6de5 3e3f c26b 33c0
00000350: 4376 0940 8c34 0c3e 37df 663f 65ce 09bf
00000360: e2ae 02c0 4fb3 32bf 0129 03c0 d8c7 4ac0
00000370: c46f a03f ab7e d73f 3430 bf40 b72a 28bd
00000380: 183d 0640 8d05 7fbf 0502 20c0 5076 4fc0
00000390: 1a10 0dc0 f7f5 38bf 7c96 2740 f93e 20c0
000003a0: 6024 61bf 12d5 dcbf 24ba 27bf 7a5e b43f
000003b0: ddb3 37c0 b96c 60bf 1515 4340 d251 f3bf
000003c0: 8e5c 683d 5712 c33f c899 0140 90ba f23f
000003d0: 3caa 18c0 c98b 57bf 4fd5 96bf 25a4 1ebf
000003e0: 9ea5 3d40 7bdd 52bd b368 ec3f a1e6 c53e
000003f0: e3e6 46c0 9a75 76bd 9508 56bf 4384 31bf

model.4.bias f4 [5]
1.9752247 0.7889882 0.10102638 -0.06982915 -0.60599184
00000000: 2ad4 fc3f 21fb 493f ebe6 ce3d 9602 8fbd
00000010: 4822 1bbf
