results/palindrome/rql_6.pt (torch, 84325 bytes, 6 tensors)

model.0.weight f4 [128, 25]
000000 ee 46 1b be a8 34 80 3e 0f 67 8b c0 fe 2b 91 3f
       -0.15163776 0.25040174 -4.3563304 1.134155
000010 3f 9e 9f 3e 17 39 2e bd 65 0b b0 bd fc 61 05 3c
       0.3117542 -0.042534914 -0.08595923 0.008141037
000020 19 4f 35 3d 09 c9 bb 3c 11 30 2c bd 08 70 ce bc
       0.044264887 0.02292301 -0.042038027 -0.025199905
000030 c5 cf ff 3b 3e 11 ae 3c 03 93 bd bd 18 a7 54 ba
       0.0078067505 0.021248456 -0.09256556 -0.0008112057
000040 21 e7 19 3d c1 48 fb 3c 32 97 aa 3c 81 d8 35 3c
       0.037573937 0.03067434 0.020824049 0.011098982
000050 6b 16 99 3c a3 d9 ea bb f6 4b cf 3c 54 25 29 3c
       0.018687448 -0.0071670576 0.025304776 0.010323841
000060 23 f0 83 3c 3a 12 10 3f 14 0a 85 c0 b4 41 11 be
       0.016105717 0.5627781 -4.1574802 -0.1418522
000070 3e 4c ee 3f 06 8a 4d c0 97 5f ba be eb da 9c be
       1.8617017 -3.2115493 -0.36401054 -0.3063577
000080 74 65 1a bd 30 93 22 bb 85 c3 76 3d 1e 94 50 bc
       -0.03769441 -0.002480697 0.060245056 -0.012730626
000090 97 1e 56 bd 2e 73 9a 3b ee 7f 94 3a 1a e5 fd 3c
       -0.052275266 0.0047134375 0.001132963 0.030993033
0000a0 ea db 58 3c f6 54 da 3c 8e 40 bf bc 9a 91 a7 bd
       0.013236025 0.02665184 -0.023346212 -0.08182068
0000b0 23 6b 06 be 7c 13 b8 3c 67 f7 50 bb e7 b9 c2 bd
       -0.13126807 0.022470228 -0.0031885745 -0.09508114
0000c0 aa ba c1 3c ed 20 f7 3d 0e 78 c8 3f 64 f4 05 c0
       0.023648579 0.12066827 1.5661638 -2.0930414
0000d0 be 08 08 40 ed 51 9e bf 94 c1 82 c0 92 82 05 3f
       2.1255336 -1.2368752 -4.08613 0.5215236
0000e0 5c e8 5c 3e 8e 88 8a 3d f7 cf 81 bd f6 c3 95 3c
       0.21573013 0.06764327 -0.06338494 0.018281918
0000f0 3a 55 a2 3d 50 92 e2 3c 87 39 48 bd 2b 9d f3 bd
       0.07926412 0.027657658 -0.048882987 -0.11895212
000100 0b 45 84 3e 24 bc 71 bd 2b a1 da bb bd 11 c6 bc
       0.25833926 -0.059017316 -0.0066720448 -0.02417838
000110 07 e8 95 bc 7e f8 13 3c 50 46 a4 3b 20 f1 a6 3d
       -0.018299116 0.009031413 0.0050132647 0.0815146
000120 24 9e 0d be af 10 90 3d 2f 1e aa 3d 6e eb 53 be
       -0.13829857 0.07034432 0.08306538 -0.20695278
000130 70 20 66 3e 9a 64 de 3e 0a 0c 8d 40 4b 47 32 3f
       0.22473311 0.43436128 4.4077196 0.69640034
000140 5a 50 cc 3d 21 b6 89 3e 76 c7 48 3c c5 0e ab bc
       0.09976263 0.26896766 0.012254586 -0.020881066
000150 e4 87 bd bc 55 6a 25 3d 05 a1 25 3d 32 87 2b bc
       -0.023136087 0.04038461 0.040436763 -0.010469245
000160 87 e6 21 bd 56 cf 9c 39 4c b0 0d bd ec f0 df 3c
       -0.03952649 0.00029909116 -0.034591958 0.02733656
000170 b9 1f 8e 3a e8 33 2c bc 16 18 81 be e6 c9 f8 ba
       0.0010843194 -0.010510422 -0.2521369 -0.0018981069
000180 21 ff 22 3d 56 bf 36 3c 47 92 1c 3d 69 f3 d1 bc
       0.03979409 0.0111540165 0.03822544 -0.025628762
000190 9f 9c 03 c0 bc 4a d3 3d 96 0a 2e c0 01 0d 23 3f
       -2.0564344 0.10316989 -2.719396 0.6369172
0001a0 d2 7b d3 40 f0 a7 22 3e 35 2a a4 3e 87 20 e7 3e
       6.608865 0.15884376 0.3206345 0.45142004
0001b0 b8 04 40 3f 28 f3 24 3f e4 ab fe be 10 f5 7a 3e
       0.750072 0.64433527 -0.49740517 0.24507546
0001c0 77 d4 1d bd 49 9b 25 3e 71 40 c2 be 5d e3 a3 bb
       -0.0385327 0.16172518 -0.3793979 -0.005001469
0001d0 2e e7 36 bf 5b 04 36 3f 7e 61 8f 3f 41 7d 48 3f
       -0.714465 0.71100396 1.1201627 0.7831612
0001e0 48 de b0 3e d5 f7 46 3d 46 a8 89 be 92 c7 f4 3f
       0.34544587 0.048576195 -0.26886195 1.9123404
0001f0 67 77 11 bf 04 5f 11 3d cb 33 a0 bf 37 f0 0f 3f
       -0.5682282 0.035491005 -1.2515806 0.56225914
000200 66 64 91 bb 99 34 c7 3f 69 df ce 3e 45 79 aa 3e
       -0.0044370173 1.5562927 0.40404823 0.33295646
000210 cb cf 1a be 5f d9 e4 3e 56 f5 ee 3d 49 0a 37 3f
       -0.15118329 0.4469709 0.11667888 0.7150007
000220 4a e5 69 3f 37 47 ef bc 3b 54 3d bd db 2e 31 bf
       0.9136549 -0.029208763 -0.046222907 -0.6921212
000230 3c f1 c6 3d a0 e3 f6 3e 3b a5 c4 3e c1 2c 81 3c
       0.097139806 0.4822054 0.3840731 0.01576841
000240 d4 71 2b bf 63 ba 2b bf 75 bf d4 be a1 e1 e1 be
       -0.6697056 -0.6708128 -0.4155232 -0.44117454
000250 4e 3a c3 be 3c 76 43 be dc 9c 4b 40 2e f6 51 bf
       -0.3813042 -0.19088072 3.181449 -0.82016265
000260 0e 47 e0 3e aa 7a 4b 40 07 1c 05 40 69 00 93 3f
       0.4380421 3.1793618 2.0798357 1.14845
000270 e7 ea a9 3f a1 b7 8a ba 03 8a 91 3e 51 bd 79 be
       1.3274812 -0.001058329 0.28425607 -0.24388625
000280 78 17 02 3f 8f 35 ba 3b 75 17 04 3f c7 74 37 3e
       0.5081706 0.005682654 0.5159829 0.17915641
000290 b4 39 1b 3e 5a e8 d4 3e 2c 05 72 be 44 d8 de be
       0.15158731 0.4158352 -0.23634785 -0.43524373
0002a0 cf 4a 3e be 9c 92 85 3e c4 99 f2 3d d8 39 df 3d
       -0.18583225 0.26088417 0.11845735 0.10899705
0002b0 cd c0 de 3d 03 66 1f be 5a 10 bd be ce 6d 2d 3f
       0.108766176 -0.15566258 -0.36926538 0.67745674
0002c0 79 c1 fe 3f bf 0a 7e bf d0 74 8c be 93 a4 07 3f
       1.9902793 -0.9923515 -0.2743287 0.52985495
0002d0 0f 8b d3 3e f5 49 a2 3e f5 76 78 bb b8 c4 f1 be
       0.4131703 0.3169705 -0.00379127 -0.47220397
0002e0 e3 11 9b be 59 7c 00 3f d5 20 22 be 8c 5d 90 3f
       -0.30287084 0.5018974 -0.15832837 1.1278548
0002f0 3a 21 21 3d 0e 98 1b 3e 2b b7 14 bf c0 78 aa 3d
       0.039338328 0.15194723 -0.5809199 0.083238125
000300 b7 c1 0e be b2 94 b2 3f d6 0f 05 3f 93 03 53 3f
       -0.13941084 1.3951628 0.5197729 0.8242733
000310 6d 4f bd be 74 56 b4 3d 27 8d e0 be e0 fd af 3f
       -0.3697466 0.08805552 -0.4385769 1.3749352
000320 a7 65 1f 40 87 5b 0a 3f b4 52 44 40 ab 48 52 be
       2.4905794 0.5404591 3.0675478 -0.20535533
000330 1c 4f d6 3f d1 9d 89 be 76 79 f1 be 9e 0b 64 3e
       1.6742892 -0.26878217 -0.4716298 0.22270057
000340 f8 e9 fb 3e 10 8f 82 3d bc 6f a0 be 25 33 a6 3e
       0.49201941 0.06374943 -0.31335247 0.32460895
000350 b9 2b ba 3e 95 d8 ba be 9b 9a 21 3f 0b b6 1e 3f
       0.36361483 -0.36493364 0.63126534 0.61996526
000360 c2 a8 30 3f 7f d7 f9 bd de e9 11 3f 02 92 81 3f
       0.69007504 -0.12199306 0.5699748 1.0122683
000370 b8 c7 ec 3e 3d 4f ec bd ae 3f 17 3f e0 a2 e9 be
       0.46246123 -0.11538551 0.5908154 -0.45632076
000380 ac 20 47 be 22 aa ba bf cc dc e7 bf 56 66 7a bf
       -0.19446057 -1.458317 -1.8114257 -0.978124
000390 29 68 a3 3f b3 ac b3 c0 f1 35 95 bf 1b 86 97 bf
       1.2766162 -5.6148314 -1.1657087 -1.1837801
0003a0 e2 72 bb 3e 66 0b 5d be 6b 6d 0b bd 60 dc af 3c
       0.36611086 -0.2158638 -0.034039896 0.021467388
0003b0 46 2f fe 3d d6 27 36 be c6 48 bb be ad 47 80 be
       0.124113604 -0.17788634 -0.3657896 -0.25054684
0003c0 82 8c 11 3e ae 26 da be 5e 42 1e 3e 18 fa e2 3c
       0.14213756 -0.42607635 0.15455005 0.027707145
0003d0 33 40 be 3c 6b 75 24 be 80 7c a2 3d a6 45 f7 bc
       0.023223972 -0.16060416 0.07933903 -0.030184578
0003e0 2d 3e ff 3d 42 22 38 3e c2 d5 e0 bf bc d0 01 bd
       0.12463031 0.17981818 -1.7565234 -0.031693205
0003f0 4e a2 50 3e b7 2f 0e bf 27 14 11 41 e0 b5 63 3f
       0.20374414 -0.5554156 9.06742 0.88949394

model.0.bias f4 [128]
000000 8e 50 55 be 22 12 5c be a0 e7 c8 3e ee 7c f1 3e
       -0.2083151 -0.21491292 0.39239216 0.47165626
000010 80 dd 08 3e d5 2d ef 3e c7 ab 9b 3f fc de 93 3d
       0.13365746 0.46714655 1.2161797 0.07220265
000020 56 50 29 bf 51 02 99 bf 72 53 5f 3f a8 31 70 3f
       -0.6613821 -1.1953832 0.872367 0.9382577
000030 6d 57 9b bf 23 14 83 bf 16 03 f7 3e 13 0b d6 bd
       -1.2136055 -1.024052 0.48244542 -0.10451331
000040 15 cc dd 3d 3b a7 dd be 76 c8 07 3e 98 df ef bd
       0.10829941 -0.4329165 0.13260064 -0.11712569
000050 69 3a a8 3e c8 c6 b1 3f 95 1a 97 3f f6 b1 6d 3f
       0.32857063 1.3888788 1.1804987 0.9284967
000060 98 54 95 bf 9a c9 c8 3e 99 bc 7d 3e 11 0d d5 bf
       -1.1666441 0.3921631 0.24778976 -1.6644613
000070 c1 c6 b3 3d 2c c8 47 3e ed 69 5f 3d 4c c0 7b 3e
       0.08778144 0.19509953 0.054544378 0.24585074
000080 6d 52 01 3e f0 d3 5a bf 6a bb 8f bf 90 54 3b 3e
       0.12629099 -0.8547964 -1.1229069 0.18293977
000090 4f f5 23 3e ef d2 79 3e 22 ec d1 be 9f 3a 77 be
       0.16011547 0.24396871 -0.41000468 -0.24143456
0000a0 c5 a9 b0 be 80 1d 0a 3d 52 77 a4 bf 25 02 23 bd
       -0.34504524 0.03371954 -1.2848914 -0.039796967
0000b0 be 22 83 bf a6 dc 09 3f 8d 11 83 3c e8 26 c4 3e
       -1.0244977 0.5385231 0.01599958 0.38310933
0000c0 13 db 5e 3f 9d 5d 86 3f da 35 8c bd 6b 8e 40 3c
       0.8705303 1.0497319 -0.06846209 0.011752705
0000d0 49 ee 8e be d1 f1 0f 3f 17 05 fe 3d 20 71 5e bf
       -0.27916172 0.5622836 0.124033146 -0.86891365
0000e0 8f 90 b5 3d 76 28 b8 3f 15 6d 7e 3f df eb b7 3e
       0.08865463 1.4387348 0.99385196 0.35922143
0000f0 6f 91 bc be 3c f5 8f bf 91 8d 17 3f ce 65 53 bd
       -0.36829707 -1.1246715 0.5920039 -0.05161076
000100 1c e9 88 3e 36 0d 9c 3e fc c5 fe bd c4 32 b1 be
       0.26740348 0.3047883 -0.12440106 -0.34609044
000110 ab db ff be 89 06 03 be 4a a4 19 3f 95 71 09 c0
       -0.4997228 -0.12795462 0.6001631 -2.1475575
000120 7c 51 7a be 65 da 11 bf fe 49 48 bd ce ce 2d 3f
       -0.24445146 -0.5697387 -0.04889869 0.67893684
000130 fa b5 fb 3c f7 41 b7 3f fa 86 0d 3f 50 a6 a9 be
       0.030726422 1.4317006 0.5528408 -0.331347
000140 55 c3 ea be b1 8e 7f 3e 6c 49 60 bd 51 74 ff 3e
       -0.45852152 0.24956776 -0.05475752 0.4989343
000150 7c d8 ae be fd 33 7a bf ff f2 07 3e cc 3b 17 3e
       -0.3414954 -0.9773558 0.1327629 0.14768904
000160 f8 d8 7a 3e 7f 99 b5 3e f2 12 bf 3d 20 fd 9b 3f
       0.2449683 0.3546867 0.093297854 1.2186623
000170 99 1e 34 be d9 f0 03 3e 3d 03 81 bf ce e1 9a 3e
       -0.17589797 0.12884845 -1.0079113 0.302504
000180 b6 ad 00 3f d8 91 97 be d5 33 65 3d f3 0d 84 3f
       0.5026506 -0.29603457 0.055957634 1.0316757
000190 67 1d 26 bf 2f 39 0a 3f b3 22 2f bf 78 17 27 3f
       -0.64888614 0.53993505 -0.6841232 0.65270185
0001a0 03 ed 9c be dd b7 cf be 87 0b b7 3f af 76 e8 3e
       -0.30649576 -0.40569964 1.4300393 0.45403048
0001b0 c6 f0 a3 3d 9f 7e 11 bf ae b6 c6 3e 26 2f f2 3e
       0.08004908 -0.56833833 0.3881125 0.47301596
0001c0 8f 53 f8 3d 7d 9e d1 3e b7 30 05 be 43 e9 a8 3f
       0.121253125 0.4094123 -0.13006864 1.3196186
0001d0 be dd bd be 72 b2 cb 3e 7c d7 06 3d 93 0d 58 bf
       -0.37083238 0.3978458 0.032920346 -0.8439571
0001e0 f3 eb d8 3c 55 d6 95 3d 2b 9b 91 bd 77 48 15 bf
       0.026479697 0.07316271 -0.07109674 -0.583137
0001f0 fa 2e c0 be 63 9f 87 bf 31 72 82 bf b3 8a d9 be
       -0.3753584 -1.0595516 -1.0191098 -0.42488632

model.2.weight f4 [128, 128]
000000 94 28 89 bf 3e 37 f0 3f 5d 54 df 3e c4 24 07 3f
       -1.0715508 1.8766859 0.43619052 0.52790475
000010 b8 48 bd 3f 0e cd 17 3f 27 31 43 bf 49 41 16 3d
       1.4787817 0.59297264 -0.76246876 0.036683355
000020 0e 29 19 3f de 6a ce bc 1d d5 f2 3f 17 af 10 bf
       0.5982827 -0.025197443 1.8971287 -0.56517166
000030 8c 49 60 3f 6b a9 66 be 1a 7e a1 bd 4d 46 fd 3d
       0.87612224 -0.22525565 -0.0788538 0.123669244
000040 89 c4 25 be b2 95 3e bd 8d dd e5 bd c6 6a 72 3e
       -0.16188253 -0.04652948 -0.11223898 0.23673543
000050 e2 60 ec be bd 52 48 3f 93 3e 62 3e 6b bf 31 3e
       -0.46167666 0.7825125 0.22094183 0.17358176
000060 8a 63 63 3e 7b fd 9b be 6b 76 17 3e 61 9f cd 3d
       0.2220594 -0.30466828 0.14791267 0.10040165
000070 87 3d 20 40 99 95 0e 3f a2 1b 53 3f 5f e0 fa 3f
       2.5037553 0.5569702 0.8246404 1.9599723
000080 86 33 6a 3f 4c ae b2 be e8 c4 d2 be 71 4c 09 3d
       0.9148487 -0.34898603 -0.41165853 0.033520166
000090 92 e3 b1 be ba b3 ec be 4b 40 d2 3e aa c1 f8 3e
       -0.34743935 -0.4623087 0.41064677 0.48585254
0000a0 48 e4 ec 3e 98 4e 94 bd 17 53 d5 bc eb 35 09 3e
       0.46267915 -0.07241553 -0.026040597 0.13399474
0000b0 5a ec 35 be 60 7c 39 be bd 6a 3c 40 02 2a 07 be
       -0.17765942 -0.18113852 2.9440148 -0.13199618
0000c0 5d 00 71 bf da b8 7e 3f 33 57 d9 3e 79 71 c1 3f
       -0.9414118 0.9950081 0.4244934 1.5112754
0000d0 ea f0 96 bf b1 41 04 3e 8f 18 b5 bf 74 3d ed be
       -1.1792271 0.12915684 -1.414812 -0.46335948
0000e0 ad d8 2a bf 73 5b 3f bd 7d 29 b5 3d 1c 15 07 40
       -0.6673687 -0.046718072 0.08845804 2.1106634
0000f0 cb 38 72 bd a3 7c 5b bd 21 9a 29 3f fa 9d 30 bf
       -0.059136193 -0.05358566 0.6625081 -0.68991053
000100 36 e2 9b 3f 2a 1f ff 3d ef b4 9b bf 56 44 24 3d
       1.2178409 0.12457116 -1.2164592 0.040104233
000110 5c 2d 85 be 41 22 86 bf c1 9b c4 3e 29 a0 e6 3d
       -0.2601117 -1.0479203 0.3840008 0.11261017
000120 0e d3 d0 be 79 7a 36 3f f5 c1 20 be 43 b8 0b be
       -0.40786022 0.7128063 -0.15698989 -0.13644509
000130 b2 b8 c6 bc 75 c4 92 3d d7 93 85 3f b6 02 e7 3d
       -0.024257991 0.071663775 1.0435742 0.11279814
000140 c3 7d dc 3f b1 92 c5 be ee 2a d0 be 20 00 05 bf
       1.722588 -0.3858848 -0.40657753 -0.51953316
000150 01 14 81 3f 26 29 57 bf ec 15 d4 3e af b1 b1 3e
       1.008423 -0.8404716 0.41422975 0.34705874
000160 ba 10 31 bf 15 5f 48 3f 52 79 32 3f 9a 8a d2 3f
       -0.6916615 0.78270084 0.6971637 1.6448548
000170 df f0 e1 bf 46 cc 0c 3e 68 57 16 bf 1c 50 eb 3e
       -1.7651633 0.13749799 -0.5872712 0.45959556
000180 d7 08 00 bf ed 50 e1 bf 02 3a 7a 3e d0 ad ee 3e
       -0.5001349 -1.7602822 0.2443619 0.46616983
000190 91 b2 57 3f 32 e6 13 bf 7d 5c bb 3f 7d 71 21 be
       0.84256846 -0.57773125 1.46376 -0.15765949
0001a0 9f e6 61 3e f5 ef 89 3e de 9a 45 bc dd 75 8b 3f
       0.22060631 0.26940885 -0.012060849 1.0895344
0001b0 5e 57 69 be 22 5c 57 3e a7 8a 02 3e 3e c9 35 3e
       -0.22787234 0.2103124 0.12748204 0.17752549
0001c0 c2 ed e0 3e fe ee c7 bc 4b 52 91 3f 48 1f 38 3e
       0.43931395 -0.024405953 1.1353239 0.17980683
0001d0 e0 0b ba 3e 6d 06 ff 3e a2 be 8b 3c 2d d4 c9 3e
       0.36337185 0.4980959 0.017058674 0.3941969
0001e0 32 02 80 3f 7a c2 5a bf a2 ef 82 be 18 ca 22 be
       1.000067 -0.85453 -0.2557345 -0.15897405
0001f0 d3 be 16 be 83 e1 c1 3f 2d 1c 14 be 5a f8 aa be
       -0.14721231 1.5146946 -0.14463873 -0.33392602
000200 5d d6 07 40 11 32 f4 3f 9a ed 8f bf d4 06 19 3f
       2.1224587 1.9077779 -1.1244385 0.59776044
000210 c9 92 48 3f 83 56 82 3e e5 5c 5c be bd df 12 be
       0.78348976 0.25456628 -0.21519811 -0.14343162
000220 73 eb 28 bf e4 48 dd 3e ba 37 ca bf bf a7 29 3f
       -0.65984267 0.43219674 -1.5798256 0.66271585
000230 26 a0 a6 3f 8b 90 8d bd d7 27 5d 3f 15 52 cc 3d
       1.3017623 -0.06912335 0.86388916 0.099765934
000240 b9 55 9f 3e 4a d7 d2 3d ca c4 40 be b1 dd b8 be
       0.3112009 0.102949694 -0.18825069 -0.36106637
000250 13 53 e4 be 0f 4b f2 be 19 03 99 be 82 2c 05 bf
       -0.4459463 -0.4732289 -0.29885176 -0.5202104
000260 34 c1 da 3e 52 ae e6 3c 17 5e 4a 3e eb 1e 0d 3f
       0.42725527 0.028159294 0.19762455 0.551253
000270 5d f8 fd 3e c5 9f 53 be bd ce 82 be b9 8c af 3e
       0.4960355 -0.20666416 -0.25548354 0.3428705
000280 c5 f0 04 3f ae 3b b3 3e 8e 4a 4b bd 40 8c 34 3f
       0.51929885 0.3500647 -0.049631648 0.70526505
000290 2d de 97 3f 7b fb 5c 3e 60 9b 34 bf bf 4e bd be
       1.1864678 0.21580307 -0.70549583 -0.3697414
0002a0 da 28 15 bf 1b a7 c7 3c 46 4a 01 3e 92 fa 25 3e
       -0.5826546 0.024371674 0.1262599 0.16208866
0002b0 5e 4c 65 be c4 70 be be 3b 7f 47 3e 68 1a 8c be
       -0.22392413 -0.37195408 0.19482128 -0.27363896
0002c0 5a 6f f4 3e 31 5e b0 3f ae 18 31 3e 8c c0 01 bf
       0.47741205 1.3778745 0.17294571 -0.5068443
0002d0 5f 9a 12 3f 63 53 e0 be 8b 37 9c 3e aa 07 31 bf
       0.572668 -0.4381362 0.30511126 -0.6915232
0002e0 e6 95 f9 be 83 d1 2f bf 8b 1c 65 be 50 b4 85 be
       -0.48747176 -0.68679065 -0.2237417 -0.2611413
0002f0 4f 40 d8 3e e6 5a aa 3e 13 2d 27 3e ec f0 d7 3e
       0.42236564 0.33272475 0.16325788 0.42175996
000300 be ec 85 3d 46 eb e8 3e cc 28 24 bf ce c7 99 be
       0.065392956 0.45492 -0.6412475 -0.3003525
000310 ba a8 50 be be ea 1e be 04 48 08 bf c4 14 e1 3d
       -0.20376864 -0.15519235 -0.5323489 0.10990289
000320 e7 5e e6 3c ee 2b a1 3f 72 dd f7 be ce 39 57 3e
       0.028121425 1.2591531 -0.48411137 0.21018144
000330 b2 b4 25 be d9 03 ae 3f ce 74 03 3e 86 f1 eb 3e
       -0.16182211 1.3594924 0.12837526 0.46082705
000340 04 57 80 3e 11 f4 45 3f 94 13 2a be e7 ac e9 3e
       0.25066388 0.7732554 -0.16609031 0.45639727
000350 38 99 17 be b5 05 18 40 e6 ec 24 be ed 07 4d 3f
       -0.14804542 2.3753483 -0.16105995 0.8009022
000360 0e 56 5a bf 1f 95 70 3e 65 b8 8c 3f 89 89 bf 3f
       -0.8528756 0.23494385 1.0993773 1.4963847
000370 cb 4c 9c bf 77 74 11 3f 7e f9 4f 3f 9a 63 b9 be
       -1.2210935 0.56818336 0.8124007 -0.36208802
000380 3e 84 cc be b6 c0 94 3e 9a 6e ae be fc a3 12 bf
       -0.39944643 0.29053277 -0.34068757 -0.5728147
000390 25 1f 98 3e e0 db f2 bd 69 65 3b be a1 89 85 3e
       0.2971126 -0.11858344 -0.18300404 0.26081565
0003a0 b3 81 05 3e d9 2b 5b 3d 63 a4 7e be 23 20 02 bf
       0.13037758 0.053508613 -0.24867396 -0.50830287
0003b0 2e 90 89 3e 08 8d c4 be 44 32 65 3e 30 80 6b 3e
       0.26867813 -0.38388848 0.22382456 0.22998118
0003c0 a2 fe 13 be 86 5d d2 3e 9a 12 c6 be 6d 7a 17 be
       -0.14452603 0.41086978 -0.38686067 -0.14792795
0003d0 dc 4e 56 3e 24 bc e7 bf 2e 58 4f bf 63 fb c3 3e
       0.2092852 -1.8104291 -0.80993927 0.3827773
0003e0 05 98 cb 3c b5 d5 15 bf 2e a1 e4 3d 8c 45 ef 3d
       0.024852762 -0.58529216 0.11163555 0.11683187
0003f0 73 e5 41 bf f2 6f a6 be f3 56 9a 3f 33 03 0e bf
       -0.75740737 -0.32507282 1.2057785 -0.5547363

model.2.bias f4 [128]
000000 67 5e a5 bd 75 7a bf be 2a 51 11 be dd 5b b5 3e
       -0.080746464 -0.37398115 -0.14191118 0.3542165
000010 46 d3 6d bd ac da 89 be e8 91 f8 bd 5b 07 aa 3e
       -0.058062814 -0.26924646 -0.121372044 0.33208737
000020 91 15 94 bd f8 b5 ea bc 16 88 b0 3d c0 cf 0a be
       -0.07230676 -0.028651223 0.08619706 -0.13555813
000030 8f f7 a5 be ca ee b7 3e e4 92 d1 be f4 a4 99 3d
       -0.32415435 0.3592437 -0.4093238 0.075021654
000040 24 4a cf 3e bb 65 aa be a6 1b 46 3d 3a 6c 7c be
       0.40486252 -0.3328074 0.04836621 -0.2465066
000050 d7 f7 9b be 87 78 aa be 69 dd 29 be 48 ea e4 be
       -0.30462524 -0.3329508 -0.16588368 -0.44709992
000060 14 4d a2 3d 6d 30 f2 3c f8 8e 01 bd 96 e0 91 3e
       0.07924858 0.029564107 -0.031630486 0.28491658
000070 82 9b 3a be 5a 47 89 be e2 b2 39 bd d0 b4 e2 3d
       -0.18223384 -0.2681225 -0.04533661 0.110696435
000080 c1 d2 28 3e a3 43 34 be 2c b1 f0 3d a1 6e f1 3d
       0.16486646 -0.17603926 0.11752543 0.11788679
000090 9e 1b 89 be 03 47 5e be ac e3 a9 3d 95 f6 e7 3d
       -0.26778883 -0.21706776 0.08295378 0.11326329
0000a0 78 9c cb be 6d a3 8e be 0c 73 30 3e 9c 37 d4 bc
       -0.39767814 -0.2785906 0.17231387 -0.025905423
0000b0 a4 df 03 3f c8 ad 11 bf 83 e7 0c 3e 23 26 21 bd
       0.51513124 -0.56905794 0.1376019 -0.03934301
0000c0 81 1f 87 3a c8 b6 95 3e 4a 13 fc 3d 5b 5b 7b 3e
       0.0010309072 0.29241014 0.123083666 0.24546568
0000d0 61 5d 28 be ff ee 62 3e d8 c6 1c 3e 71 e3 1d 3e
       -0.16441871 0.22161482 0.15310228 0.15418793
0000e0 0a 30 38 be 4d f0 ce bd 7d 73 e9 3d 89 ff f4 3e
       -0.17987075 -0.101044275 0.11398981 0.47851208
0000f0 5d e6 d6 bd 70 91 68 3e 90 e5 69 bd 21 17 83 bb
       -0.10493157 0.2271173 -0.057103693 -0.00400056
000100 17 c6 87 be 6d c5 a1 be 88 b9 69 3e 4a cb ba bd
       -0.26518318 -0.31595936 0.22824681 -0.091208056
000110 3a 93 26 be 14 51 f8 3c 50 e8 08 3f c0 40 93 bd
       -0.162671 0.030312099 0.5347948 -0.071900845
000120 a4 88 92 be d3 7a ba 3e 6c 3e 6e 3e 4a f4 85 3e
       -0.28619874 0.36421832 0.23266 0.2616294
000130 8b 6a 5a 3d e4 3e 42 3d 65 82 20 be 30 bc 2d 3f
       0.053324264 0.04742326 -0.15674742 0.67865276
000140 51 22 0e be e1 b9 93 be 11 69 a7 be 4b fb 5a be
       -0.13880278 -0.28852752 -0.32697347 -0.21384923
000150 a7 1a 34 3e 77 b5 48 3e c2 f4 bd 3e 29 85 03 3f
       0.17588292 0.19600473 0.37100798 0.5137506
000160 9b 2f cb 3e dc 2e 9d 3e 4b 3d b2 3e 4f 9d a2 3e
       0.39684758 0.30699813 0.34812388 0.31760642
000170 17 d8 de 3e 7a 2e 22 be cd fb 07 3e 03 79 bb bd
       0.43524238 -0.15838042 0.13279648 -0.091539405
000180 5b 90 9e be 8c 01 ab 3d a8 e1 e8 be 4e 14 9a be
       -0.3096951 0.083499044 -0.45484662 -0.30093616
000190 92 c4 15 bf 15 35 83 bd 04 08 72 3e e9 9b dc 3c
       -0.5850307 -0.06406609 0.2363587 0.026929813
0001a0 50 c1 3e be ee 38 f2 3d 5e 4c 92 3d bf 73 a2 bd
       -0.1862843 0.11827265 0.07143472 -0.07932233
0001b0 17 c4 9d be 98 d9 e6 3d 82 17 16 be 47 b3 89 3e
       -0.30813667 0.112719715 -0.14657405 0.2689459
0001c0 ad 8f 21 3e 09 d9 66 3e a4 28 01 3e 74 4a 3a be
       0.15777464 0.2254373 0.1261316 -0.18192464
0001d0 11 51 f5 3d 41 a6 04 3e e7 fe 04 3e 4c b4 3a be
       0.11978353 0.12954046 0.12987863 -0.1823284
0001e0 d9 d1 44 be 15 fb 1f bf c6 cf b0 be 1c e1 9c 3e
       -0.19220676 -0.62492496 -0.3453352 0.30640495
0001f0 ff f2 c8 bd c5 d8 a6 bd 7c d0 94 be 1a 11 89 be
       -0.09811973 -0.08146814 -0.2906531 -0.2677086

model.4.weight f4 [5, 128]
000000 f3 ca 16 3f 02 b3 91 be 8f ff 3b c0 95 d7 89 3e
       0.58903426 -0.28456885 -2.937473 0.2692229
000010 0f 89 46 3f 55 f1 87 bf 49 20 65 bf d9 be 32 bf
       0.77552885 -1.0620524 -0.8950239 -0.6982246
000020 02 f0 eb 3e 0b cc 29 bf 6f 5a 29 40 cc 78 15 c0
       0.4608155 -0.6632697 2.6461446 -2.3354979
000030 f7 8e d2 bf 7b 04 08 40 c2 73 7b c0 1a 4b 1d bf
       -1.644988 2.1252735 -3.9289403 -0.6144272
000040 0c 2e 08 40 2b 81 a2 be 07 dc fe 3d 5c 5f 71 bf
       2.1278105 -0.31739172 0.12444311 -0.9428613
000050 a1 2f 94 bf 2a 11 3d c0 72 6b 67 3e 23 9c a7 bf
       -1.1577035 -2.9541726 0.22599581 -1.3094524
000060 55 28 68 40 39 54 59 40 84 17 b6 3f b9 21 1f 3f
       3.6274617 3.3957655 1.4225926 0.6216083
000070 05 68 02 40 4a 71 da bf 19 33 88 bf 7a 43 fc 3f
       2.0375988 -1.7065823 -1.0640594 1.9708092
000080 68 c7 b2 3f 59 7c 90 bf ee c0 6d 3e af 0f ef bf
       1.3967104 -1.1287948 0.23218128 -1.8676661
000090 15 5d 3c c0 6f 25 f4 bf 6d 24 23 be a7 29 92 3e
       -2.9431813 -1.9073924 -0.15931864 0.28547403
0000a0 da a7 7a 3f 7b a0 46 3f 8c cd 03 bf 75 64 d6 bf
       0.9791237 0.77588624 -0.51485515 -1.6749407
0000b0 cd c0 86 3f b3 de dc 40 20 88 26 3f 85 02 93 bf
       1.0527588 6.902185 0.6505146 -1.1485144
0000c0 5c 5b 1d 40 3e 64 87 3f de 19 02 c0 ba 44 e4 bf
       2.4587011 1.0577466 -2.0328288 -1.7833474
0000d0 bc 13 9f bf e4 da 27 3f 38 c2 5f bf 45 73 1c 3c
       -1.2427897 0.65568376 -0.8740573 0.009548967
0000e0 b4 96 3a be 1f 69 03 3f 10 e2 09 c0 e8 2f b4 3e
       -0.18221551 0.5133228 -2.1544228 0.351928
0000f0 ae 9b ea 3f 97 54 09 40 74 59 6a 3f b2 26 fa be
       1.832876 2.145788 0.91542745 -0.48857647
000100 c9 fe 2b bf 38 ed bc bf 6a 13 d6 3f 68 ca 3d c0
       -0.67185646 -1.4759893 1.6724675 -2.965479
000110 9e 08 a9 be 07 c2 ff bd 6f 76 ac 40 c5 f9 8e bf
       -0.33014387 -0.1248818 5.389457 -1.1169974
000120 98 0b be 3f 11 c2 40 bd bf 84 0c bf 3f cf f2 3f
       1.4847288 -0.047060076 -0.54890054 1.8969496
000130 a2 0a a4 3e fe 0c 1d c0 94 6f 9b 3f 84 96 97 3f
       0.32039362 -2.453918 1.2143426 1.1842809
000140 ce 83 de be 98 29 3e c0 90 7e 56 bf 79 5b 4f 3d
       -0.43459934 -2.9712887 -0.8378687 0.050624344
000150 86 a5 21 c0 6e 4f ac 3f 73 dd a1 c0 87 76 4c c0
       -2.5257277 1.346174 -5.0582824 -3.1947343
000160 f1 e8 31 bd 57 86 2c c0 34 2f a0 3f 1f e3 75 40
       -0.04343504 -2.6956995 1.2514405 3.8419874
000170 1a e3 43 40 6c 7b b3 be a6 4b 8d bf 6b 5c a6 bf
       3.0607362 -0.350551 -1.1038711 -1.2996954
000180 33 80 d4 bf c8 0b 34 c0 a3 2e 10 c0 c9 68 8f bf
       -1.6601623 -2.813219 -2.2528465 -1.1203853
000190 90 d2 da bf ed af 73 3e 19 55 2e 3e e0 91 9a bf
       -1.7095509 0.23797579 0.1702465 -1.2075768
0001a0 ad 9a b1 bd a4 e8 4d 3f a4 e2 03 bf b9 9d fd bf
       -0.0867208 0.80433106 -0.515177 -1.9813758
0001b0 5b 5d 22 be 5b 70 05 c0 c7 bd cc be 54 fa e6 3f
       -0.15855925 -2.0849826 -0.3998854 1.8045144
0001c0 33 80 c2 3f 87 03 45 40 dd e4 7d 3f 29 9f 9b 3e
       1.5195373 3.0783403 0.9917734 0.30394867
0001d0 7a 6b 6c 40 d7 52 c9 be 5f 2c ce 3e 87 be 33 bf
       3.6940598 -0.39321014 0.40268227 -0.70212597
0001e0 c6 28 d7 3e 81 bc 52 3e f1 26 83 bf ab 90 cf bf
       0.42023295 0.20579721 -1.0246259 -1.6216024
0001f0 0d 59 b8 bf f1 36 86 bf 12 b6 ad bf 7b 51 ce bf
       -1.4402176 -1.0485517 -1.3571188 -1.6118616
000200 04 64 ab 3e b8 5a 9d bf a9 a8 09 c0 71 eb 69 bf
       0.33474743 -1.229331 -2.1509192 -0.9137488
000210 69 df 37 c0 eb 7a 09 bf 2c fb f1 bf ae c7 19 c0
       -2.8730109 -0.5370318 -1.8904777 -2.4028125
000220 0a e0 f6 3e b6 e1 12 40 a0 af 36 40 12 ee 5e bf
       0.48217803 2.2950263 2.8544693 -0.87082016
000230 78 ac 12 bf 5b bc 33 bf 1c e0 7f bf 27 43 c7 be
       -0.57294416 -0.7020928 -0.9995134 -0.3891842
000240 05 ec ce 3f 99 62 d4 3e 15 0d 86 c0 d0 39 bd be
       1.6165777 0.41481474 -4.189097 -0.3695817
000250 67 ca 33 c0 77 a8 b6 be a5 32 9c 40 3d 4e d3 bf
       -2.8092287 -0.35675403 4.881182 -1.6508251
000260 44 fd 40 c0 01 e3 51 bf 10 12 6f 40 9e 2f ff bf
       -3.015458 -0.81987005 3.7354774 -1.9936407
000270 02 5e 91 be fe ea 35 c0 40 4a 31 bf f2 87 91 3f
       -0.28392035 -2.8424678 -0.6925392 1.1369612
000280 ab 17 db 3f b3 cb 40 bf 28 59 d1 3f e1 de df 3f
       1.7116598 -0.7531082 1.6355333 1.7489892
000290 31 f1 a6 bf 44 8c 64 c0 5f ea 02 40 3d 16 85 be
       -1.3042356 -3.5710611 2.0455549 -0.2599353
0002a0 14 92 55 bf bf 24 34 bf 99 56 35 3f 63 d3 b7 bf
       -0.8342602 -0.7036857 0.7083526 -1.4361385
0002b0 a5 23 fe 3f 30 e8 8e bf d0 f5 35 c0 4d d3 08 3e
       1.9854628 -1.1164608 -2.8431282 0.13361855
0002c0 12 9e 00 40 8a a3 1d 3f 63 7a e2 bf 14 1e 78 40
       2.0096478 0.61577666 -1.76936 3.8768358
0002d0 f8 b8 89 3e 2f 31 a3 3f a0 0f 5e bd 87 6f df 3f
       0.26898932 1.2749385 -0.05421412 1.745591
0002e0 9d b7 59 c0 18 42 df bf a3 bf bb bf 96 78 16 c0
       -3.4018319 -1.7442045 -1.4667858 -2.35111
0002f0 3a 24 82 3f 7c c4 6a c0 e2 29 e5 3f 69 4c 84 3e
       1.0167305 -3.6682425 1.7903407 0.25839546
000300 6b a8 c3 40 3b d5 7b 40 dd a3 af 3f e5 70 79 3f
       6.114309 3.9348896 1.3721882 0.9743789
000310 f7 bf 4e 40 6a c2 09 c0 6b 6b ff 3f 46 c7 1a be
       3.2304666 -2.152491 1.9954656 -0.1511508
000320 22 31 cc bd 38 e2 47 c0 47 0a db 3f 02 7b a5 be
       -0.09970309 -3.1231823 1.7112511 -0.3232041
000330 29 2b 7c c0 c0 dc 4e c0 c0 a0 42 c0 23 26 7c 3f
       -3.9401343 -3.2322235 -3.0410614 0.9849569
000340 49 e5 06 be 47 ae 07 40 f0 db a7 bf 9e 49 83 40
       -0.13173403 2.120012 -1.3113995 4.1027365
000350 67 03 0e 3f 60 56 02 40 51 db 33 3f e4 87 47 40
       0.5547394 2.036522 0.70256525 3.117669
000360 d7 7a 6e bf d3 39 9f 3e 99 e2 9e 3f 42 4c 89 3e
       -0.9315619 0.31098804 1.2412902 0.26815993
000370 90 83 e4 3c 01 25 de bf 2d b6 95 c0 bb 51 d2 3f
       0.027894765 -1.7355043 -4.6784883 1.6431192
000380 c4 e9 ea 3e df 10 31 bf f1 53 9e bf bc e7 1a 40
       0.45881474 -0.6916637 -1.2369367 2.420394
000390 ca 95 9d bf 93 db 3d c0 27 6a 28 40 dd cb ef 3f
       -1.2311337 -2.9665267 2.631479 1.8734089
0003a0 ce b2 aa 3f 50 5a 03 40 29 5a 74 be 6a 38 34 be
       1.3335817 2.0523872 -0.23862518 -0.17599645
0003b0 b0 f4 56 bf 3c 77 0e c0 71 e7 6f 3f c0 83 e9 3f
       -0.83967113 -2.2260275 0.93712527 1.8243332
0003c0 af cd 93 be 65 f4 01 40 2d 74 ea 3f 8b 96 02 40
       -0.28867862 2.0305417 1.8316704 2.0404384
0003d0 35 94 f9 3f 82 50 cb bf 30 bd 4c c0 1c 74 01 c0
       1.9498354 -1.5883944 -3.199047 -2.0227118
0003e0 de 49 56 c0 59 8a 5b c0 95 bf e5 bf 62 b5 92 40
       -3.3482585 -3.430319 -1.7949091 4.5846415
0003f0 bd 42 bf be 8c b1 15 bf 27 e3 06 40 08 43 83 3e
       -0.37355605 -0.5847404 2.1076143 0.25637078

model.4.bias f4 [5]
000000 31 ea 98 3f c4 0b 52 3f 7e f1 87 3f 8d 18 e7 bc
       1.194647 0.820492 1.0620573 -0.028209949
000010 88 8f d0 be
       -0.40734506
