results/palindrome/rql_1.pt (torch, 84325 bytes, 6 tensors)

model.0.weight f4 [128, 25]
00000000: 088a 03c0 015b cabf 6117 a7bf 5710 2f3f
00000010: 8431 1440 ef1b 333f 4557 133f e493 7ebe
00000020: 2426 03be a90b c33d 7a81 a93a 8530 2f3e
00000030: 48cf 99be 9727 0b3f 7508 d6bd 5807 0ebe
00000040: 6a11 8abf fd13 65be 5888 98be 624a 7bbd
00000050: cf7f d63e 5659 973f 05f6 383e b6d3 163f
00000060: 830c 41bf 7b84 023e 4223 b2bf 8974 e5be
00000070: e209 3f3e 25dd 2b40 6a0c a83e 128b 063e
00000080: 7ff7 823f 84d5 b33f 6719 773f 2ff6 593f
00000090: d461 c23f 688d 3a3f 36c5 443f c0dd d03f
000000a0: 2631 363f 53ad f53e 38a5 8f3f 93fb dd3e
000000b0: 9c51 5a3f d9a0 ce3f 8690 9f3e 7246 073f
000000c0: 0484 6e3f 2866 6c3f c2b6 b0bd e47b ff3f
000000d0: 6146 d8bf 0aeb 703d b9fb 6b40 4db8 eb3d
000000e0: 0e99 113d 0238 be3e 0865 38bf cfff 973e
000000f0: c7c1 f03d 2bfc d53d 0d82 513f d406 ddbd
00000100: 550c 17bf 47de 4e3e 4752 46bf d993 c4bd
00000110: 442d 34bf 6fd3 403e 9818 13c0 f72d 5cbe
00000120: 3be0 76bf 012e b8be 289f 45bd 2ddd 4a3f
00000130: a332 a3bf b101 a1bf ca71 f9be e31d 5140
00000140: 01b2 823f d7c4 4c3f 72f4 94bd f535 0e3f
00000150: f967 93be e192 2a39 01e2 5abc 38e2 1fbd
00000160: 0210 1bbf b6e6 57bd efef 423e 7c62 cabd
00000170: 62df 383d 8349 f5be 489f 06be 7f58 113d
00000180: 29ca 833e 1178 0b3d d400 80bf c99a 423e
00000190: 86fd 0b40 f189 0d40 e419 05be 718d b03e
000001a0: 4d84 95bf c82a dabd e4a4 25be 099e a0bf
000001b0: e8b5 9dbf daae 97bf ac3f 95bf 9e41 a7bf
000001c0: 0fe7 c9bf e696 0dc0 91e3 9abf a907 eebf
000001d0: 046e 95bf 1669 e4bf c11b c7bf 14cb 07c0
000001e0: 1c37 91bf 9de5 f4bf 2b28 2cbf c0c4 e8bf
000001f0: 8485 9fbf fd35 393f 7b89 cb3f e9ad 15bf
00000200: 588a 0440 87ca 4a40 58d8 7dbd fbbc 223e
00000210: 7e29 91be 84e6 b83d 2442 773e 2843 e73d
00000220: 3277 043f 28d9 25be 1d1a 3cbd 86ab f23e
00000230: ce61 2d3e d29a 29bf fcf9 dcbe 0386 17bf
00000240: f405 813e c074 4e3e 215b 94be 28e6 f23e
00000250: c223 ef3e 44ab 36bf bad9 b3be 4e9a b7bf
00000260: 4e5c 0a40 52e0 d03e 6854 2841 c340 963f
00000270: 1b84 a03f 0758 d13c 8c76 aa3c a6bf 2cbd
00000280: 2e64 07be c335 58bd 8588 df3c afce 1a3d
00000290: 11d1 a7bd 27a6 e1bd 9de8 343d a1b6 ce3c
000002a0: 099b f4bc ba88 c03c 40a6 f83d b6ae b9bd
000002b0: c946 4dbd f2ed 63bd 06f7 c83d 7965 a33f
000002c0: 3003 12c0 deb2 cabe 4757 68bd 871f 9540
000002d0: 0924 e13e 2144 ec3e de9a e3bd 174f f03d
000002e0: 70c9 2bbf 6bfe 8ebe c2c1 05be 97f7 9b3e
000002f0: 99b8 6fbe 5b26 9e3e b702 393d 7d94 89bd
00000300: 949b 08bf 6e46 a23e 39c1 debe db17 51be
00000310: 96dc 11bd b48d 3abf 791f 81be 4cbf 093e
00000320: b833 233e dcee 1abe d49d c640 ffe8 cebd
00000330: 353c 7440 2a18 c7be 3e4c c9be 2b92 47bc
00000340: 9ffa f53b 18ed ff3c 8431 033e 184d ebbc
00000350: e4dc 9abd 73f2 a4bd 6aff 95bd 3b4e 073b
00000360: 78fd e63b a83e 7d3d a063 e2bd 58e3 0d3d
00000370: 9926 2fbc 3992 0f3c 3e73 7ebd 42c1 6abd
00000380: 7702 c4bc 2b56 0d3f fee1 fe3e a864 c13f
00000390: ee8d 983f 2550 9b3f 337e ab3f 6d94 b13f
000003a0: bbcc 993f 8c74 8c3f 5d8d 563f b1e2 343f
000003b0: bf24 323f 6006 923e ca60 893f 30f4 af3f
000003c0: 3f6a 413f 386d 3d3f a92f c03e 8343 4a3f
000003d0: 6117 953f 1a68 fa3f 2357 173e 27f7 333f
000003e0: c3dc c03e daf7 633f b0bc 59c0 61fd 99bd
000003f0: 8566 2b3e ea91 24c0 44d0 bebf c285 cc3f
-2.0552998 -1.5809022 -1.305401 0.6838431 2.3155222 0.699645 0.5755504 -0.24861103
-0.12807518 0.095237084 0.0012932264 0.17108352 -0.30040956 0.54357284 -0.10450832 -0.13869989
-1.0786564 -0.22370906 -0.29791522 -0.061350234 0.41894385 1.1824138 0.18062599 0.58916795
-0.75409716 0.1274585 -1.391701 -0.44815472 0.18656114 2.6853726 0.3282197 0.13138989
1.023178 1.4049535 0.96523136 0.8514127 1.5186105 0.7287202 0.7686342 1.6317673
0.71168745 0.47983798 1.1222296 0.43355998 0.85280776 1.6142837 0.3116495 0.52841866
0.9317019 0.9234338 -0.08628608 1.9959683 -1.6896478 0.0588179 3.687239 0.11509762
0.035546355 0.37152106 -0.7202916 0.29687354 0.1175571 0.10448488 0.81839067 -0.10792318
-0.5900319 0.2020198 -0.77469295 -0.09598512 -0.7038157 0.18830656 -2.298376 -0.21501909
-0.964359 -0.35972598 -0.048247486 0.7924374 -1.2749828 -1.2578641 -0.48719627 3.2674491
1.0210572 0.79987854 -0.07273187 0.5555108 -0.28790262 0.0001626718 -0.013359548 -0.0390341
-0.605713 -0.052710257 0.1903684 -0.09882066 0.04513491 -0.47907647 -0.13146698 0.035484787
0.25740173 0.03405005 -1.0000253 0.19004358 2.1873488 2.2115443 -0.12998158 0.3448291
-1.1681 -0.10652691 -0.16176182 -1.2548229 -1.2321138 -1.1850235 -1.1660056 -1.30669
-1.5773638 -2.212335 -1.2100698 -1.8596088 -1.1674199 -1.784457 -1.5555345 -2.12177
-1.1344943 -1.9132572 -0.6724879 -1.8185043 -1.2462621 0.72348005 1.5901331 -0.5846849
2.0709438 3.1686113 -0.0619739 0.15892403 -0.2835197 0.09028342 0.24146324 0.11292106
0.5174438 -0.1619612 -0.04592334 0.47396487 0.16931841 -0.6625186 -0.43159473 -0.5918886
0.25199854 0.20161724 -0.28975776 0.4744122 0.4670697 -0.7135508 -0.3512705 -1.4343965
2.1618838 0.40796143 10.520607 1.1738514 1.2540315 0.02555467 0.02080848 -0.042174958
-0.1322181 -0.052785646 0.027286777 0.037794765 -0.08194173 -0.11018019 0.04416715 0.025233569
-0.029859083 0.023502696 0.12141085 -0.090665266 -0.050116334 -0.055646844 0.09812741 1.2765342
-2.2814445 -0.3958959 -0.05672386 4.6600986 0.43972805 0.46145728 -0.11113523 0.11733835
-0.67104244 -0.2792848 -0.13062194 0.30462334 -0.23410262 0.30888638 0.045168605 -0.06717775
-0.53362393 0.3169436 -0.43506792 -0.20419256 -0.035610758 -0.7287247 -0.25219324 0.1345188
0.15937698 -0.1513018 6.206766 -0.10103034 3.8161747 -0.38885623 -0.3931598 -0.012180845
0.007506683 0.031240985 0.12811857 -0.028723285 -0.07561663 -0.08054056 -0.07324107 0.0020645994
0.007049259 0.06182733 -0.11054158 0.03464064 -0.010690355 0.00876289 -0.062121622 -0.05731321
-0.023926957 0.55209607 0.49781793 1.5108843 1.1918314 1.2133833 1.3397888 1.3873421
1.2015604 1.0973067 0.83809453 0.70658404 0.6958732 0.2852049 1.0732663 1.3746395
0.75552744 0.7399478 0.37536362 0.79009265 1.164776 1.9563019 0.14779334 0.70299
0.37668428 0.89050066 -3.4021416 -0.07519031 0.16738327 -2.571406 -1.4907308 1.597832

model.0.bias f4 [128]
00000000: 3480 e73e 986a 983e 7257 2d3e 33b0 363f
00000010: 7517 51be 12f7 b0bd af78 8f3f da79 043f
00000020: 03e0 29be 02e9 a13f d648 a83f fd53 103f
00000030: d007 fabf d97c aebe 51b4 51bf f4fc d5bf
00000040: 00ad a13f 8a76 893e dedc d5be 84b2 fdbd
00000050: b7ce cc3c 4799 623d 94d6 833e 7c92 1bbf
00000060: 92db 263e 5171 2abe 87a8 183e 216f 28bf
00000070: f252 ad3e 7a3a adbd c5cc babe 3340 cf3e
00000080: 88d7 8b3e d861 803d 49fe 573e 1a75 173f
00000090: f743 123d aeb3 86bd 519c c83e 08c1 85be
000000a0: eed8 eb3e b9d7 0dbf ffd4 ccbe 031e 45bd
000000b0: 2af4 cebb 422d fe3d c977 5cbf 521e 4bbf
000000c0: c734 a03f 27ba 10bf b451 553e c972 1c3e
000000d0: 350e 13bf 7878 88bd 41b0 8ebf 2f46 8ebb
000000e0: b67c 07bf e1cf e93d b0a1 01bf 1015 c4be
000000f0: deff a8bf 35ba 0d3f 2801 0dbe 52a8 c03e
00000100: 3ea4 bd3e 4c8c 383d 0d42 0d3e 039d a53e
00000110: 3756 66be a38c 1dbe 5d6d 27be 3e70 063e
00000120: fa8a 913d aeed 02bf 6f4c a43d e7a4 e63e
00000130: 564d 30bb 9e05 813e c672 d8bf 4401 a43f
00000140: f205 84be a2bd 953e dbfd 593e 8a0a 0a3d
00000150: e7b2 7bbe 30dc dc3e b5ff ecbd 4da9 003e
00000160: 354b 8abb 6ce3 1d3f 5b3d 1dbe 6705 1bbf
00000170: b0a3 203e 38fd 1abf 41c7 8a3f d66d abbf
00000180: b77f 613f 5613 913d 0e4d b7bf c8f2 ad3f
00000190: a94e a9be 2a02 6abd e1a0 76be 1f48 93bf
000001a0: 31d9 923e 36e7 9cbd e0da 02bd 5444 5fbe
000001b0: 3e92 59bd 3254 993e 89ed d63e 2f90 8cbc
000001c0: 8032 3abf a9e7 53be ed9e bd3e fea1 e33d
000001d0: 20aa e73e 338b 2cbf e261 1d3f 5ba6 393f
000001e0: cd3d d83d c69f 0ebe d4f6 903f 24cb d7be
000001f0: 7ff9 9a3e 8af0 e8be c437 3b3f bca0 3c3e
0.45215 0.29768825 0.16927889 0.7136261 -0.20419104 -0.08640875 1.1208705 0.5174843
-0.1658936 1.2649233 1.3147228 0.56378156 -1.9533634 -0.34079626 -0.81915766 -1.671782
1.263092 0.2684825 -0.4177007 -0.12387565 0.025000913 0.055321958 0.25749648 -0.6077039
0.16294697 -0.1664479 0.14908038 -0.6579457 0.33852345 -0.08458419 -0.36484352 0.40478668
0.27312875 0.06268662 0.21093096 0.5916306 0.035709348 -0.0657724 0.3918176 -0.26123834
0.46063942 -0.5540729 -0.40006253 -0.048124325 -0.0063157277 0.12410976 -0.8612028 -0.7934314
1.2516106 -0.56534046 0.20831949 0.15278162 -0.57443553 -0.066636026 -1.1147538 -0.0043418626
-0.5292467 0.11416603 -0.5063734 -0.3829732 -1.3203084 0.55362254 -0.13769972 0.37628418
0.3703937 0.045055673 0.13794728 0.32346353 -0.22493826 -0.1538568 -0.16350313 0.13128754
0.07106586 -0.5114392 0.08022391 0.45047686 -0.0026901565 0.25199598 -1.6910026 1.2812886
-0.25785786 0.2924624 0.21288244 0.033701457 -0.24579965 0.4313674 -0.1157221 0.12564583
-0.004220391 0.61675143 -0.15355437 -0.6055512 0.15687442 -0.6054263 1.0842057 -1.3392894
0.880855 0.07083766 -1.432039 1.3589716 -0.33067825 -0.05713097 -0.24084808 -1.1506385
0.2868133 -0.076612875 -0.031947017 -0.21803409 -0.053117983 0.29947048 0.419781 -0.017158596
-0.72733307 -0.2069384 0.37035313 0.11114882 0.45246983 -0.673999 0.6147748 0.72519463
0.105586626 -0.13928136 1.1325326 -0.42147171 0.30268475 -0.45496017 0.73131967 0.1842069

model.2.weight f4 [128, 128]
00000000: 9307 fb3e 7f51 1dbf 900f 9f3e a9a7 e13d
00000010: d326 8bbe 4d24 c83e a609 84bf 5a00 78bc
00000020: f39f 20bf 90ac d13d e23f 4b3f f07d 073f
00000030: e307 1b3f 3329 35be 87fa a33e c102 173d
00000040: 32ed b73f c40b d6be 9de0 9ebe 1976 19bf
00000050: f53c 93be 7392 b23d ff98 ee3e f8d0 b4be
00000060: 16c5 39bf dd12 0abf b524 083e 166a 47be
00000070: 7baa 8ebe 8a9c 893f 05c1 b53e f50d 063f
00000080: f919 893e 2ea2 77bf f6e5 2bbf a5c1 fcbe
00000090: 534d b3be 62d2 e43e f3f9 a23e 36f9 b9be
000000a0: bd34 13bd 2621 ff3d 8dd5 8bbe 84f2 45bf
000000b0: 3e36 76bd ec76 5d3b acf3 9abd 58a5 033e
000000c0: 7041 733f 1889 4e3f 2ff7 fe3e d94e 003f
000000d0: f527 913e d3f9 05bf d2e3 5c3e 2d1b f23e
000000e0: f521 d3bd 0db7 1f3d 8d2d 773f 4278 56bf
000000f0: 64b1 b0bd 480a 263f 8443 51be 1616 16bf
00000100: 7624 d8be 3d5c 04bf 6dda 22bf a098 9cbe
00000110: d925 19be 48e5 39bd 3ad6 093f 3c0b 8fbd
00000120: 2c29 243f 7f3d 5f3f a4e5 6fbe 9e9f 0abf
00000130: 5770 b13e 8d36 41bb 7230 093d c864 5dbe
00000140: 0f0b 6f3f 9e82 08bc 469d a0bc ec8b a3be
00000150: c693 87bf 439d c23c 0050 8bbf d81a 10be
00000160: 4f0b 98be b360 84be c3b0 4b3f 09af 803f
00000170: 8608 773f 5068 823f 3660 93be 2813 173c
00000180: f529 9cbf 0a06 17bf 6db0 ad3b 96ea 453f
00000190: 543d 3d3f 7313 6dbe 5715 77bc e2a1 8cbd
000001a0: 8288 d7be ce2b c8bf cb1f c23e 94a7 473e
000001b0: 0fff 7abf 704a 4fbf bbce c33e 2da9 45bf
000001c0: ac40 933f a011 003f 04b5 ea3e 236b 11c0
000001d0: a216 a53e b4cd 32be b197 c5be 4407 0d3d
000001e0: db67 8a3e 9e8a 803e 4555 363f 58a1 90bd
000001f0: fd3c 233f 7dc7 cfbe 3c15 fdbe 5661 abbd
00000200: e267 913e d875 f83e 84e5 0a3e a613 513f
00000210: 9698 00bf 41bd 59be c338 d63e 565f 88be
00000220: b3b9 843f 8f64 843e 40cb 143f 4608 21bc
00000230: f01e 3f3f 2cb8 18be 8917 91bf 538b 34bf
00000240: 4231 163f 899e 523e bb84 bcbe f55c 053f
00000250: fd0c 2fbe d21b 02bf 09f1 7a3d d75a acbe
00000260: 5d31 203f aec9 313d 09e4 0abf efb1 633e
00000270: 1d72 173f 95e1 b5be 9f90 b33e cac4 62bf
00000280: 208b cc3d 832e a93d 9854 a23e c2d1 a83c
00000290: 5f98 52be 6c9b 213d 9393 023f f17a 88bd
000002a0: 7197 b53e fe47 503e 0255 c8be ac67 393e
000002b0: 9682 90be 0a1e 513e 4acb 103b 4502 1bbf
000002c0: 853f 05bf 5779 35be ba03 b93e 3504 97bd
000002d0: 545a 19bf 4a1e 813e e80e b23e bc2f f7be
000002e0: 46bb 54be ab04 bdbd 630d a0bd 2644 8b3e
000002f0: cdba 5fbe cc5a 3d3e 3b39 833e e338 b2bd
00000300: bf84 1c3f 4f83 c1bd 02d5 edbe ed38 1e3e
00000310: 69a6 2abe aa92 553f f4b4 83be d60e 753f
00000320: a032 00bf 85af 9bbe a6bf 4a3d d5bb 0ebf
00000330: d731 86be 6b87 c73e fea1 7fbf c67d 5cbf
00000340: 24d9 de3d 66aa d63e 32a9 e5bd 3d0a f2be
00000350: 6fa4 383f 48fb 303e d565 ce3e 6dbc 84be
00000360: 6d52 a3bd 3bee 87be 98e8 18bf 2d45 a7be
00000370: 4600 353e d669 98bd f08b 473e e9e0 3fbf
00000380: 3ff3 a43c 386e 993e a129 32be 8aef a63d
00000390: dba8 70be 3b6c 803f 1980 0d3e 9aa7 0cbe
000003a0: 6295 5e3f 30c1 e13f fe5a dd3d 2b8d 90bf
000003b0: df76 993d fc6b 283f e8a1 a4be f877 893f
000003c0: 5378 1b3e 586a de3c 84b7 a0bd 22ee 5e3f
000003d0: 8f28 153e 3c86 19be e7c5 e03e b761 eabe
000003e0: 2189 c73d 4870 b53d 1d48 92bf f583 953f
000003f0: c2b1 b2be 7158 0abc 5e92 3dbf 04ac ec3e
0.49029216 -0.6145248 0.3106656 0.11018307 -0.27178058 0.39090195 -1.0315444 -0.015136803
-0.62744063 0.10237992 0.7939435 0.5292654 0.6055891 -0.17691498 0.32027075 0.03686786
1.4369261 -0.4180585 -0.3103074 -0.5994583 -0.28757444 0.08719339 0.46601102 -0.3531568
-0.72566354 -0.53935033 0.13295253 -0.19474062 -0.2786444 1.0750897 0.35498825 0.52365047
0.26777628 -0.9673184 -0.6714777 -0.4936649 -0.3501993 0.4469176 0.3183132 -0.36322945
-0.035938967 0.124574944 -0.27311364 -0.77323174 -0.060110323 0.0033792807 -0.07566008 0.12856042
0.95021725 0.8067794 0.4979796 0.5012031 0.28350797 -0.52334327 0.21571282 0.47286358
-0.10309211 0.03899293 0.9655388 -0.8377725 -0.086275846 0.6485944 -0.20435911 -0.5862745
-0.42215317 -0.51703244 -0.6361454 -0.30585194 -0.14955844 -0.045384675 0.5384251 -0.06984565
0.64125323 0.8720321 -0.23427445 -0.54149806 0.3465602 -0.0029481978 0.033493467 -0.21620476
0.9337625 -0.008331923 -0.019606244 -0.3194269 -1.0591972 0.023756629 -1.0883789 -0.1407274
-0.29696128 -0.25855026 0.7956659 1.0053416 0.9649738 1.0188084 -0.2878434 0.009220876
-1.2200304 -0.5899359 0.0053005726 0.77311075 0.73921704 -0.2315195 -0.015080771 -0.06866814
-0.42096335 -1.5638368 0.3791488 0.1949752 -0.9804544 -0.8097296 0.3824366 -0.77211267
1.1504111 0.50026894 0.4584123 -2.272164 0.3224383 -0.17461282 -0.38592294 0.034430757
0.2703236 0.25105757 0.7122386 -0.07062024 0.63764936 -0.40581885 -0.49430263 -0.08368175
0.2839957 0.48527408 0.13564116 0.81670606 -0.5023283 -0.21263601 0.4184018 -0.26635236
1.0369171 0.2585797 0.58122635 -0.009828633 0.7465658 -0.14914006 -1.1335307 -0.7052509
0.5866891 0.20568289 -0.36820015 0.52094966 -0.17094798 -0.508237 0.061265025 -0.33663055
0.6257532 0.043405227 -0.54254204 0.22235845 0.591585 -0.35523668 0.35071275 -0.88581526
0.099874735 0.082608245 0.31705165 0.020607833 -0.20565937 0.039454862 0.5100643 -0.06664074
0.35467103 0.20339963 -0.39127356 0.18105954 -0.2822463 0.20421615 0.0022093826 -0.6055034
-0.5205005 -0.17722069 0.36135656 -0.07373849 -0.59903455 0.2521842 0.34776998 -0.48278606
-0.20774564 -0.09229406 -0.07815053 0.2720043 -0.21848603 0.18491668 0.256296 -0.087022565
0.61140054 -0.09448873 -0.46451575 0.15451403 -0.16665043 0.83426917 -0.25723994 0.9572576
-0.5007725 -0.30407348 0.049499176 -0.5575536 -0.262099 0.38970503 -0.99856555 -0.86129415
0.1088126 0.4192688 -0.11213912 -0.47273436 0.72125906 0.17283356 0.40312067 -0.25925007
-0.07974706 -0.26548943 -0.5972991 -0.32669964 0.17675886 -0.074420616 0.19486976 -0.7495256
0.02013552 0.29966903 -0.17398693 0.08151157 -0.23501913 1.0033029 0.13818397 -0.1373581
0.8694669 1.7637081 0.10808371 -1.1293081 0.07493376 0.6578977 -0.32154775 1.0739737
0.15182619 0.027150318 -0.07847503 0.8708211 0.14566253 -0.14992613 0.43900988 -0.45777676
0.09742952 0.088593066 -1.1428257 1.1680895 -0.34901243 -0.008443938 -0.74051464 0.46224988

model.2.bias f4 [128]
00000000: e87b 753e f08b 043e 0f95 adbe 01c3 bd3e
00000010: 1b57 dbbd 5224 e13d fcfe 5fbe 19a5 4c3e
00000020: ed97 d63d 6cdd d73c 45c7 34be fba7 033e
00000030: 4f3f 94be 1631 a1bd d9d1 62be 6464 d7be
00000040: 725d 60be 4f49 b4bc 5de0 c1bc 3612 8bbe
00000050: d887 e03c 0ac6 b2bd a1d8 a93e c8f5 143e
00000060: 4fe0 c23e 6e79 303d 6e49 fe3d b941 183e
00000070: 0a95 b33c 2828 973e 9702 463d fcb9 513c
00000080: cff4 903e 4757 363f 0fb7 cb3e fa6b 833d
00000090: eb55 9b3d 38f4 d339 2ec4 56bc 9a91 88be
000000a0: 4cdc 623e debb 05be 1879 823e a46a 8fbd
000000b0: 8f33 d6bc 0960 81be 37df 98bd 51a5 aebd
000000c0: 9ddd 83bc 620b da3e bf9e 0ebe 68ca 1bbe
000000d0: 8c54 20bd d240 823d 25e6 a83e bf24 153e
000000e0: b980 4f3c 3477 07be b81f 77be a051 80bd
000000f0: 153e 5d3d 65e3 d93d 7cd0 e53e cb6e 9cbd
00000100: 9cea 23be 7d98 b6bd cb87 9abe b300 b63d
00000110: 4dd6 813e b2f3 673e e0fa 65be 3955 483d
00000120: 3efd 933e 2eae 053e c6a7 0dbc 902b 2c3e
00000130: 3722 2cbd 8011 463e 2704 093f 108d 803e
00000140: 14ad cd3e 943a 01bc 5f50 86bd 6f3c 0fbf
00000150: 9de5 63bd 108f 8b3e 1ef1 7dbe 4dbb 13bd
00000160: 35ed dd3e e1c1 0c3d 6925 f83e 67d2 91bc
00000170: bc5f bebe ef1a 773d 3faf 7f3e 7157 c03e
00000180: 51c2 16bf c57e 58be e3e5 1fbd 15bc 85be
00000190: 324d babd 61fb adbd 105e 323e 9ccf 98bd
000001a0: 4fee 4a3e 1641 8abe 536b ca3e e5bf 7b3e
000001b0: 9b3c 90be 7afa 573e 92e4 55bd b161 42bc
000001c0: 0bc2 1cbe d12d c23d 11bd ebbd c5b4 7d3e
000001d0: cc27 06be eb87 aabe 5305 c6bc e7d0 eabc
000001e0: 7789 303d 6c84 be3e 32e5 283d 2c32 88bd
000001f0: 14ad e1bd 4f27 0d3f 9aa9 5b3e 183f d53e
0.23973048 0.12944007 -0.33902785 0.3706284 -0.107099734 0.10993256 -0.21874613 0.19984855
0.10478196 0.0263507 -0.1765414 0.12857048 -0.2895455 -0.078706905 -0.22150363 -0.4206878
-0.21910647 -0.022007613 -0.023666555 -0.2716233 0.027408525 -0.08729179 0.33173087 0.14546883
0.3806176 0.043084554 0.12416349 0.14868821 0.021921653 0.29522824 0.048342314 0.01280069
0.28311774 0.71226925 0.397881 0.06417079 0.07584747 0.00040427013 -0.013108296 -0.26673585
0.22154349 -0.13059947 0.25483012 -0.07002762 -0.026147632 -0.25268582 -0.0746445 -0.08527625
-0.016096884 0.4258681 -0.13927744 -0.1521393 -0.03914313 0.0636002 0.32988086 0.14564799
0.012664967 -0.13229066 -0.24133193 -0.06265569 0.054014284 0.10639075 0.44885623 -0.076383196
-0.16007465 -0.089158036 -0.30181727 0.08886852 0.2535881 0.22651556 -0.22458982 0.0489094
0.28904146 0.13054726 -0.008645957 0.16813493 -0.042024817 0.19342613 0.5352196 0.25107622
0.4017111 -0.007887501 -0.06558298 -0.5595159 -0.0556389 0.27257586 -0.2479901 -0.036067296
0.43345037 0.034364585 0.48466042 -0.017800523 -0.37182415 0.06032842 0.24969195 0.37566712
-0.58890253 -0.21142109 -0.039037596 -0.26120058 -0.09096755 -0.08495212 0.17418694 -0.07461473
0.1981747 -0.27002782 0.39535007 0.2458492 -0.28171238 0.21091643 -0.052219935 -0.011864112
-0.15308397 0.09481395 -0.11510671 0.2477599 -0.13101119 -0.33306822 -0.02417246 -0.028664066
0.043099847 0.37210405 0.041234203 -0.066501945 -0.1101934 0.55138105 0.21451417 0.416497

model.4.weight f4 [5, 128]
00000000: 86da f63f 7750 35bf 3b36 8840 54ad 5a40
00000010: 938a 95bf 69ec 1bbf 868e 9d3f 72b1 00c0
00000020: 60ad 3240 99ee e6be 88fa bbbf 9ba7 aabe
00000030: adbc 0ac0 39bd d93f caa6 6fbf 2c4a 5e40
00000040: 30da acbf b670 53c0 1c72 8fbe 2e17 0340
00000050: 2c7e 0f40 8b47 5ebf 0784 4d40 1eff ea3f
00000060: 7b89 94c0 6022 2d3c 45e8 b03e 637a 43c0
00000070: cabf 3bbf 4164 a83f 0512 9a3f bd19 82bf
00000080: a861 e4c0 4471 5fbe 56c5 4a40 7949 aa3f
00000090: 77b5 82bf 60ac 373e 10d7 4240 7eeb 1140
000000a0: 6e6c 0c40 8b9b 403b 9e80 11c0 6468 9cbd
000000b0: 26bd 45be 9f71 c7bd b9a0 2bc0 e17e 323f
000000c0: e172 1e40 c89b 7a3e 44ca 17bf e9ce 95bf
000000d0: 8a28 14c0 bb69 243f d748 7dbf bd37 0540
000000e0: a56d d13f 724f 04c0 f7e3 1cc0 93b7 9abe
000000f0: 935f 46c0 4b50 10c0 a7ff a640 69b5 d5bf
00000100: aa03 42c0 cf6b 44c0 9cfe 1abf 4746 0cc0
00000110: 175a 903e d691 e13e 46e6 54be 5605 ac3e
00000120: e85d b63e 6901 993f 311f abbc 0ecd c13f
00000130: 3d72 95bf b574 bb3f 2659 7bbe e2bb e53f
00000140: 5035 83c0 a750 143f 28b4 eebf 870c 33c0
00000150: 8f94 63c0 3995 3c3f ebd6 0cc0 f045 b83f
00000160: 7969 1340 ef62 f43f 1f40 1f3e b59e b73d
00000170: 282a 7fbe c772 6e3e 26fd 17c0 f269 afbd
00000180: 23e5 0bc0 4e0f 10bf 280c 203f efc9 5640
00000190: 5b85 e43f 699d 4ebe 64a1 cb3e b583 ce3c
000001a0: 6e2a 32be 04e2 b5be 819b 1540 44c7 813f
000001b0: d7ad 38bf 3a73 8b3f 6861 cdbf a8a6 a9bf
000001c0: 8511 8abf 0d93 69bf cfc4 083f cee7 6d3f
000001d0: 94aa f7be 0bc8 dc3b 6e95 f9bf 7af0 fd3e
000001e0: 3815 ce3f a760 5f40 c95e 24c0 7987 c1be
000001f0: a998 0dc0 9f19 5240 6f82 1740 36d0 5e3f
00000200: f1aa 23bf 187f 9e3f 914a 89bf b298 54c0
00000210: 0d4a 5cbe 2f24 64c0 66ea fd3f 0466 c33e
00000220: 2116 34bf b544 6d3e 1af2 5cbe 8779 33c0
00000230: d319 973f dafd b7bf 1593 abbd 1061 22bf
00000240: 99e7 3740 1ba4 2cc0 8875 39bc 0209 8f40
00000250: 1558 e73f 0e2e d83e 2cd0 1140 e8d5 1fc0
00000260: b9b1 d1bf 01d0 fe3f 52b0 bb3e da6f 403f
00000270: 2808 0ec0 2833 ae3f 677f cfbd ce19 2ebe
00000280: 98c5 763f 6fd8 143f 1f6b 993f 3dcb 883f
00000290: 4a80 e9bf 70a0 4e3e d98d 6a40 97c2 0fc0
000002a0: a634 ae3f db8a d73d ecc4 33c0 2304 24bd
000002b0: 952a 113e 8127 1fc0 2054 9dbe 912d bfbe
000002c0: efa7 803f 8a80 813c 5928 8bbf 9734 c43e
000002d0: f05c 56be 6868 0b40 630f 783f 407a d03e
000002e0: bec1 01c0 2aa9 e43e b1c7 a13e ff86 20be
000002f0: 6a6f 0ec0 4086 1b3f 1a4a 9c3f d1de b33f
00000300: a1aa 44c0 98c7 8b40 7e37 6dbf 7b19 123e
00000310: e340 6e3f 2fbf 86c0 0295 a040 c717 c63e
00000320: 67e6 3840 c881 abbf 637c 1b3f 2116 2b40
00000330: ee49 32be 4905 4c3e 12ee 10be b008 6b40
00000340: 6f3d 7a40 f3ca b7c0 1eb6 8e3e 680a 0dbf
00000350: 094e 8240 fd65 c3be fcc3 c83f 6b29 afbf
00000360: e039 a63e 5f7a fb3f 4f1d 243f 2b54 0cc0
00000370: f362 cabf c85b 243f fea1 8f40 9de0 4b3f
00000380: a589 513e 60ed 57bf 957c 2f3f ae52 f43f
00000390: 6d51 03c0 4620 36bf 004d 92be d708 9ebf
000003a0: efbe 13c0 ef33 e9bd 1b84 763f 48dc 2a40
000003b0: e9e9 25bf 9a8d e6be e136 5dbf f6a1 9f3e
000003c0: d285 1ac0 fa0e ce3d 5f44 9fbe c5ec ae3f
000003d0: 1051 1540 5cc9 6740 a72e 52c0 3273 4e40
000003e0: c4c7 4440 e277 58bf 7eb1 bfbf 9222 1f40
000003f0: 361e 37c0 f548 3d3f 7f33 103e dcc2 923f
1.9285438 -0.70825905 4.25662 3.416829 -1.1682914 -0.6090761 1.230912 -2.0108304
2.791832 -0.4510391 -1.4685831 -0.33330998 -2.1677659 1.7010871 -0.93613875 3.473277
-1.3504086 -3.3037543 -0.28016746 2.0482898 2.242076 -0.86827916 3.2111833 1.8359106
-4.6417823 0.010567278 0.34552208 -3.054345 -0.7333952 1.3155595 1.2036749 -1.0164105
-7.136921 -0.21820551 3.1682944 1.3303672 -1.0211629 0.1793685 3.0443764 2.2799983
2.194118 0.0029389586 -2.2734752 -0.076370984 -0.19310436 -0.097384684 -2.6816847 0.6972485
2.4757617 0.24473488 -0.5929301 -1.1703769 -2.3149743 0.6422383 -0.9893927 2.081527
1.6361586 -2.067349 -2.4514139 -0.3021818 -3.0995834 -2.2549007 5.2187076 -1.6695987
-3.0314736 -3.06908 -0.60544753 -2.1917894 0.28193733 0.44056576 -0.20790967 0.3359782
0.3561852 1.1953555 -0.020888897 1.5140703 -1.1675488 1.4644991 -0.24545726 1.7947962
-4.100258 0.57935566 -1.8648729 -2.7976396 -3.5559423 0.73665196 -2.2006176 1.4396343
2.3033125 1.9092692 0.15551804 0.08965818 -0.24918425 0.23285972 -2.374826 -0.08565129
-2.1858604 -0.56273353 0.6251855 3.356075 1.7853197 -0.20177235 0.3977157 0.025209287
-0.17398998 -0.35524 2.3376162 1.0138936 -0.7214026 1.0894539 -1.6045351 -1.3253984
-1.0786597 -0.91240007 0.53425306 0.9293183 -0.48372328 0.006737714 -1.9498727 0.49597532
1.6100225 3.4902742 -2.5682852 -0.3779867 -2.2124426 3.2828138 2.367336 0.87036455
-0.6393271 1.2382536 -1.0725881 -3.3218198 -0.21512623 -3.5647085 1.9837158 0.3816377
-0.70346266 0.23170741 -0.2157673 -2.8042924 1.1804756 -1.4374344 -0.08377663 -0.63429356
2.8735106 -2.6975162 -0.011319526 4.4698496 1.8073756 0.42222637 2.2783308 -2.4974308
-1.6382362 1.9907228 0.3665796 0.7517067 -2.2192478 1.3609362 -0.10131722 -0.17002031
0.96395254 0.5814275 1.1985816 1.0687023 -1.8242276 0.2017839 3.6649077 -2.2462518
1.3609817 0.105245315 -2.8088942 -0.040043008 0.141764 -2.4867861 -0.30728245 -0.37339452
1.0051249 0.015808363 -1.0871688 0.38321373 -0.2093389 2.1782475 0.9689848 0.4071827
-2.02745 0.44660312 0.31597665 -0.15676497 -2.2255502 0.60751724 1.2210114 1.4052373
-3.0729144 4.3681145 -0.926628 0.14267533 0.9306776 -4.210838 5.0181894 0.38690016
2.8890626 -1.3398981 0.60736674 2.6732256 -0.17411014 0.19923891 -0.14153317 3.6724052
3.9099996 -5.743524 0.2787332 -0.55094004 4.072026 -0.38163748 1.568481 -1.3684515
0.3246603 1.964672 0.6410722 -2.1926372 -1.5811447 0.6420255 4.4885244 0.7963961
0.20462663 -0.8434658 0.6854947 1.9087732 -2.0518448 -0.71142995 -0.2857437 -1.2346448
-2.3085287 -0.11386859 0.96295327 2.669695 -0.64810044 -0.45029908 -0.86411864 0.31178254
-2.4144177 0.1006145 -0.3110685 1.3666006 2.3330727 3.621665 -3.2840974 3.225781
3.0746927 -0.84557927 -1.4976041 2.486485 -2.861219 0.7393945 0.14082144 1.1465716

model.4.bias f4 [5]
00000000: 28c2 fe3f 733d 923e 550b d63e 7002 fc3e
00000010: b248 dfbe
1.9903002 0.28562507 0.4180552 0.4922061 -0.4361015
