results/palindrome/rql_7.pt (torch, 84325 bytes, 6 tensors)

model.0.weight f4 [128, 25]
00000000: 56d5 8e3e de92 9ebe 1c4e 77bf 7185 be3d
00000010: 2ea2 913d cc21 943d 3afc 983e ed63 80bf
00000020: dec0 aa3f be9e 04bf 1e44 9abe 63c3 49be
00000030: 9849 023f ce9a 013f 4dbd 383f 7bc4 723f
00000040: 09aa 853f 8fa9 1b3f 0a52 d93f 1c60 a63f
00000050: 92ac ac3f 0f32 c93f 2bbe 8b3e ca91 853f
00000060: e28a ad3f 5859 e43e 5f4a b4bf be61 933f
00000070: 8d11 ba3e 4c49 2dbf 2f02 2abe 692e 08be
00000080: 5fc6 b93c fc90 60bf e320 87bc a546 f5be
00000090: c6dc 37bf 092a a2bf b7dc 82bf 647f dabf
000000a0: e34a 5ebf 4f87 ccbf a1e2 9ebf 8dae dfbf
000000b0: e5dc a4bf d8ac efbf d95d dcbf 0e32 14c0
000000c0: 28f8 e6bf 1e80 12c0 9efc 833f d3aa d33f
000000d0: b39f b6bf 24a9 a7bd abb9 1dbf 7835 a6be
000000e0: 9abb 11be be5a d2bf 9e65 16bf a188 83bf
000000f0: 4cf8 1bbf ef21 9ebf aeac adbe 639b 4ebf
00000100: 58d1 a6bf 4f33 68bf f5f1 8bbf 53e5 59bf
00000110: 0648 5cbf 7d02 5ebf aba5 b8bf 14e7 b3be
00000120: a627 82bf 5d87 07bf 7edd 8cbf 968f e8c0
00000130: 8eae 1e3f 72a4 3ebe 9fa6 473f e21a 36c0
00000140: f51e 863d 137c 55be 6c9b 14be e3fd d3bd
00000150: 616e 00be 1c05 553e 8ba9 f7bb 17cf ae3d
00000160: 688b 1b3d 3227 003e af93 21be f8ef cc3d
00000170: 42c9 d73a 0577 11be 16ae 5f3d 3a3f f3bd
00000180: 42de 533d b7d1 113d 6e05 4e3c 4cca e8bc
00000190: 54c1 623f cb55 613f 10bf b5bf 3d95 763c
000001a0: 6442 b3bf ede3 a93d daf7 d13d 94fd 14bf
000001b0: 8f2e 4540 44b5 e7be 52c7 2740 10cb 4c3f
000001c0: ce71 f03f 0c97 9f3f 1a83 0340 5942 8b3f
000001d0: f29e a63f 2244 da3f efaa b23f 6539 613f
000001e0: 9b21 713f 112b 3140 487d 823e 06fa 0340
000001f0: 83e5 a03f fa9e 3f41 ecfb 2ebd 7370 a5be
00000200: f301 66bf b4d6 1a41 4caf 383f 823a 1e3f
00000210: a7de 4d3e 4199 37bd 4991 c93d fde2 133e
00000220: f992 08bc 8640 2c3e cfcc 01be ed0c 3e3e
00000230: 0157 51bd 0aee c33d 07ba b6bd 6f9c 61bd
00000240: 9a06 5b3d fc9a 44be b217 94bd 2747 b13d
00000250: 924d 893d 0b96 5dbe 8cbc 7a3f 67b6 c43e
00000260: 3667 be3f 9baa 07bf 8def c63e cd52 cdbe
00000270: c488 22bf a19a ce3f 7228 dc3e dfba 0240
00000280: 217f 803f 1100 dc3f ab2a 883f a8ea eb3f
00000290: 3c8f a13f bd67 e13f 9f46 a33f 1a9d af3f
000002a0: b254 993f 6d3f dd3f 6736 b43f 40bb ca3f
000002b0: aca7 b73f 382f 5f3f 4ca4 a03f 90ed 94bf
000002c0: a934 05bd 6f44 8640 a8e4 003f a0cc 4e40
000002d0: 4578 533e 710e c23e 6e6d 29bd f4f1 593d
000002e0: c87b 6abc 6bd6 abbd 25fb df3c 3408 9ebd
000002f0: 7e20 32bc 9e96 2c3c 573b a5bc 6c36 2f3e
00000300: e3ec cb3c 46ec 8dbd dc22 0cbd 7b82 53bd
00000310: f15f 65bc 59ea febd 236e f23a 899a 103e
00000320: b3de 493f 5c5d 90be 5c91 f6bf dc68 b03c
00000330: c757 c5bf 3e35 32bf 2d1a d8be 99fd 47bf
00000340: d5cb 80bf 5dfb 8d3e aa2a bf3e 2ec6 04bd
00000350: c1d0 4d3c 40c7 87be 1dbb a7bf 9642 103f
00000360: 4a30 a6be 6c22 d2be ea6f 903c 5d5c 95be
00000370: d914 993f 84f5 f6be aac9 c03e 4d0f 91bf
00000380: 5d29 0539 c5f3 1ebf 14dd fbbe f4d4 3340
00000390: 7e3f febd 70ff 0a3f 54e4 93be dcf4 cdbc
000003a0: 14ed e93f ea9f f73e 9a47 f93f 2cc1 be3e
000003b0: 3a5e f03f 0e3c ca3e 195a c03f d5f3 8f3f
000003c0: 5f13 a03f 5d85 a83f 419f b63f be4d 6c3f
000003d0: b0f2 943f 4ebc 9a3f 67c6 533f 3f7a 813f
000003e0: cecb fd3e 5f42 4b3f b3cf b1bf aac0 243f
000003f0: 3337 bf3f 24b4 453e 6d42 9a3f d8c1 aebd
0.27897137 -0.30971426 -0.9660356 0.09302796 0.071110114 0.07233009 0.29879934 -1.0030495
1.3340108 -0.5180472 -0.30130094 -0.1970344 0.50893545 0.5062684 0.7216385 0.94831055
1.0442516 0.608056 1.6978161 1.299808 1.3490164 1.5718402 0.27293524 1.0435116
1.3558009 0.44599414 -1.4085196 1.1514204 0.36341515 -0.6768997 -0.16602395 -0.13298954
0.022677599 -0.8772123 -0.016495174 -0.4790546 -0.7182125 -1.2669078 -1.0223607 -1.7070127
-0.8683302 -1.5978793 -1.2412912 -1.7475144 -1.2879912 -1.8724623 -1.721614 -2.315555
-1.8044481 -2.2890697 1.0311468 1.6536506 -1.4267486 -0.08186558 -0.6161143 -0.32462668
-0.1423172 -1.6433942 -0.58748806 -1.0276071 -0.60925746 -1.2354106 -0.33920807 -0.8070585
-1.3032637 -0.9070329 -1.0933214 -0.85115546 -0.860474 -0.86722547 -1.4425558 -0.35137236
-1.016835 -0.5294092 -1.1005094 -7.2675276 0.619851 -0.18617418 0.7798862 -2.8453908
0.06548873 -0.20848112 -0.14512414 -0.103511594 -0.12542106 0.2080273 -0.007558053 0.08535593
0.037974745 0.12514952 -0.15778993 0.10006708 0.0016463178 -0.14205559 0.05460938 -0.11877294
0.051725633 0.03560039 0.012574537 -0.028416775 0.88576245 0.88021535 -1.4198933 0.01505023
-1.4004636 0.082954265 0.10252352 -0.5819943 3.0809667 -0.45255482 2.6215405 0.7999735
1.878473 1.2467971 2.0548768 1.0879623 1.3017256 1.7052042 1.3958415 0.879782
0.941919 2.7682536 0.25486207 2.0621352 1.2570041 11.976313 -0.04272072 -0.32312354
-0.89846724 9.677418 0.7214248 0.61808026 0.20104466 -0.04482389 0.09842164 0.14442058
-0.008335822 0.16821489 -0.12675785 0.18559618 -0.051108364 0.09566887 -0.08922201 -0.055080827
0.053473093 -0.19199747 -0.07231082 0.08656149 0.067042485 -0.21639268 0.9794395 0.38420412
1.4875247 -0.529947 0.38854638 -0.40102234 -0.6348994 1.6140939 0.42999607 2.0426557
1.0038797 1.718752 1.0638021 1.8430986 1.2621837 1.7609783 1.2755927 1.3719819
1.1978972 1.7284981 1.4079102 1.5838394 1.4348044 0.87181425 1.255014 -1.1634998
-0.032520924 4.1958537 0.503489 3.2312393 0.20651348 0.37901643 -0.041364126 0.05320926
-0.014311738 -0.08390506 0.027341435 -0.07716408 -0.010872005 0.010533957 -0.020169897 0.17110604
0.02489323 -0.06929831 -0.034212932 -0.051638108 -0.013999925 -0.12447042 0.0018495958 0.1412145
0.7885544 -0.28196228 -1.926311 0.021534376 -1.5417413 -0.6961249 -0.4220747 -0.78121334
-1.0062205 0.27730837 0.37337238 -0.03241556 0.012561978 -0.26519203 -1.3103977 0.563516
-0.32458717 -0.41041887 0.01763149 -0.2917203 1.1959487 -0.4823419 0.37653857 -1.1332794
0.00012699277 -0.6209071 -0.49192107 2.8098726 -0.12414454 0.54296017 -0.28885138 -0.025141172
1.8275476 0.48364192 1.9474976 0.37256753 1.8778756 0.39498943 1.5027496 1.1246287
1.2505912 1.3165699 1.426735 0.92306125 1.1636562 1.2088716 0.8272461 1.0115432
0.49569553 0.7939815 -1.389151 0.6435648 1.493872 0.19307 1.2051522 -0.085330665

model.0.bias f4 [128]
00000000: b995 943e f574 6ebe 77e2 64be 5d00 74bd
00000010: 4af0 d83d a99a 3f3f 7d3f f6be f447 d43e
00000020: 584d 3ebf 40ae 1bbd 7f4a afbd f8d7 b83e
00000030: 5d20 073f 80e9 5e3e 84e5 853d 5b0f 8abf
00000040: 06e5 d5be 6bc2 963e 8714 a1be 2fc4 ec3e
00000050: 9cd1 67bd f168 b33e 6404 1b3f 4a10 a93f
00000060: 8c04 b1bf de95 dabe 7e04 b4bf 9b9d 8ebe
00000070: 662e ad3e 7c17 acbe d77e 3dbf 2842 cb3e
00000080: b619 213e 549d 193e 7ce9 69be a5e6 62bf
00000090: a6f8 a8be 12de 903d b15a b1be 558c d1be
000000a0: 6464 b4bf 0d8a 5a3f 9c21 adbd 3bfd d13e
000000b0: 4954 09bf bbb7 a3be a762 d9be 5a2b 13be
000000c0: d547 403f 0bb4 d83f 4343 10be ab74 f4be
000000d0: fbf5 883f 67b7 ce3e b575 c23e 2e95 1dbf
000000e0: 07d2 583e 7cc9 25bf 01f3 00be 6b3e 20be
000000f0: 6417 da3e 95c6 0b3e 3c6f 493e f7c1 1b3e
00000100: 4614 f13e 16be 0b3f eab5 b43e 4a5a b73e
00000110: 6678 ef3e 5dca 203d e162 a43e d90a bf3e
00000120: 8f80 22bf 8cad 42be 2b22 debd 246b a0be
00000130: 9b4c abbe 9cf1 8b3f 4b45 83bf 94e0 18bf
00000140: a836 eabe 5fcd 56bf ab72 4c3f 4a63 babe
00000150: 2c3e 27bf ff57 b83f 0962 a7be 8d0e 393e
00000160: e208 ef3d eb54 883f c568 2a3e a606 26bd
00000170: 151b 213e e7c1 b43f 6d67 a8be 027a ebbe
00000180: 32cb f8be bef5 3b3f c499 acbd 924a 9e3f
00000190: 33b1 0abc 5d6f 14bf 175f 1dbe 7ada 623f
000001a0: a8a8 ae3d cdc7 97bf 07b4 d63d ff9d b2bf
000001b0: 3e25 12bf d86e fc3e 2935 073f cdd6 32be
000001c0: af46 473f 22dd 5abe a1de 10be 5fdc 7f3e
000001d0: 5ca4 063e 3f6b 43bf 6e84 e1be e200 77be
000001e0: 69f1 ae3f b533 893d 02db 4d3f 1357 02bf
000001f0: 0b2b 71bd 8f72 eebe 23ef dc3f 724b 6abe
0.2902048 -0.23286803 -0.22352014 -0.05957066 0.105927065 0.7484537 -0.48095313 0.41461146
-0.7433677 -0.038007975 -0.08559131 0.3610227 0.5278376 0.2176876 0.06537917 -1.0785936
-0.41776294 0.29445204 -0.31460974 0.46243426 -0.056596383 0.35041 0.60553575 1.3208096
-1.3829513 -0.42692465 -1.4063871 -0.27854618 0.33824462 -0.33611667 -0.7402167 0.3969891
0.15732464 0.15001422 -0.22842973 -0.88633186 -0.33002204 0.070736066 -0.34639505 -0.40927377
-1.4093137 0.853669 -0.08453676 0.41013512 -0.53644234 -0.31976113 -0.42458078 -0.14372006
0.75109607 1.6929945 -0.14088158 -0.4774526 1.0700067 0.403743 0.37980428 -0.61555755
0.21173869 -0.64760566 -0.12592699 -0.1564881 0.4259597 0.13649972 0.19671339 0.1521071
0.4708578 0.54586923 0.3529504 0.35811073 0.46771544 0.03925549 0.3210669 0.37312964
-0.63477415 -0.19011515 -0.10846361 -0.31331742 -0.33456883 1.0933108 -1.0255522 -0.5971768
-0.45744824 -0.8390712 0.7986247 -0.36403877 -0.6532924 1.4401854 -0.32691982 0.18071957
0.11671616 1.0650915 0.16641529 -0.040533684 0.15732987 1.4121674 -0.32891408 -0.45991522
-0.48592526 0.7342185 -0.08427766 1.2366507 -0.008465099 -0.57982427 -0.15368305 0.8861462
0.085282624 -1.1857849 0.10483556 -1.3954467 -0.5708808 0.49303317 0.5281549 -0.17464752
0.7784223 -0.21373418 -0.14147426 0.24986409 0.13148636 -0.7633552 -0.44046348 -0.2412143
1.3667423 0.066993155 0.80412304 -0.50914115 -0.05887894 -0.46571776 1.7260479 -0.22880343

model.2.weight f4 [128, 128]
00000000: 8cab 38be 754a 1e3e d6a4 5ebd 6393 86be
00000010: b489 0e3e 2cd4 f2be 138d 62be ce92 a6bf
00000020: cba3 debe 8c00 023e c0c2 15be 8e41 10be
00000030: 04d8 0b3f 87c8 c03d da07 203e ac86 96be
00000040: b02b d43e 9740 5cbe 68a4 623d 00d2 ae3f
00000050: 8065 a4bd bde2 6cbe 7440 943c a7a1 c4be
00000060: 018d 2e3f a523 fe3c 709a 2d3e d313 eb3e
00000070: b171 15bf 9759 ff3d f6f6 cc3e 181e d9be
00000080: 38cd 55be 45b7 243f 82a3 cf3e cb24 abbe
00000090: 11a6 f6be d9c7 80bf 57d4 c23b 2838 e03e
000000a0: 11b5 8b3f 4445 c73e d5b9 c73c a652 9b3f
000000b0: b3e9 1b3e 4e47 75bf 9815 513f 190a e63d
000000c0: 7ab7 83bf 2fbc 2e3f a804 0cbf 1e75 a83e
000000d0: 8735 74bd c2b3 44be a4d6 d7bd 9135 78be
000000e0: cd30 f73e 613a 07bf cb38 d73e 297e f43f
000000f0: c2c6 b33e ea45 333f 85d5 913e c127 773f
00000100: 5fd4 b8be bb03 bbbd b390 9cbe 9ba2 633e
00000110: 6ee9 363f dca4 93be 7307 533e b381 123e
00000120: b8d1 4ebf 372a 363f 670a a1bc 906d 923e
00000130: 26e1 8ebe 703c 0e3d 8389 423f 00e7 67be
00000140: 0f2b 3bbe 402b 4ebd ef50 b0be 6936 d53e
00000150: 0166 b5be af9a 00bf c004 aa3e 6648 3e3c
00000160: 2a85 28be 5656 86bf 2f0a 4ebe a524 933e
00000170: f592 83bd 3cd1 72be ce83 23be bc04 aabf
00000180: ad7e 1c3f dc7b 9a3e 6ea8 5abe 6030 9e3e
00000190: ef8f 02bf 0f57 41be 911b 893e a129 123d
000001a0: ee9f 47bf 4fb7 0ec0 2c9f b23d f8ea 2f3f
000001b0: ccd7 27bf 99be 99be 1855 e53e 05f8 19be
000001c0: 0e3e 9dbe 3116 c4be 9567 efbd e2f2 963f
000001d0: bcde 033f 8cee 8dbf fda5 f43f d973 073e
000001e0: 2058 243e 2479 883e f889 c5be d244 ecbd
000001f0: 5224 02bf 60f1 a7be c569 e03e de49 7fbf
00000200: f401 e73c ec8b 3dbf 5d49 863e faf1 2dbd
00000210: 89f3 193e edb0 04bd 1fe8 b03e 86d7 41be
00000220: 1d0b 1abf ef08 14be 0c11 84bc d4fc fabe
00000230: ef6a 98bf 359f 8ebe f8fc bdbc 31ce 523c
00000240: ec82 ebbd 4dc1 e8bd fbde 5cbf a393 16be
00000250: 0c60 a73e b1b3 e5bd 2123 0e3d 57fe 07be
00000260: 55f3 4abe ac7f 1d3e 8e55 b83e 2af4 b2be
00000270: 7142 df3e e1e5 1a3f ebee 09be c103 f63d
00000280: 754d 483e 9a10 8dbe 86f8 23bf 5cb7 943e
00000290: 0cb9 a5bf 6ef2 e03e d8da af3e 1744 e03e
000002a0: b3ba b6bf 814c af3b b493 10be 962d 813f
000002b0: b1d4 a7be 0f6d 833f a27a cbbe d2b3 8fbf
000002c0: e4ba aabe 1743 893f 6733 1e3c f2a7 003e
000002d0: 8e47 1c3e c3c9 8c3b c74a debe 412d 3dbe
000002e0: 7bf5 20bf fa80 f9be fa4c 96bf 4da2 803d
000002f0: 3e71 d4be 85dd a73e bc53 163f e63d e5bd
00000300: e27d 173f f6dc 503e f706 1d3e 7efc dcbe
00000310: a831 2a3e e452 88bd 0bf6 ffbe 345c 51be
00000320: c429 1cbe de55 b13e 14b0 273f cc17 13bf
00000330: 1af4 23bf cc6d 193d e0a8 cabe d4bb f93d
00000340: c7e6 ea3e 8c4a 24bd 8e89 a83e a732 a33a
00000350: 2d9e 4fbe 8513 a5bd 486a 053e 52c0 173e
00000360: aabe d03e 13ad f03f 54a9 dfbb aa7e 483f
00000370: 34a6 06bd d80b a33e 72f4 3bbd a9e4 5e3d
00000380: e474 663e 8dce 393f 1d4e 223f 874b b23d
00000390: b2d7 80be c033 11be 40f4 3cbd d3c0 f5be
000003a0: 060e 323d 665f 453f 9e37 56ba 65df 9cbe
000003b0: a302 4dbe 36e0 e23d 4434 6bbf 3056 cebe
000003c0: 8c56 d9bf 778c f7be 0e21 293d 88a9 32bf
000003d0: 1af8 6ebf 92f7 32be 5d7d 28be 4fac 11be
000003e0: d684 f3bd 8e1e a1be aada f63f d782 51be
000003f0: ba2b 1e3f 0cc6 61be 801e 683f 83a4 a33e
-0.1803419 0.1545809 -0.05435642 -0.26284322 0.13919717 -0.474275 -0.22124128 -1.3013551
-0.4348434 0.12695521 -0.14625072 -0.14087507 0.5462649 0.094132476 0.15627995 -0.2939962
0.4143958 -0.21509014 0.05533257 1.3657837 -0.08027172 -0.23133369 0.01809714 -0.3840458
0.68183905 0.031022856 0.16953444 0.45913562 -0.58376604 0.1246826 0.40032166 -0.42405772
-0.20879066 0.6434215 0.40554434 -0.33426508 -0.48173574 -1.0060989 0.005945723 0.43792844
1.0914632 0.38920033 0.024380604 1.2134597 0.15225868 -0.9581193 0.81673574 0.11232395
-1.0290368 0.68255895 -0.54694605 0.32901853 -0.05962136 -0.19209197 -0.10538986 -0.24239184
0.4827942 -0.52823454 0.42035517 1.9101001 0.35112578 0.70028555 0.28483215 0.96545035
-0.36099526 -0.09131571 -0.30579147 0.22229998 0.71449935 -0.28836715 0.2060831 0.14307289
-0.80788755 0.71158165 -0.01965828 0.28599215 -0.2790615 0.034725606 0.75991076 -0.22646713
-0.18278144 -0.050334215 -0.34436747 0.41643074 -0.35429385 -0.5023603 0.3320675 0.011613941
-0.16457048 -1.0495098 -0.20121072 0.28738895 -0.06424514 -0.23712629 -0.15968248 -1.3282695
0.6113079 0.30172622 -0.21353313 0.30896282 -0.51000875 -0.18880866 0.26778844 0.03568423
-0.7797841 -2.2299383 0.08721766 0.6871791 -0.65563655 -0.30028227 0.44791484 -0.15036018
-0.30711406 -0.3829818 -0.116896786 1.1792872 0.5151174 -1.1088424 1.9113156 0.13227786
0.16049242 0.26654923 -0.38581824 -0.11536564 -0.5083667 -0.32801342 0.43830696 -0.9972209
0.028199174 -0.7404163 0.26227847 -0.042467095 0.15034308 -0.032395292 0.34552094 -0.18929872
-0.6017321 -0.14456533 -0.01612141 -0.49021018 -1.1907634 -0.2785584 -0.023191914 0.012866543
-0.11499581 -0.11364994 -0.8627774 -0.14704756 0.32690465 -0.11215914 0.03470147 -0.13280617
-0.19819386 0.15380734 0.36002773 -0.34951907 0.43605378 0.6050702 -0.13470046 0.12012435
0.19560798 -0.27551728 -0.6405109 0.29046142 -1.2947097 0.4393496 0.34346652 0.43801948
-1.4275726 0.005349696 -0.14118844 1.0092037 -0.32779458 1.0267657 -0.39742 -1.1226752
-0.3334571 1.0723599 0.00965581 0.12564066 0.15261671 0.004296513 -0.43416426 -0.18474294
-0.62874573 -0.48731214 -1.1742241 0.062809564 -0.41492647 0.32786193 0.5872152 -0.11193447
0.59176457 0.2039679 0.15334688 -0.43161386 0.16620505 -0.06656435 -0.49992403 -0.20445329
-0.15250307 0.34635824 0.6550305 -0.57458186 -0.64044344 0.037458226 -0.39581966 0.121940285
0.45879194 -0.040110156 0.32917446 0.0012451009 -0.20275183 -0.08060364 0.13028824 0.14819458
0.40770465 1.8802818 -0.0068256054 0.78318274 -0.032873347 0.31844974 -0.045887418 0.054417286
0.22505528 0.72580796 0.6340044 0.08705812 -0.25164562 -0.14179897 -0.046131372 -0.47998676
0.043470405 0.7709869 -0.000817174 -0.30639187 -0.20020537 0.11077921 -0.91876626 -0.4030013
-1.6979537 -0.48349354 0.04129129 -0.69789934 -0.9334732 -0.17477253 -0.16454072 -0.14225887
-0.11890571 -0.31468624 1.9285481 -0.20460068 0.6178547 -0.22048205 0.9067154 0.3196145

model.2.bias f4 [128]
00000000: fb77 873e e694 2abe 0761 0ebe 5917 e5bd
00000010: 00d6 af3d fd16 65be eb97 3b3e e1da 4bbe
00000020: a9c8 003d 0117 3cbe d826 86be 9c7c 13be
00000030: 9e2f c43e 1811 93bd 5e56 0abc 70a1 cc3c
00000040: f16d 6e3d 0627 92be 3cc1 67be 741c 943e
00000050: 98f2 2b3e 0fb3 a43c e9dd dc3d e3ac 81bd
00000060: 5e99 40bd ebca e23d 4cd1 cb3c f8fa aebe
00000070: c082 45be 4f80 91be b744 8b3d 6344 c2bb
00000080: 8339 a4bd d38b 11bf e9f7 703e ac78 a03d
00000090: f628 9dbc 98f7 813d 23c3 113e e73c fd3d
000000a0: a217 f63d aaa0 bebe a471 bb3d 9640 80be
000000b0: 240e 7f3e b00a 3ebf 85c3 fabe cde6 06bf
000000c0: 4af0 e0be e23a f83b 20e7 30be 687b 22be
000000d0: 2f04 7d3d 9d8d 7dbe 3e8c 693e c53f 8c3d
000000e0: c9cb 253d a84b d73d 5936 283f 1535 44bd
000000f0: 100e 423e c1c1 833e b3e8 a43e 94ae 3f3e
00000100: bfee 89be dad6 0a3e bc21 0a3d 8eb6 d0be
00000110: d69d 703d 6336 543e 7056 3c3d d7ed 063e
00000120: 5747 093f 5d7d 333e 1e33 863d ec19 4c3e
00000130: 9f44 b1be 7d9d bd3c f549 f73d 46a7 063e
00000140: f562 853d 81ab f23d ba4d 513e 959f 4dbe
00000150: 3c24 dc3e a4f3 093d 103b 50be 1d81 3b3d
00000160: 488e ba3e 99a4 37be ceef af3d 873c b33d
00000170: f9ef adbe 788d 2f3e 787a 063e 8206 fe3c
00000180: 0997 9c3e 2c56 d53d 76f2 65bd 3d6e 073e
00000190: 9a14 6dbe 8c1e e2bc ed04 463e 14cf 04bd
000001a0: 3a0e 00be b81f 8d3e 3a29 553d 85ed 0b3e
000001b0: ef66 46bd b16d f53d e0da 8f3e 9610 0c3e
000001c0: ad04 e63e 0a21 d43d ac56 b7bd afbc 5e3e
000001d0: 6a76 4539 af6e 45be 98f9 4e3e 09ce 283e
000001e0: f875 4f3e 6f9e 8dbd 3bf8 203e f078 d13d
000001f0: d147 953e 2bf6 2b3c 2e44 cc3e aa89 893e
0.26458725 -0.16658363 -0.139042 -0.11186094 0.08585739 -0.2237205 0.18319671 -0.19907714
0.031441364 -0.1836815 -0.2620151 -0.14403003 0.3831758 -0.07180995 -0.008443443 0.024979323
0.058210317 -0.28545398 -0.22632307 0.28927958 0.16791761 0.020104913 0.107845135 -0.06331804
-0.047021262 0.1107386 0.024880074 -0.3417585 -0.19288158 -0.28418204 0.06800216 -0.0059285625
-0.08018782 -0.5685398 0.2353207 0.07835516 -0.01918457 0.06346053 0.14234595 0.12365132
0.12016226 -0.37231952 0.091525346 -0.25049275 0.24907738 -0.7423506 -0.48977295 -0.52695924
-0.43933326 0.0075753788 -0.17275667 -0.15867388 0.061771568 -0.24761052 0.22807404 0.068481006
0.040477548 0.10512477 0.6570793 -0.047902185 0.18950677 0.2573376 0.32208785 0.1871894
-0.2693996 0.13558522 0.033723578 -0.40764278 0.058744274 0.20723872 0.04598087 0.13176666
0.5362448 0.17528291 0.065527186 0.19931763 -0.34622666 0.023146385 0.12074653 0.13149747
0.06513015 0.11849118 0.20439807 -0.20080407 0.42996395 0.03367962 -0.2033503 0.04577743
0.36436677 -0.17933883 0.08590661 0.08751779 -0.33972147 0.1714381 0.13132656 0.031008963
0.3058398 0.104168266 -0.056139432 0.13225646 -0.2315239 -0.027602457 0.19337817 -0.032424048
-0.12505427 0.27563262 0.05204127 0.13664825 -0.04843801 0.119838126 0.28096676 0.13678202
0.44925442 0.10357864 -0.08952078 0.21751665 0.00018831497 -0.19280504 0.202124 0.16484846
0.20259845 -0.069149844 0.15719692 0.10228145 0.29156354 0.010495703 0.39895767 0.26862842

model.4.weight f4 [5, 128]
00000000: bce5 3540 22b1 473e d0b1 d6bf 6d42 0b40
00000010: f1c4 18c0 1cd5 2ac0 17d7 07be d85c e9bf
00000020: 2de7 823f 826f 17c0 cc41 83bf c030 24c0
00000030: d451 f93f 35f7 f8bd 7694 6f3c 04f5 b03e
00000040: 065b a53d 87bd a4bf ab00 b83d 61e3 4fc0
00000050: 39f9 09c0 70ad b43d 35f0 933f ef86 bb3e
00000060: 27be d43f c41f 26c0 3f2d 69bf 360d 11c0
00000070: 945d 2d3e 03d0 b6bf de49 da3e 1e77 cabf
00000080: 3504 eebf 4e68 12c0 940a ca3f fa14 d5bf
00000090: fe73 37c0 3699 cd3e 7f92 a33f 6919 eb3f
000000a0: dd04 af3f 9869 163e 7cb1 afbf b410 fabe
000000b0: 3e9e 813f f08f 02c0 b0ce 64bf 8a8c f4bf
000000c0: 822d bc40 f19e babe 8411 35c0 dab9 6b3f
000000d0: 7fb8 2540 7156 c13e c418 5c40 3d8d 6bbd
000000e0: 441d 673e a70f 05c0 ddfb 1640 857a 45bd
000000f0: 806f 6f3e 4f8a 37c0 db20 f53f 44b4 38c0
00000100: b9ac 973f b8f2 963f d227 2140 4259 4cbf
00000110: 0532 a23d c061 c4bf c905 6940 a904 4540
00000120: b9b6 acc0 1190 cb3f d8f7 1840 61d1 ffbe
00000130: 1905 26c0 1d80 3ebe 627b f9bd b485 393f
00000140: eb51 153f c1ad babf 936c e23f 65c9 cebe
00000150: f157 33c0 e304 e73e a2f4 fb3f 9359 c13f
00000160: 50d0 ce3f 7cbd 2440 0692 eb3e 85f5 5ac0
00000170: 184c 19c0 1585 6740 555a 68c0 52f0 ab3e
00000180: 5531 8e3f 3d19 8140 0ebf 5cc0 01ec 283f
00000190: d65c dd3e 1a30 80be 80a0 b73e dff9 f1bf
000001a0: 0825 3f3f 0765 0340 8eee 2f3f 98dd 0440
000001b0: 2b98 bb3f 3a85 a4bf ff76 ed3f 971d e4bf
000001c0: 89d6 debf 946f fc3f 0b65 6ebf 50e9 103f
000001d0: b649 5fc0 81e6 55c0 1465 7a40 43bc e8bf
000001e0: 0da2 90bf 66e2 48bf bc76 df3e e420 9a3f
000001f0: 41be e03f 0843 0a40 8e39 46be 5804 563f
00000200: a66a 563f 16dd df3e 6cc8 ef3e 280a 2b40
00000210: a74c fc3e c8bf 0ebf 118f 45bf 918e 64bd
00000220: 0cc4 983f 5ccc 43bf 539c 9bbf d091 12c0
00000230: 3869 9dbf bcf5 de3e a701 0e3f 7c0f f13d
00000240: fd0b 53c0 78f5 2ebd 6dec 1ec0 bab0 c03d
00000250: 4956 c43f 547b e83f 84d4 c9be 3dc8 9a3f
00000260: c0c2 4f40 608e 39bf 99e4 5cc0 dfa2 0a3f
00000270: 2766 a73f 4d25 c9bd 127c 14be 47a0 78bf
00000280: 5b4d 7740 a135 423e 56d8 84bf 3379 08c0
00000290: 75ac 5bbf 4fdf 57be d8b9 b23f f5ea 1c40
000002a0: b994 8a3f bf0f d5bf 66c7 8e40 df49 c1bd
000002b0: d285 6a3f cf57 2ac0 9b14 e83f 5b3a 97bf
000002c0: 08b7 95c0 9db0 7d40 d724 0c3f 532f cf3f
000002d0: 25f1 ca3f 665a 27bf 26f2 c53d 03ec a7be
000002e0: fef9 c63e 6e60 79bf feca c83f f8c4 f53e
000002f0: 21fc 72be b165 0040 5632 90c0 43d4 6b3f
00000300: cb58 72c0 0825 efbe 8911 52bf f56e 58be
00000310: cd53 203d 49d0 5fbe 9076 d2bf 8221 0e40
00000320: 7327 3e40 4fba 0940 8624 143e 9a2c 7540
00000330: 59a0 0ec0 d65b a23f 7eb0 3540 0ba2 a7bf
00000340: 9be8 c0be 9a5d 8fbe 1d64 b43f 5d79 36bd
00000350: c7aa 4340 2466 7540 b67a 383e 3204 e3bf
00000360: 9968 f03f f681 1d3f 764c eb3f 4b4f dfbf
00000370: 308f cebf 8cbc 5040 7382 ae3d 72f9 ea3f
00000380: f013 a63e 7ce7 4b40 72d8 1cc0 66cd c0be
00000390: c7c6 bdbe 052f 8e3c 1149 be3c 267d 67bf
000003a0: b847 6540 d8ac 283e 365e 3ebe 10c1 953f
000003b0: 957b 37be e558 993f 1462 8140 c863 c7bf
000003c0: 8461 0b40 7cc4 21c0 29ab 163f d276 8d3e
000003d0: fcd6 cd3e 07cf 0ec0 6e63 9dbf 86db 5cbf
000003e0: 03ee 4ebf 18c0 58c0 d2be 70c0 af6e b93e
000003f0: fabc 343f d331 533f ee08 c8bf 08b8 0c40
2.8421469 0.19501165 -1.6773014 2.1759293 -2.3870203 -2.6692572 -0.13265644 -1.8231459
1.0226799 -2.366181 -1.0254455 -2.5654755 1.9478097 -0.12156526 0.014622798 0.34561932
0.08074002 -1.2870339 0.089845024 -3.248253 -2.1558363 0.08822143 1.155768 0.36626384
1.662053 -2.5956888 -0.91084665 -2.2664313 0.16930228 -1.428223 0.4263448 -1.5817602
-1.8595034 -2.2876163 1.5784478 -1.6647027 -2.8664546 0.40155953 1.2779082 1.836713
1.3673359 0.14688718 -1.3726039 -0.48840868 1.0126417 -2.0400352 -0.8937788 -1.9105389
5.880555 -0.36449388 -2.829194 0.9208046 2.5893857 0.37761262 3.4390116 -0.057507742
0.22569758 -2.0790803 2.3591225 -0.048212547 0.23382378 -2.8678167 1.9150652 -2.8860025
1.1849586 1.1792822 2.5180554 -0.79823697 0.07919697 -1.5342331 3.640978 3.0784094
-5.397305 1.590334 2.3901272 -0.4996443 -2.5940611 -0.18603559 -0.121817365 0.7246964
0.5832812 -1.4584275 1.7689384 -0.40388027 -2.8022425 0.45120916 1.9684031 1.5105461
1.6157322 2.5740652 0.46009845 -3.4212353 -2.3952694 3.6174977 -3.6305134 0.33581787
1.1108805 4.034331 -3.449161 0.65985113 0.4323489 -0.250367 0.3586464 -1.890438
0.7466588 2.0530412 0.6872338 2.076025 1.4655813 -1.2853158 1.855194 -1.782153
-1.7409221 1.9721551 -0.9312293 0.56606007 -3.488874 -3.3421938 3.9124193 -1.8182453
-1.1299454 -0.78470457 0.43645275 1.2041287 1.7558061 2.1603413 -0.19357893 0.8360038
0.8375648 0.43723363 0.46832597 2.672495 0.4927723 -0.55761385 -0.77171427 -0.055800024
1.1934829 -0.764837 -1.2157081 -2.2901497 -1.2297735 0.43546855 0.5547127 0.117705315
-3.2976067 -0.042714566 -2.4831803 0.09408708 1.5338832 1.8162637 -0.3941995 1.2092358
3.2462616 -0.7248287 -3.4514525 0.5415477 1.307805 -0.09821568 -0.14500454 -0.97119564
3.8640964 0.1896577 -1.037852 -2.1323974 -0.85810024 -0.21081279 1.3962965 2.4518406
1.0826637 -1.664543 4.4618406 -0.09437918 0.91610444 -2.6616094 1.8131288 -1.1814684
-4.6785927 3.9639046 0.54743713 1.6186317 1.5854841 -0.6537231 0.09665327 -0.3279725
0.38862604 -0.97412765 1.5686948 0.48001838 -0.23728992 2.0062068 -4.5061445 0.9212076
-3.7866695 -0.4670794 -0.82058007 -0.21136077 0.03914242 -0.21856798 -1.6442432 2.2207952
2.9711578 2.1519964 0.14467058 3.8308473 -2.2285368 1.2684276 2.8388972 -1.3096327
-0.37677464 -0.280011 1.4093052 -0.044549335 3.0572984 3.8343592 0.1801556 -1.7735655
1.8781921 0.6152643 1.8382709 -1.7446073 -1.6137447 3.261508 0.08520975 1.8357375
0.32437086 3.1860037 -2.4507108 -0.37656707 -0.37065718 0.017356405 0.0232282 -0.90425336
3.5825024 0.16472185 -0.18590626 1.1699543 -0.17918237 1.1980253 4.0432224 -1.5577326
2.177827 -2.5276175 0.5885492 0.27629715 0.40203083 -2.231386 -1.2295969 -0.86272466
-0.8083193 -3.3867245 -3.7616467 0.36217257 0.70600855 0.824979 -1.5627725 2.1987324

model.4.bias f4 [5]
00000000: 35bb 3b3f ea2a 613f eb9a 193f def3 1ebc
00000010: dcc3 a1bd
0.7333253 0.87956107 0.6000201 -0.009701697 -0.07898685
