results/palindrome/rql_0.pt (torch, 84325 bytes, 6 tensors)

model.0.weight f4 [128, 25]
00000000: 94ae 1cbf 577b e03f ca7a bc3a d192 90bd
00000010: 5768 6fc0 f547 18be e8af f7bd ff68 0bc0
00000020: ec4d d0bf 2c6d fabf 8b64 08c0 1d0e 09c0
00000030: 59f0 0ac0 fc72 90bf 9583 8bbf 7d62 a1bf
00000040: f963 8abf 94d9 73bf 9971 a1bf ffe5 0ebf
00000050: 194d afbe 3125 0abf aa38 8bbd 35e2 1cbe
00000060: 780d 81be cdef 523e 660e 773f 5000 fb3f
00000070: c37c 03bf 5040 a240 d994 d53d be61 903e
00000080: 85e1 1f3f 7540 4e40 09c9 27be 49ad c9bd
00000090: a6d1 45ba 5e4c 7f3f 5ff9 97be 8048 9e3f
000000a0: 9775 623c 4dd8 263f 73da 93bf 700b dabe
000000b0: 544f f53f 0935 dd3f d12f c63f 689d 203f
000000c0: 0d9a 5dbd 1c5f bbbe 2b95 42bf abfb 77be
000000d0: facc 953d 8eb8 04be 69b6 08c0 a1e5 a0be
000000e0: 818f 0abe 7957 13bd b997 f83e f952 13bf
000000f0: 0c5e b73e 983a 833f fe05 753f f79d bcbe
00000100: 94c0 0dbe ab66 d83e e206 183e 6ffc 883f
00000110: e908 163f 247c 063f 7ab8 4b3f 8b71 953e
00000120: 30eb 03bf bfa3 493e 730a 373f cdbb 373f
00000130: bc67 993f 1dd7 d9bf 8596 33c0 03a7 3cc0
00000140: 14a7 93bd 62ea b53d 0b5c 973d ef79 a23e
00000150: 489a 683c 5d67 d73d 8bae 1a3c dc09 da3d
00000160: 0f66 293e 50bf 0b3e a9b1 b2be 413c 03be
00000170: 74db b1bc 395a a2bd 1966 ffbd b6a4 6cbd
00000180: 74c9 c7bd edd5 5d3f 9905 fabc 9bf2 4f3e
00000190: f50f 45c0 4313 873f 58e3 ae3e 6acd 973f
000001a0: 5d5f c2c0 633a 013f 604c 193f ed71 4e3d
000001b0: f278 b6bd 2a97 033b 27b1 303d 0f36 cb3c
000001c0: f27e 8e3d 7107 18bc 783b b6bd acc8 aabd
000001d0: 428e e33d 7e2f d4bc 150f bebd 5f15 1e3d
000001e0: 3d43 153e f5bf db3d 6728 3c3d 9e79 f2bd
000001f0: 5b3d 233d 2792 4b3f 0dde 9e3e c104 193e
00000200: daca abbf 9162 ad3d b1f0 11bf 3d73 14bf
00000210: 4090 933e 7ae7 9a3e 8b95 44be e3c5 cf3e
00000220: 5d5d 44be b75a 0c3f 8352 f33e 5315 6a3f
00000230: 9373 b13f ed89 cc3e 4ed2 5a3d 7b9c d73d
00000240: 7c6e 63bf 5e72 8c3e cc51 d4be cb71 153f
00000250: a247 073e 3584 d03e 27a5 bdbf a6c8 943f
00000260: 2ee6 24bf 7065 013e ed10 4dc0 dfe3 2ebc
00000270: 4e06 6fbe 3819 97be c5b4 90bf 82c4 05be
00000280: f931 49bf 670f 1ebe c769 86bf 51b9 80bf
00000290: 5bb7 123e 047b d7be 3f26 28bd 00b8 4fbf
000002a0: 6cd1 aebe 66e0 8b3c 8bdd 493f 04e1 2e3f
000002b0: 1393 293f a1c9 d4bd 4b94 6b3f 1d3c ea3c
000002c0: bc22 aebf c8b8 69bf c65a 053f 6943 a13f
000002d0: a4b1 883e c0c4 743e d564 87bf 99f0 5ebf
000002e0: ebc8 9bbf 3c14 67bf 0c32 3d3e ee4b b0bd
000002f0: 307a 5abf ce3b debf 5245 6b3c c2ec 203e
00000300: 3772 843e c366 103f 7c22 d83e 465b 503f
00000310: 465f 2a3e f57b 983e f159 fdbf 4da8 72bd
00000320: 9433 dcbc 388a 83bf ce04 903f f91e 0040
00000330: 292d 8ebf 1272 023f 4f7f 0b3f 9b02 333e
00000340: 826b 383f 253e 80be 8f2c 8c3f 13b7 903e
00000350: 3f2f bc3e c4a7 163e 4d6b d8be 49f6 cfbd
00000360: 6f89 21bf db22 af3e 2d13 293e 3c95 a0be
00000370: 82dd e1be db02 47bf 057c c6be 81b5 e03e
00000380: e46f 7abd aa06 16bf e9c4 b83f 6057 9cbc
00000390: 09ce 713f 4451 4f40 4f12 873f 0948 773f
000003a0: 6ba7 fd3d 7bd4 27bf becf d5be 3c51 06bf
000003b0: 452b 25be f3e7 27bf ff2c f9be 937f e5be
000003c0: 0e5d 893e 4bc1 d1be 33a5 de3e 999c 0abe
000003d0: 54ac a93e d188 bcbe b9f4 9d3e ef50 853e
000003e0: ed94 a63f 21ea 3b3f ef00 173e 0d2a eb3f
000003f0: 0ef6 733f 0ad4 f23d 1560 8340 ff98 91be
-0.61203885 1.753764 0.0014379856 -0.07059253 -3.7407434 -0.148712 -0.12094098 -2.1782835
-1.627378 -1.9564567 -2.1311367 -2.1414864 -2.1709197 -1.128509 -1.0899531 -1.2608181
-1.0811759 -0.9525387 -1.2612792 -0.55819696 -0.34238508 -0.53963 -0.06797917 -0.15320666
-0.25205588 0.20599289 0.96506345 1.960947 -0.51362246 5.0703506 0.10428781 0.2819957
0.6245349 3.2226841 -0.16385283 -0.09847505 -0.00075461937 0.997259 -0.29682443 1.2365875
0.013821981 0.651738 -1.155104 -0.4258685 1.9164834 1.728181 1.5483342 0.6274018
-0.054101992 -0.36596 -0.7600886 -0.24217097 0.07314487 -0.12961027 -2.1361334 -0.31425193
-0.13531305 -0.035972092 0.48553255 -0.5754848 0.3581394 1.0252256 0.9571227 -0.36839268
-0.13842994 0.4226583 0.14846376 1.0702037 0.58607346 0.52533174 0.79578364 0.2918819
-0.5153074 0.1969137 0.7150032 0.71770936 1.1984782 -1.7018772 -2.806062 -2.9476936
-0.07209602 0.088825956 0.07390603 0.31733653 0.01419694 0.10517762 0.009441028 0.10646412
0.16542839 0.13647199 -0.3490117 -0.12815954 -0.021711089 -0.07927365 -0.124706455 -0.057774268
-0.09755221 0.8665455 -0.030520247 0.2030739 -3.079099 1.0552753 0.34157825 1.1859562
-6.074141 0.50479716 0.59882164 0.050401617 -0.08909787 0.0020079114 0.043137696 0.02480605
0.06957807 -0.009279118 -0.088980615 -0.083390564 0.11111118 -0.025901552 -0.092802204 0.0385946
0.1457643 0.10729972 0.04593697 -0.11839603 0.039853435 0.79519886 0.31028786 0.1494322
-1.342128 0.08466066 -0.5700789 -0.5798834 0.28820992 0.30254728 -0.19197671 0.40580663
-0.1917624 0.5482592 0.4752389 0.9143879 1.3863395 0.3994898 0.05342322 0.10527893
-0.8884046 0.27431005 -0.41468656 0.5837676 0.1321092 0.40725866 -1.4816025 1.1623733
-0.64413726 0.12636352 -3.204158 -0.010674446 -0.23342249 -0.29511428 -1.1305166 -0.13063243
-0.7859188 -0.15435563 -1.0501031 -1.0056554 0.14327757 -0.4208604 -0.0410521 -0.81140137
-0.3414415 0.017074775 0.7885367 0.68312097 0.6624004 -0.1039002 0.9202315 0.028593117
-1.360435 -0.9129758 0.52091634 1.2598697 0.2669803 0.23903179 -1.0577646 -0.8708587
-1.217069 -0.9026525 0.18476123 -0.086082324 -0.85342693 -1.7362001 0.014359789 0.15715316
0.2586839 0.564068 0.4221381 0.8138927 0.16637906 0.29782072 -1.9793073 -0.059242535
-0.026880063 -1.0276556 1.1251466 2.0018904 -1.1107532 0.5095531 0.5449113 0.17481463
0.72039044 -0.25047413 1.0951098 0.28264675 0.36754796 0.14712435 -0.42269364 -0.10154397
-0.6310033 0.3420628 0.16511221 -0.31363857 -0.4411431 -0.7773873 -0.38766494 0.43888476
-0.061141863 -0.5860392 1.4435092 -0.019084632 0.9445501 3.239335 1.0552462 0.9659429
0.12385448 -0.65558594 -0.41760057 -0.52467704 -0.16129787 -0.655883 -0.48667142 -0.44823894
0.26828808 -0.40967783 0.43485412 -0.135363 0.33139288 -0.36823133 0.3085077 0.2603831
1.3014199 0.7340413 0.1474645 1.8372208 0.95297325 0.118568495 4.105479 -0.2843704

model.0.bias f4 [128]
00000000: 5362 aebe 8b48 a53e 3faa 1cbe 39a4 b23c
00000010: 9c2a 513f cfee aebe 0a96 c2bc ce17 1c3e
00000020: 285c 463f d3d4 883f 9c7b 71bd f2ff 423f
00000030: e566 9dbd f1bf 9a3d 2486 90bf 87d8 453f
00000040: 2f17 f83c 2b7e 523f 12b5 9bbe 0e51 083e
00000050: cc36 81be e2c1 dfba 06a7 dd3e beed febb
00000060: 8e0e 913f 0d55 aabd 91a3 37bf 3837 2ebf
00000070: 6ce7 0ebe 7c8c d4be 43a8 f1be 6447 2ebf
00000080: 8526 063d 6ed1 4cbd adb8 f13d 689f bbbe
00000090: 041a 6c3e da82 85bf c4be 953e a09f 60bd
000000a0: 7c70 bc3c f2ac 1a3e 9129 033f f1ed d63d
000000b0: 602f 32bf 1511 afbe 71f3 cabe 98f2 6e3e
000000c0: 1f6b f33e 3cb2 4e3e b0fc a6be fbc8 7abf
000000d0: d071 05be 5c9d 9f3f ef60 51bf 54da d7be
000000e0: 41bb b1bf 7d5b 85be 5bff acbd d2ef 363e
000000f0: d2c6 ad3f 8564 d33e d96e 5c3f 671c 8abe
00000100: 29f8 95be e679 3e3e c746 4cbe c492 0c3e
00000110: 270f 553f c520 e13c 81fb 953e cbed 13bf
00000120: 7df8 153d c881 e2bd d00a bb3f c40b 3d3f
00000130: 274f 093f cc2f 263e 4cde 64be 1792 5a3f
00000140: ea40 293f cf77 62be 7ef7 a5be 7ba1 84bf
00000150: 830c a1bf 5985 963f a37d 9abe f159 1fbf
00000160: 5b16 1cbf 4550 f1be 030a 25bf f700 633e
00000170: df96 933f aece 3d3f 4663 c7be d15e 053f
00000180: 74e2 1a3d 795a f23f 3fc1 803e aec1 503e
00000190: 6fda 813e ba0c 143d 336a b33f f4c8 1cbf
000001a0: 9d02 4f3e 864a b5bd 8720 91be c6c3 1cbf
000001b0: d6bd 11bf b81d bbbe 3b78 343e a83d 1d3f
000001c0: 4170 bebd bf17 79bf fcc9 363f 8180 b33e
000001d0: a01c b1bf c7b6 3c3d 49f3 0abf 5d80 273d
000001e0: fc7f a33e 5242 643f 024e 283f d0cf 1c3f
000001f0: a507 c53e 97c7 963e a8a3 d3be 2bb9 0fbd
-0.3405939 0.32281908 -0.15299319 0.021806823 0.8170564 -0.34166571 -0.023753185 0.15243456
0.7748437 1.0689949 -0.058955774 0.7617179 -0.07685641 0.07556141 -1.1290936 0.7728352
0.030284492 0.8222377 -0.30411583 0.1331217 -0.2523712 -0.0017071331 0.4329149 -0.007779806
1.1332567 -0.083170034 -0.7173396 -0.6805301 -0.13955468 -0.4151343 -0.47198686 -0.68077683
0.03275158 -0.050004415 0.11802802 -0.36645055 0.23056799 -1.0430558 0.29247105 -0.05483973
0.023002855 0.15105036 0.512353 0.104946025 -0.6960354 -0.3419272 -0.39638856 0.2333473
0.47542664 0.20185179 -0.3261466 -0.9796292 -0.13031697 1.2469897 -0.81788534 -0.4215876
-1.388527 -0.26046363 -0.08447143 0.17864922 1.35763 0.41287628 0.8610664 -0.26974794
-0.29290894 0.18601188 -0.19948874 0.13727862 0.83226246 0.027481446 0.29293445 -0.5778472
0.03661393 -0.1105991 1.4612675 0.7384608 0.536364 0.1622917 -0.22350425 0.85379165
0.66114676 -0.22116016 -0.32415384 -1.036178 -1.2581943 1.1759444 -0.30173978 -0.62246615
-0.6097161 -0.47131553 -0.644684 0.22168337 1.1530417 0.74143493 -0.38942927 0.52097803
0.03781362 1.893386 0.25147435 0.20386383 0.25361964 0.03614495 1.4016784 -0.6124413
0.2021584 -0.08852105 -0.2834513 -0.61236227 -0.5693029 -0.3654611 0.1762399 0.61422205
-0.092987545 -0.9730186 0.71401954 0.35058978 -1.3836861 0.046072748 -0.54277474 0.0408939
0.31933582 0.89163697 0.6574403 0.61254597 0.38482395 0.2944915 -0.41335797 -0.0350887

model.2.weight f4 [128, 128]
00000000: 9773 833f a34a 7c3c 24ef b63d 726d 66bd
00000010: 5f73 ba3f af97 f13d 17ce 7a3f 77e6 e3be
00000020: 4644 23be 8a2f 59bd 0efa 833e 0b79 33be
00000030: e91b 4abe 9535 23be 4dd4 5d3e 04ff a3bf
00000040: 0b28 b1bd a563 7d3e 496d 9c3e 7759 943f
00000050: 0cc4 31bf 9f33 65be ed13 f7bc c787 92bc
00000060: a363 1dbe 6e70 863f 46d8 a23e 368a 32bf
00000070: 80ae afbe 8a86 b6be 53c7 46bd 0732 aa3e
00000080: 98e3 7c3f e275 863f 39d6 2bbd 6bc1 0dbd
00000090: c60e 943e 15ba 673e 7523 62bf 7635 163f
000000a0: ba90 833e 3dc4 8ebf a8b0 553e 3518 913e
000000b0: 35a3 bb3f a6f5 8dbc de27 babd f308 cbbc
000000c0: 7ebf d13d b3eb 0abf 0eea cc3f 5294 1d3e
000000d0: a638 c73e 02f9 223f 5c3a 07bf c119 933f
000000e0: fc24 00bd af5f 963d c795 2bba 0d67 b7be
000000f0: 9911 d5be 69be 8abe 1e82 4abe f901 443e
00000100: a62b b63f 6a49 24bd b26e 45bf c6ad c13e
00000110: 78ab 733f 0f58 a43c 3e09 003f 5f04 133e
00000120: b8ac 863a 7cd3 ba3f 82d1 6fbe 7ec2 523c
00000130: a028 ccbd f9eb 593f 64a3 55bf 982a 21bf
00000140: bcaf 303d 51c9 7b3f 989e 0abf 1c6e a03e
00000150: 7e50 923f 07c1 68bd e747 6a3f 78df 853c
00000160: d52e 313f 0095 4e3d 49c2 9cbd 059f f8bf
00000170: 950a e8bc d2aa 4bbb 13ac 343f 9789 12bc
00000180: 82cb 873f b223 43be eb1f 893f f490 5d3e
00000190: f787 ba3f 5d09 a8bd d842 643d e699 4a3c
000001a0: 60c0 29be d4c0 1b3f 727c bf3f c025 a23e
000001b0: 0284 de3d da56 f73e 94ab c6be 10bd 21be
000001c0: 23be 3b3f bd0a 863e 9b86 563d 5d54 40be
000001d0: 5119 6d3d 4e95 203e 8d79 92be 79ae 9e3f
000001e0: 2884 c8bd 7a82 11be a6d6 293f ca86 703e
000001f0: 1380 14be 580d 41bf 8e41 3a3f 1334 563d
00000200: 8e15 f93d 4dcd 0cbe e6d9 68bd caa4 0bbe
00000210: 908a 55bf 4ab9 d6be 03a5 913e fd8b cf3d
00000220: dbf7 45bf 159d 03bf 2110 6d3f ce8e 80bf
00000230: 3859 873e 35c7 81bd 571a d9be 1416 8abd
00000240: db12 503e e19f 2cbe f330 9b3d 4ed7 c83d
00000250: 889b 4e3f aa6c 263f e06a 3fbe 5927 6ebe
00000260: aa08 0a3f bd79 493e 7e7a 803f 1597 c13c
00000270: f23d 81bc ed1f 893e d930 b0bc 33c9 583f
00000280: 45e5 4e3e 299a 203e babb 723d fddb 8f3d
00000290: 8fb7 8c3e 0bdb 213f 8404 51bf 18a6 9fbe
000002a0: 14e9 8fbe 17f2 8a3e 2a70 14bf 2c8f ea3f
000002b0: 0ca8 833c 27fe bd3e 768f 0a3f 6d16 973d
000002c0: d8ca a1be 40d8 863e 4437 013e c199 d53e
000002d0: 3e94 dfbd 30e2 753f 9e7b b2bf a8cf 283f
000002e0: 245b 01bf f63e 123f b653 bb3e 5300 3abe
000002f0: c660 003f f1c5 cd3d ad0f cebd 93c4 babd
00000300: 5674 a83f 5afd 31be 0709 763f a39b b5bf
00000310: 180b aebd b5b8 00bd 13ce b3bd 597e 463f
00000320: 8276 563f c753 243e 63a0 6fbe c1f3 53be
00000330: 8772 c8bf 33f1 423e ef7f 63bd 3f79 88bf
00000340: b4ec 293e 2bff 2bbe 5613 363f 39c9 1240
00000350: 170b 18bf 3d4a c9bf ef5d 103f 0cbb e7be
00000360: f0ef 083e 052f ef3e 6f98 ad3d 783d 0bbe
00000370: 1dfa adbf d589 0c3d 9780 e4be 7ae2 ae3c
00000380: 2d1c 0bbe c631 83bf 555f 023e e21b d4be
00000390: ac46 9fbd 8813 65bd 2f20 113f a351 5abf
000003a0: 473f 24c0 2d6b 063f 1eec ddbe 0c9e a53d
000003b0: 93aa abbe 5100 07be 95a8 6dbd 298c 17bf
000003c0: 3f0d 433e 607c f9be 4f97 523f 7b84 a6bf
000003d0: 43bf f1bd 6696 aa3e 76e9 4cbe 1fc1 753f
000003e0: 5f90 983f 82b8 89bf c499 cb3d 1c04 143f
000003f0: a8aa b03e 859a 39bd e174 e5be f793 0d3d
1.026965 0.015398654 0.08932331 -0.05625672 1.4566458 0.117965095 0.9797072 -0.44511768
-0.15944013 -0.053023852 0.25776714 -0.17526643 -0.1973721 -0.15938409 0.21663018 -1.28122
-0.08650216 0.24745043 0.30552128 1.1589803 -0.6943977 -0.22382973 -0.030160869 -0.01788701
-0.1537004 1.0503061 0.3180563 -0.69742143 -0.3431282 -0.3564952 -0.048529934 0.33241293
0.9878478 1.0504725 -0.041952346 -0.034608286 0.2891752 0.22629578 -0.88335353 0.58675325
0.25696355 -1.1153637 0.2086817 0.2833878 1.4659182 -0.017329048 -0.09089635 -0.02478454
0.10241602 -0.542659 1.6008928 0.15388611 0.38910407 0.63661206 -0.52823424 1.1492234
-0.03128527 0.07342469 -0.0006545451 -0.3582081 -0.41614988 -0.27098396 -0.19776198 0.19141378
1.423207 -0.040109076 -0.7712203 0.3782789 0.95183516 0.02006152 0.500141 0.14357136
0.0010274863 1.459579 -0.23419765 0.012863753 -0.09968686 0.8512569 -0.8345244 -0.6295562
0.043136343 0.9835406 -0.54148245 0.31334007 1.1430814 -0.05682471 0.91515964 0.01634191
0.69212085 0.050435066 -0.076542445 -1.9423529 -0.028325358 -0.0031077159 0.70575064 -0.008943937
1.0608981 -0.19056585 1.0712866 0.21637326 1.4572743 -0.08204911 0.05572781 0.012365794
-0.16577291 0.6084111 1.4959853 0.31669426 0.10865022 0.4830845 -0.3880278 -0.15794778
0.73337 0.26180068 0.052374464 -0.18782182 0.05788547 0.15681955 -0.2860836 1.2396995
-0.09790832 -0.14209929 0.6634315 0.23488918 -0.14501981 -0.75410986 0.7275628 0.052295756
0.12162314 -0.13750191 -0.05684843 -0.13637081 -0.83414555 -0.4193824 0.28446206 0.101341225
-0.7733132 -0.51411563 0.92602736 -1.004358 0.26435256 -0.06336824 -0.42402908 -0.06742492
0.20319693 -0.16857864 0.07577696 0.09806691 0.8070607 0.6500956 -0.18693113 -0.23257197
0.5391947 0.19675346 1.0037382 0.023631612 -0.015776608 0.2678217 -0.021507667 0.84682006
0.20204647 0.15683807 0.05926106 0.07024381 0.27483794 0.6322486 -0.81647515 -0.31181407
-0.28107512 0.27137825 -0.5798365 1.8324943 0.016071342 0.37107965 0.54125154 0.07377324
-0.3160007 0.2633686 0.12618738 0.41718867 -0.10916947 0.9604826 -1.3943975 0.6594186
-0.50529695 0.5712732 0.36587304 -0.18164186 0.50147665 0.1004752 -0.10061584 -0.09119525
1.3160503 -0.17381802 0.96107525 -1.4188122 -0.0849821 -0.03142615 -0.0877954 0.7753654
0.8377458 0.16047584 -0.23401026 -0.20698453 -1.5659951 0.19037323 -0.05554193 -1.0662001
0.16594201 -0.16796558 0.71123254 2.2935317 -0.5939192 -1.5725781 0.5639333 -0.45259893
0.13372779 0.4671556 0.0847634 -0.13597667 -1.3591954 0.034311134 -0.44629356 0.021348227
-0.13584967 -1.0249565 0.12731679 -0.41427523 -0.077771515 -0.05592683 0.56689733 -0.8528082
-2.5663621 0.5250729 -0.43344206 0.08086786 -0.33528575 -0.13183714 -0.0580221 -0.5919824
0.19048022 -0.48727703 0.8226213 -1.300918 -0.118040584 0.3331787 -0.20010933 0.95997804
1.1919059 -1.0759432 0.09941438 0.5781877 0.345052 -0.045313377 -0.44815734 0.03456494

model.2.bias f4 [128]
00000000: 48cc babd 2871 b2bc 131f d9bd dcf8 863e
00000010: 0c21 c23c 2b6d b73e 37de 50bb 78c6 033f
00000020: 53ef 2bbc cdfe 763e c551 30bc 4a04 a83d
00000030: 5b01 c9bd aaf3 93be 8f1d 0f3f 7325 c83d
00000040: ff97 c8bc 5319 e9be 36d9 c63e b63e 403e
00000050: 2485 a63e 40e0 1dbe b416 9fbe c5e6 313c
00000060: 24e2 5c3d 2feb 1c3e 341a 043e 12fc dcbd
00000070: 6c17 b2bd e0a7 e83e 46fe 4bbf 2363 1fbe
00000080: 5504 3fbe ef42 eebe e286 07be 3469 f53d
00000090: 8362 983e 3f14 37be ca67 1c3e a9f5 1cbe
000000a0: 7982 cebe 924c 28bc de31 213e f779 21bc
000000b0: ace3 a33e b0f3 ef3e 8739 193f a8c4 cc3e
000000c0: 3f32 61bd f00a 093f 2f06 86be 4b0f 2e3f
000000d0: 67ac 91be 4fb8 65be 05c5 f83c ea1a 7a3e
000000e0: 7d9d 783d 2e31 67be 22a1 a93e 91da 60bd
000000f0: 28f9 f0bc e1c7 373d f7ab 623d a5b7 233e
00000100: 0dad b8be 6966 75bd cdf7 f3be 0ba1 6ebc
00000110: 2f71 793e e9c6 0d3d 8067 0f3e d456 c53d
00000120: 2c26 773d 50a8 5e3e 0af9 d93e 9627 bdbd
00000130: 3588 37be 928b babd 1d4e 5a3d 9ab9 603e
00000140: f2ca e739 58bc 183e 9af4 083f 87c0 c8ba
00000150: 0ac8 213e 2e68 df3d aa86 c53d 7505 c8be
00000160: b63a c9bd 9450 e7bb ca7d a53e 994b 44be
00000170: 8b59 903e 8d6e 263e 9b27 533e b88c 48be
00000180: 1746 edbd bb48 8f3e 91c8 d63c e257 a0be
00000190: 3224 1abe fe0c 46be 844b 8bbe 51bb 9ebe
000001a0: f858 b53d 3a5c bf3d 4b00 303d 1beb 88bd
000001b0: 8627 363c 6d8f 953e e93c 073f 24b1 3cbe
000001c0: 91f0 323d 946e 3d3f 2dac dfbd 1139 c53d
000001d0: 2950 9a3e 5932 04be cfb3 f23d bbfb d3bc
000001e0: e60c ed3d cbf0 363e 5be7 003f c19c bb3e
000001f0: a316 4abe 17c2 783c ba67 7c3e 6a1e bfbe
-0.09120995 -0.021782473 -0.1060163 0.2636174 0.023697399 0.35825476 -0.0031870732 0.51474714
-0.010494071 0.24120636 -0.010761683 0.08203943 -0.09814712 -0.28896838 0.5590448 0.09772768
-0.02448654 -0.45527133 0.38837594 0.18773922 0.32523453 -0.15417576 -0.3107201 0.010858242
0.053926602 0.1532409 0.1290062 -0.10790266 -0.086958736 0.45440578 -0.79684865 -0.15565161
-0.18653996 -0.4653544 -0.13235047 0.119829565 0.29762658 -0.17878817 0.15273967 -0.15328087
-0.40333918 -0.010272162 0.15741679 -0.009855739 0.32009637 0.46865606 0.59853405 0.39993787
-0.05497956 0.53532314 -0.26176593 0.67992085 -0.28451845 -0.2243359 0.030367384 0.2442433
0.060697068 -0.22577354 0.33130747 -0.05489594 -0.029415682 0.044868354 0.05533978 0.15988024
-0.36069527 -0.05991212 -0.47649994 -0.014564763 0.24359582 0.034613524 0.14004326 0.09635702
0.060339138 0.21743894 0.42572814 -0.09236066 -0.17923053 -0.09108652 0.05329715 0.21945801
0.0004421096 0.14915597 0.5349823 -0.0015316167 0.15798965 0.109085426 0.09644826 -0.39066663
-0.09825651 -0.007059166 0.32322532 -0.19169463 0.28193316 0.1625311 0.20620577 -0.1958493
-0.11585634 0.27985176 0.026218684 -0.3131705 -0.1505287 -0.19340894 -0.2720605 -0.31002286
0.0885486 0.09343763 0.04296903 -0.06685468 0.011117822 0.29210988 0.52827317 -0.18426949
0.043686453 0.73996854 -0.10921512 0.09630025 0.30139282 -0.12909831 0.11850702 -0.02587687
0.11574726 0.17865293 0.5035302 0.3664303 -0.19735198 0.015182993 0.24648944 -0.37327892

model.4.weight f4 [5, 128]
00000000: 2fbb 8dbd f1ae 0ac0 01b5 72bf d5f6 0e40
00000010: 16ce 3140 eb92 4a40 e0cd 41c0 479b 04c1
00000020: 980d e73f 6573 34bf 4fc9 fa3d 090f 013e
00000030: ae29 dabe 025e 09bf 5f57 4840 419c 0fc0
00000040: dc98 86bf 3ac1 5ebf e815 3dc0 6bae f23f
00000050: 311e e6bd fe22 b33f 36e4 5e3f b89e 0dbe
00000060: a1b7 b8bf f0dc 45c0 d60f 333f 4e8d 0240
00000070: 380a 35bd 9c34 3a40 c147 8fc0 90ab abbe
00000080: 23a1 27c0 2223 18c0 b7be 26bf 0de7 e840
00000090: a956 2e40 fe0f e4bf 3645 e33f eac7 8dbe
000000a0: b688 85c0 b4d2 36c0 24a1 173e fff3 cabf
000000b0: d11b 093f 670b 67c0 c37a 4840 5f55 4340
000000c0: a43d b1be 850a 3640 a977 e13e 66a0 b4c0
000000d0: 0344 c5bf 81c1 4a3f 2c1b 1ebe eb16 2140
000000e0: fcdf 753e 75e5 6940 0b2a dbbf aedd 30be
000000f0: 1fef 86bd 59d2 0dbe adb2 9cbe 27c1 803e
00000100: 210f 0b3f 516a 6ebf b6d1 edbf 9768 5ebe
00000110: 5af5 00bd b638 5240 0c33 1340 3c21 c13e
00000120: 29e4 a53d dbca 8f40 1901 2540 c4f4 5740
00000130: b715 eabe 4e1c bc3e a133 c6bd 3f0b 0440
00000140: 19c0 edbc 9572 963e 0bea f8be ee6e bbbe
00000150: 4696 04bf 06c1 d5be 7bf8 1bbf 5f90 55c0
00000160: 5c7c 543e aceb 48c0 e484 ba3b ad6e 673f
00000170: 93ea 98be 3451 af3f 2a5c 78bf 5199 293f
00000180: ad51 9ebe e7bd 663f 0da9 92bf e007 d73d
00000190: f177 e43d d2f8 7bc0 de00 b13f 4c2d 4f3f
000001a0: 7e10 663e eae0 8ec0 d967 953f 9fe9 8c3e
000001b0: d0ce a03e 4b58 bc3b 2b7e 18bf f46e bf3f
000001c0: a6f8 e23f bf54 863f 0ac4 043d e129 a53f
000001d0: edb1 a53e f2cb 3540 c7ca febf 8384 e73d
000001e0: 4ad2 52c0 be29 393f f44c 8e3f b940 27be
000001f0: a81a 70be 3cd8 01be 6415 1740 7ca3 95be
00000200: da4f e83d 5656 73c0 bbaf 4fc0 51ac 4bc0
00000210: d50f 05c0 7625 0d40 98dd 9040 76ce e23f
00000220: 8e24 10c0 1111 67bf fb1e cebd 5581 05bf
00000230: 3b2e 2a40 59f0 d4bf aad7 a1be 42d1 89bf
00000240: 3158 f53f 860d 2fc0 eb39 6dbf 765e cb3f
00000250: a07b 3f3f dd2b a93e c62b 0cc0 c5cd d6bb
00000260: 43c8 32c0 b0d6 02c0 5ced 2f40 4bf9 e63e
00000270: 7b54 113e f906 6f3e 992e 35c0 5c68 f1be
00000280: 9a21 8a3f 65d3 7040 bf44 9bbf 7bc6 f53f
00000290: 26c9 5e3f 9e99 90bf 89ee 813f 4814 b13d
000002a0: 4ee9 26c0 4e2d e4bf bf52 5ac0 cd7f 15c0
000002b0: 437b 173f 629c 7e40 44ae 993f 6016 0b40
000002c0: e69a 0e3e 43a1 3e40 009b bb3f 481b 1c40
000002d0: 8dfb 9640 1395 b83e e63b 6b3d 7977 6bbc
000002e0: a972 0bbe 70b9 673f 01b0 0440 e41b be3c
000002f0: 0c20 3dbd 0e08 893d 4873 08bf 36eb 90bd
00000300: 3171 41c0 1129 6f3f cae3 493e a56f 863f
00000310: 93b8 0c40 c3c4 9cbf 3204 97be f413 22bd
00000320: 7165 4f3f dae6 d93f ad7d 7ebf c001 19bf
00000330: 62e9 0c3f 79fd 9a3d 05d0 d63f f32f c3bf
00000340: 992f 41bd b7c1 aa3f 2119 9a3f cb30 813d
00000350: 25fa 973e d124 e0be c2fd 87bf 53a0 bfbf
00000360: 1f0f d23d cbef e13e 8769 b73c 0b9c fb3f
00000370: bdb4 b6be 430b a9bf 2cbb 5040 7c40 853f
00000380: d996 e43d 4f7b 06be 8094 a1c0 c7e2 2440
00000390: 4ad0 e8bc bc26 3d3f 4917 5240 40d1 643f
000003a0: 2c2c 19be 951c afbe 1197 07c0 47ad a0bd
000003b0: 5c5f 9fbd a8cc 9ac0 25b6 f33f cff0 fcbf
000003c0: 92ee 3840 4d6f e03f ba8c 2b3d 166b 3640
000003d0: d616 a3bf a52b 813f affc 2ac0 f0de c43f
000003e0: 8cdc 3140 8425 853e a1e7 3c40 efba 823e
000003f0: 5e63 12bd bd9d 84bf 3cf9 e93f 4ae0 4ec0
-0.06920468 -2.1669276 -0.9480744 2.2338154 2.7782035 3.1652172 -3.0281906 -8.2879095
1.8051023 -0.7048858 0.12245428 0.12603392 -0.42609924 -0.5365907 3.1303327 -2.243912
-1.0515399 -0.8701359 -2.954462 1.8959478 -0.11236227 1.3995054 0.8706697 -0.13830078
-1.4431039 -3.09161 0.6994604 2.0398746 -0.0441992 2.909461 -4.477509 -0.3352933
-2.61921 -2.3771443 -0.6513476 7.2782044 2.7240393 -1.781738 1.7755497 -0.27691585
-4.1729383 -2.8566103 0.14807564 -1.5855712 0.5355807 -3.610071 3.1324928 3.0520856
-0.3461734 2.844392 0.44036606 -5.64458 -1.541138 0.79201514 -0.15440053 2.5170238
0.24011225 3.65463 -1.7122205 -0.17272064 -0.065885775 -0.13849773 -0.3060507 0.25147364
0.5431996 -0.93130976 -1.8579624 -0.21719585 -0.031483985 3.2847114 2.2999907 0.37720668
0.08100159 4.4935126 2.578192 3.3743143 -0.45719692 0.36740345 -0.09677816 2.0631864
-0.029022263 0.29384294 -0.4861606 -0.3660807 -0.517918 -0.41748828 -0.60926026 -3.3369367
0.20750564 -3.1393843 0.0056921113 0.9040325 -0.29866466 1.3696656 -0.9701563 0.6624957
-0.3092169 0.9013352 -1.145784 0.10499549 0.111556895 -3.9370618 1.382839 0.8092849
0.22467229 -4.4649553 1.1672317 0.2752199 0.31407785 0.00574783 -0.5956752 1.4955735
1.7732131 1.0494612 0.03241352 1.2903405 0.3236231 2.8405728 -1.9905633 0.113045715
-3.294085 0.7232932 1.1117234 -0.16333283 -0.23447669 -0.12680143 2.3606806 -0.2922629
0.113433555 -3.8021445 -3.2451007 -3.1823924 -2.0790913 2.2054114 4.52705 1.7719257
-2.2522311 -0.90260416 -0.10064503 -0.5215047 2.6590717 -1.6635848 -0.3160985 -1.0766985
1.9167539 -2.7352004 -0.926665 1.5888202 0.7479801 0.33041278 -2.1901717 -0.0065552914
-2.793473 -2.0443535 2.7488623 0.4511207 0.14192383 0.23342504 -2.830969 -0.47149932
1.0791504 3.7629025 -1.2130355 1.9201196 0.8702568 -1.129688 1.015092 0.086464465
-2.6079898 -1.7826326 -3.4113004 -2.3359253 0.5917246 3.9782948 1.2006307 2.1732407
0.13926277 2.9785926 1.4656677 2.439165 4.718207 0.36051235 0.05743017 -0.014371746
-0.13617958 0.9051733 2.0732424 0.023206659 -0.04617314 0.066909894 -0.53300905 -0.07076113
-3.0225337 0.9342204 0.19715801 1.0502821 2.1987655 -1.2247547 -0.29495388 -0.03956981
0.8101416 1.7023575 -0.99410516 -0.59768295 0.55043614 0.07567877 1.6782233 -1.5249008
-0.047164533 1.3340367 1.2038919 0.06308135 0.29683033 -0.4377809 -1.0624316 -1.4970802
0.1025679 0.4412826 0.022389187 1.9656996 -0.35684767 -1.3206562 3.261424 1.0410304
0.111615844 -0.13132976 -5.0493774 2.5763414 -0.028419632 0.7388723 3.2826712 0.8938179
-0.14958256 -0.34201494 -2.1185954 -0.0784555 -0.0778186 -4.8374825 1.9039961 -1.9760989
2.8895612 1.7533966 0.041882254 2.850286 -1.2741344 1.0091444 -2.6716726 1.5380535
2.779086 0.26005185 2.9516375 0.25533244 -0.035739295 -1.0360638 1.8279185 -3.2324395

model.4.bias f4 [5]
00000000: 6109 a33f addb 803f 9625 1b3f b158 043f
00000010: 7bd5 773e
1.2737237 1.006704 0.60604227 0.5169783 0.2420253
