results/palindrome/rql_2.pt (torch, 84325 bytes, 6 tensors)

model.0.weight f4 [128, 25]
00000000: 8978 73c0 d3f5 a53b e51e 91be d8f5 49be
00000010: e013 9240 2061 c2be cab9 1dbf de45 aebb
00000020: 9065 a03e be82 8a3e dd87 d0bd 67ff 4f3e
00000030: 2f9c ffbd e0b7 bbbe 970d 8fbd b1d8 643d
00000040: 3fcd 77be d36f 723e 2851 36be ba82 c2bb
00000050: 4070 7abc 2e9c f23e f40e 5fbe 39ae 8abe
00000060: 32dc e23d ab39 d4be 0cc8 d6be 1f71 b73f
00000070: 5660 6a3e fac1 40be f806 88be fc88 9fbe
00000080: b2e8 dabf 355d d5bf 28f9 d2bf d1cc ddbf
00000090: b864 87be 0b1a 5bbe 19bf 0dc0 4c1c 17c0
000000a0: d7a4 fabf 1cb0 0cc0 35b5 b1bf 9725 acbf
000000b0: 600c 1dc0 692d 2fc0 933b fabf 2491 2fc0
000000c0: 5bf1 dbbf 2e12 e2bf cc12 d93f e1af 903f
000000d0: 5e6a 983e 19ad a1be 9677 51bf 060b 92be
000000e0: ec46 49be 84d7 6b3f 0465 8e3f 15bc 703f
000000f0: c084 853f 7b61 bf3f 556c 873f 76ab a33f
00000100: 067d ac3f 4c60 753f 92a3 8c3f abcb b43f
00000110: 5168 8d3f 7107 873f dbb4 8c3f 4218 773f
00000120: 35b9 903f 6fee a93f 8cd1 843f 8634 aa3f
00000130: 14db 843d 430b c8bf e116 84bf 2013 6140
00000140: a774 083f 255d ee3e fbcd 693f 67b3 99bf
00000150: dcbb 453d 3625 033e d231 883d e8ff 0ebf
00000160: 7205 6dbf 19c2 85bf 39c2 153d 4966 f2be
00000170: cc51 793c 0ce9 c0bf b767 97bf fcdd 85be
00000180: fe9c efbd 022b 1abf 72d0 cfbe 0231 d33e
00000190: 13a3 82bf c916 66be c355 0d40 2249 6bbf
000001a0: 21e4 2fbf 1567 1cbf a34b 0fbf 8e2d aebe
000001b0: afc7 87be 957f 5cbf 8245 b6be a2e6 f5bd
000001c0: 2ad9 003f e51a 0b3e 2687 2e3e cbe6 ef3e
000001d0: 51a5 33bf 98f3 19bf 07e2 0e3e 8a7e 053f
000001e0: 5ce3 b0bf 2709 143d ffe6 11bf 7a2a 3d3e
000001f0: 583c bfbe b47f fd3f 48cb 903f 67e0 c6be
00000200: 2c7e d8be 8aff 3440 1323 4d3e 29c4 dc3e
00000210: 0df9 033e bb3f fdbe 7dd1 51be 9de3 0bbf
00000220: 88f1 913e 72f0 a3be d298 05bf 802f 1b3f
00000230: 56da 57be 68f5 22bf 97cf 683f d3de 01be
00000240: ebb9 15bd 0ad0 b03e 622f 40bd f3dc 07be
00000250: ef9f 70be f830 83bf 63c3 93bf edee 1dbf
00000260: b8a3 b9bd 8b37 113f b8cd 4240 78be 063f
00000270: 0e11 3e3f 2bcc dd3e 3e54 453e f40f e23e
00000280: 70d9 433e 68d9 e3bd ce8e a23c 3743 253c
00000290: ba25 d73e c39b 0cbf 819e 803d 99a7 bd3e
000002a0: a9a9 a0ba dfdd bbbe 222b bebe 8857 623e
000002b0: e762 23bd f4ee 7fbe f091 93be de9c 6abe
000002c0: bd75 9dbf 040c 043f ef59 4540 abd9 6bc0
000002d0: ea59 74bf 50eb 65bf 1bf3 cc3c eda0 833c
000002e0: 1439 803a d06d e4bb 770e e0ba 877b 443b
000002f0: a4b9 9dbc c642 f0bc f3bb 9abb 35ff 923c
00000300: 25ce 5d3d ffe4 1e3d 46a8 dabb bb25 443c
00000310: 442f 1a3b fa20 bbbc 61f7 9e3c e740 a1bc
00000320: ac74 ee3f 8a22 013f b5fc 72be 04b4 aebf
00000330: 3880 693f 87b3 853f c557 a53f 8ad0 a2bc
00000340: 1b70 7d3d 2a19 12bc 4449 b2bd 8419 783d
00000350: 6516 38bd 497f 0fbd 6220 18be 3f46 04bc
00000360: 518a c33d 92c9 0dbe b8ea 83bc b8e0 ccbc
00000370: c379 b43c 9897 a7bd cbd2 be3d db81 a03d
00000380: 560e 8d3d 3082 b8be 9795 733f 7abc b43e
00000390: 812a f1be f582 4540 6483 6ebe f070 f8be
000003a0: 0c77 243f bb01 903e 984a 743f 5835 15bf
000003b0: 44f0 4b3f 4a5a 5bbe 18f0 28bf e1b5 193e
000003c0: 3a6b 133f 76ea c83c 7069 cbbe 2504 13bf
000003d0: c67b b33e bcf4 003f 7523 1fbf 4ac7 493f
000003e0: 25aa 493f de73 fc3e 3716 fbbc 6f30 ea3f
000003f0: 3096 863e 783c e2bd 2dd3 28c0 6cb9 1b3f
-3.804232 0.005064705 -0.28343883 -0.19722688 4.564926 -0.37964725 -0.61611617 -0.0053183874
0.31327486 0.27052873 -0.10182164 0.20312272 -0.124809615 -0.36663723 -0.06985014 0.055870716
-0.24199389 0.2367547 -0.17804396 -0.005935994 -0.015285552 0.4738478 -0.21783048 -0.27086046
0.11077155 -0.41450247 -0.419495 1.4331397 0.22888312 -0.18823996 -0.26567817 -0.31159198
-1.7102263 -1.666907 -1.6482286 -1.732813 -0.2644403 -0.21396653 -2.2147887 -2.361102
-1.9581555 -2.1982489 -1.3883425 -1.3448972 -2.4538803 -2.7371466 -1.9549431 -2.7432337
-1.7183031 -1.7661798 1.6958861 1.1303674 0.29768652 -0.31577376 -0.818231 -0.28524035
-0.19655961 0.92125726 1.1124578 0.9403699 1.0431137 1.4951624 1.0579935 1.2786701
1.3475654 0.9585006 1.0987418 1.4124655 1.104746 1.0549146 1.0992693 0.9652139
1.1306521 1.3275889 1.0376449 1.3297279 0.06487098 -1.5628437 -1.0319482 3.5167923
0.53303 0.4655544 0.91329926 -1.2007874 0.04827486 0.12807164 0.066501275 -0.5585923
-0.92586434 -1.0449859 0.03656218 -0.47343662 0.015217256 -1.507112 -1.1828526 -0.26145923
-0.11699866 -0.60221875 -0.4058872 0.41248327 -1.0206016 -0.2246963 2.2083595 -0.91908467
-0.6870747 -0.6109479 -0.5597479 -0.3401913 -0.26519534 -0.86132175 -0.35599905 -0.1200688
0.50331366 0.13584478 0.17043743 0.4685577 -0.7017413 -0.6013732 0.1395341 0.5214621
-1.3819385 0.03614154 -0.569931 0.18473235 -0.37350726 1.9804597 1.1312037 -0.3884308
-0.42283762 2.8280969 0.20032911 0.43118408 0.12887974 -0.49462685 -0.2049007 -0.54644185
0.28504586 -0.32019383 -0.5218631 0.60619354 -0.21079382 -0.6365571 0.90941757 -0.12682657
-0.03655426 0.3453372 -0.046920188 -0.13267879 -0.2349851 -1.0249319 -1.1544002 -0.61692697
-0.0906443 0.56725377 3.043806 0.5263438 0.74244773 0.4331983 0.19270417 0.44152796
0.19125915 -0.11125451 0.019843485 0.010086826 0.4202097 -0.54925174 0.06280232 0.3704193
-0.0012257594 -0.36692712 -0.37142283 0.22103703 -0.039889243 -0.24993497 -0.2882228 -0.22911403
-1.2301556 0.51580834 3.083614 -3.6851604 -0.954497 -0.89812183 0.025018265 0.016067946
0.0009782636 -0.0069710985 -0.0017094155 0.0029980855 -0.01925356 -0.029328715 -0.0047221123 0.017943958
0.054151673 0.038792606 -0.006672892 0.011971886 0.0023526708 -0.022842873 0.019405069 -0.019684268
1.8629355 0.5044333 -0.23729213 -1.3648686 0.9121127 1.0445412 1.291741 -0.01987483
0.06187449 -0.008917132 -0.087053806 0.06057121 -0.044943232 -0.035033498 -0.14856103 -0.008073389
0.09547866 -0.13846424 -0.016103134 -0.025009498 0.022030717 -0.08183211 0.09317549 0.07837268
0.068875 -0.36036825 0.9515013 0.35300046 -0.4710274 3.086118 -0.23292309 -0.48523664
0.6424415 0.2812632 0.9542632 -0.5828452 0.7966349 -0.21421161 -0.65991354 0.15010788
0.5758549 0.024525862 -0.3972888 -0.574282 0.3505537 0.50373435 -0.6216348 0.78819716
0.78775245 0.4930715 -0.030650241 1.8296031 0.2628646 -0.1104669 -2.6378891 0.60829806

model.0.bias f4 [128]
00000000: f409 f7be a9bd 87be e92f 2f3d 75e4 023f
00000010: 7b05 f3be 7f32 ae3e 6f61 103f d2b5 63bf
00000020: 07c8 9a3f a4c8 01be be4d 2d3f b0e6 e73c
00000030: 4fd5 3d3e 6c4a 343e 5644 8bbe cb7e 94be
00000040: 01d8 47bd 64a6 5b3f 2d85 5b3e f44d cbbe
00000050: c561 6fbe 249c c7bd 5300 e03e ae9f a3be
00000060: 3f90 df3f 5fe9 b83e cdc1 b23c 0566 db3d
00000070: 88a1 0e3c ae99 9bbd 502a e8bf a996 3abe
00000080: 020f 49be 2012 d0be 8d54 a1be c250 5fbf
00000090: a0ba b13e bdc7 00bf 5cfc 5ebe 05b2 8ebf
000000a0: 21ba cfbe dd0b 50bf 151a 3fbf fdd7 7bbd
000000b0: ec0c 573e bf1e e5be 1c5d ff3c d64e f2be
000000c0: b3ad d33d b0dc ec3e 12e1 9d3f 5686 57be
000000d0: ed30 88be 790e a7bd a4a1 a1be 58fd 5cbf
000000e0: 4628 81be 6469 ae3f 9ad8 5b3e d61a b0bd
000000f0: ffe5 a7bc 906a 983f 6ba4 e63e dc1b d1be
00000100: d84a a4bf c323 9e3e 3708 4fbe 15fc 11bd
00000110: 7c35 55be c7a2 4d3f 5981 d2be ca06 833e
00000120: 8575 a8be 5e5c 0d3e 6735 983f 12a9 10bf
00000130: f25a 4abe 1821 15bf 2b83 61bf 13c9 6ebc
00000140: 9631 d23c 4b15 5f3f 116c 64be 3740 293e
00000150: de9c e9be e73d 833f 4f1d c33d 64a9 193e
00000160: 3a4f 903f d36a d63d 4969 283d 54ff 203e
00000170: 8c81 1b3e 1825 823e 8c56 4cbd 7add 83bf
00000180: 0e61 1ebc ddcd 21be a79f 1f3f b8d1 b33d
00000190: 6696 eebd 0fc7 d33e e3a9 953e 4774 ebbe
000001a0: 3927 033e 03ac cabe 588c a03f 1818 a53e
000001b0: 84eb 9fbe a657 483f ffeb 933f 3b13 353e
000001c0: 24b2 593f ff38 5a3f 86a5 e5be a989 d7be
000001d0: 8323 2a3f 36a0 f53e e013 21bd 95d3 9b3d
000001e0: 6f5c c93e cb9e fc3e bd7b 493e 0d0e 5fbe
000001f0: f1d5 d4be f483 afbe 25a1 3dbf 8e90 53bf
-0.4824978 -0.26511887 0.0427703 0.5112985 -0.4746512 0.340229 0.5639867 -0.8894931
1.2092294 -0.12674195 0.6769675 0.028308243 0.18538402 0.17606515 -0.27200574 -0.29002985
-0.04878998 0.85800767 0.21437521 -0.3970791 -0.2337714 -0.09746578 0.43750247 -0.31957763
1.7465895 0.36115548 0.021820927 0.10712818 0.008705504 -0.075976714 -1.8137913 -0.18221535
-0.19634631 -0.40638828 -0.3150982 -0.872326 0.34712696 -0.50304776 -0.21775955 -1.1148077
-0.40571693 -0.812681 -0.74649173 -0.06148528 0.21001023 -0.4475002 0.031172328 -0.47325772
0.10335865 0.4626212 1.2334311 -0.21047339 -0.26599827 -0.08157057 -0.31568635 -0.8632407
-0.2522604 1.3625913 0.21469346 -0.085988685 -0.020495413 1.190752 0.45047316 -0.40841568
-1.283534 0.3088666 -0.20217977 -0.035640795 -0.20821184 0.80326504 -0.4111431 0.25591117
-0.3290216 0.13804767 1.1891297 -0.5650798 -0.19761255 -0.5825362 -0.8809077 -0.014574307
0.02565841 0.87141865 -0.22306849 0.16528402 -0.45627493 1.0253266 0.095270745 0.15006024
1.1274178 0.10469594 0.041116033 0.157224 0.15186137 0.25418925 -0.049887225 -1.0301964
-0.009666694 -0.15801187 0.62352985 0.08780235 -0.1164978 0.41362807 0.29231176 -0.4598715
0.12807931 -0.3958436 1.254283 0.32244945 -0.31234372 0.7825874 1.1556395 0.17683117
0.85037446 0.8524322 -0.44852847 -0.42097214 0.66460437 0.47973794 -0.039325595 0.076087154
0.39328334 0.493399 0.19676109 -0.21782704 -0.41569474 -0.3428036 -0.7407401 -0.8264245

model.2.weight f4 [128, 128]
00000000: c80b fbbc 6774 133e ed49 093d 4ba2 113f
00000010: 5716 acbe 6e0c 0dbe 2e93 81be a442 2240
00000020: e41e cd3e 925c 98bf ea4f 0a3e ecf3 97bd
00000030: d3e1 20bc 8700 9ebf 1cc8 72bf 0a64 0b3f
00000040: f27f 05bd b7f3 293f f298 eabd d66f 26bd
00000050: 0b2a 12be 413f 093f d1fa 253f 953d df3e
00000060: 95f4 86be 8997 65be 9ad4 3ebd a38a 83bf
00000070: 17fe fb3b 3724 a63e 8483 37be 5c7d 9f3d
00000080: c79b 543e 5dff 343e 92ad cdbe e000 b6be
00000090: c5d5 e7be d38c 4a3e 7835 a23e f356 933f
000000a0: f434 48be 2302 b13d 10b8 fc3e f394 2cbf
000000b0: f78b 8dbf 66d4 0cbd b22a afbe 64c1 04bf
000000c0: 56e6 413f e21b b6bd 369c 063e 4f2d e4be
000000d0: 17bb e43c 5878 1e3c 3588 74be b619 973f
000000e0: b177 293e ee25 673f 983d ebbd 8546 c7be
000000f0: c56c 72be f938 65bf d6ea 34be 12c5 68be
00000100: 1ddc c03f 48e6 853d 45ba c6bd 6877 1a3e
00000110: 76a4 a8bb 2352 15bf b1a8 ccbe a3b3 1fbe
00000120: 137d a63d f4d1 2a3d 709e 1c3c 0ec0 94bd
00000130: 5bd6 82be 44eb 76bd 75cc 25bf b905 c1bd
00000140: 9060 8abd 6d74 dabd 608a 17c0 d916 31be
00000150: 187e 353f fd57 72bf b391 6c3d e5ce d7bf
00000160: 8ac0 2dc0 72f9 a43d e38c f33e 9970 bc3e
00000170: af55 383c f154 433c 90d1 893c c38b cdbe
00000180: 02b0 48bf 2407 5f3d 09ed 333e 0ddd b7be
00000190: b35c 463e a082 b9bf be18 e1be 47a3 24be
000001a0: 5cdb a3bd bf1a 05be 3ee8 a0ba 1dc1 573e
000001b0: 3e4d 4dbf bee5 e1be 00e2 3f3f e90a 003f
000001c0: a952 52bf 5285 76be ae77 4f3d 8b98 8bbe
000001d0: e4ef 863f 6c59 46be fab9 80bc c7af 59be
000001e0: 2451 063e 10e4 80bf ce8f b13e 7810 9bbf
000001f0: b866 1f3f 82a9 b7bd a404 933f 377e 493d
00000200: 3a66 d4be bf0e 493e 1b11 3e3d 8185 88bf
00000210: dee9 243e 77b7 893e 2a81 26bf 868d 6fbf
00000220: 7cdf 9fbf e771 183f b2e1 88bf e123 593f
00000230: 5b75 223d 5ea9 bb3e 3140 85bf c338 643e
00000240: 9aad 863f 7d90 ffbc dca6 cfbe 7edf 57be
00000250: 7756 7cbf df65 b33e 7e77 cc3d 5f97 b0be
00000260: 21da ec3e c618 4abe cff0 53be d5ef 67be
00000270: c21e 803d 0584 c3be 9bb0 3fbf f879 7f3e
00000280: c9e8 a63c 1a67 073f 298b 75be e9cb 31be
00000290: 09c4 4dbe 9351 823f 77f2 07be 82c5 9b3d
000002a0: ea7b d7bd f662 aa3e ecb4 9d3d 3a1b 02bf
000002b0: dc0e 333f 376a 653f a195 05bf ab73 8a3e
000002c0: b597 293f 073a e2be 9ca5 40be d243 bc3e
000002d0: 765d c13e a465 483f b66f 7b3e 1400 98be
000002e0: 8c00 3f3f 142e b7be 059b 92bf 6fd4 283f
000002f0: 7b40 66bf ed18 283d ffa0 01bd 0cff 4bbe
00000300: ab9f 90be 8f06 fdbe e124 43bf 7911 183f
00000310: 78e9 50bf 9810 5c3e e3d1 69bf 468f 543e
00000320: b61d d13e 1e02 323f 59a6 12bf c3b9 2b3f
00000330: e09e 84bf f0ef ef3c 7b60 7bbe c280 023f
00000340: ad0d 33bf b4cb 8bbf b69c ecbf 137d b9be
00000350: 659a ffbe 7599 073f a016 32bf a4c0 1abe
00000360: dc70 75bf b08e 33bf 8081 043e d0ac 1cbf
00000370: 4765 53be 6be2 003f 16fe e1be 84f1 03bf
00000380: 859a db3f 8316 f3ba 1836 273e bd0c 003d
00000390: aaa5 353f a343 12bf 49c4 293f 980c 36be
000003a0: d995 b4be e341 ad3b ddab b83d 237d 633f
000003b0: 4f70 0c3f b0e4 113f b5e8 203d c080 8cbf
000003c0: 0fbf 65bf a7e8 e0bc bc1b 993d 66f3 90be
000003d0: d59f 3ebf 2078 7a3e 1248 513e 3792 05bf
000003e0: 70b9 d03c 480e 0ebf 34ed d13e 2e5b f03e
000003f0: 5515 eb3e 5a6d 9ebe bd7a 05bf 2801 8dbe
-0.030645266 0.14399873 0.033517767 0.56888264 -0.33610794 -0.13774273 -0.25307602 2.5353174
0.4006263 -1.190325 0.13507047 -0.07419571 -0.009819466 -1.2343911 -0.9483659 0.5444952
-0.03259272 0.66387504 -0.11454953 -0.040634 -0.1427385 0.5361214 0.6483584 0.4360167
-0.26358476 -0.22421087 -0.04658947 -1.0276684 0.007690202 0.32449505 -0.17921263 0.07787582
0.2076255 0.17675538 -0.40171486 -0.35547543 -0.4528028 0.19780283 0.31681418 1.151091
-0.1955145 0.08642986 0.4935918 -0.6741478 -1.1058339 -0.034382246 -0.3421226 -0.5185759
0.7574209 -0.08892037 0.13145527 -0.44565818 0.027921243 0.009672247 -0.23880084 1.1804721
0.16549565 0.9029225 -0.114863575 -0.3892099 -0.23674305 -0.8954006 -0.17667708 -0.22731426
1.5067173 0.06538063 -0.09703497 0.15084612 -0.0051465584 -0.58328456 -0.3997245 -0.1559587
0.08129325 0.041704133 0.009559259 -0.07263194 -0.25554165 -0.06028296 -0.647651 -0.0942492
-0.06756699 -0.10666738 -2.3678207 -0.17293872 0.7089553 -0.9466551 0.057756137 -1.6860014
-2.7148767 0.080553904 0.47568426 0.36804655 0.011250897 0.011922107 0.01682356 -0.40145692
-0.78393567 0.05445017 0.1757089 -0.35910836 0.193713 -1.4492989 -0.4396419 -0.1607791
-0.08000824 -0.12998484 -0.0012276245 0.2106976 -0.8019599 -0.44120592 0.74954224 0.5001665
-0.8215738 -0.24074295 0.050651245 -0.2726482 1.0541959 -0.19370049 -0.01571368 -0.2125846
0.1311689 -1.0069599 0.34680027 -1.2114401 0.6226611 -0.08967878 1.1485791 0.049192633
-0.41484243 0.19634531 0.04640303 -1.0665742 0.16104838 0.26897785 -0.6504084 -0.9357532
-1.2490077 0.595488 -1.0693877 0.8482037 0.0396627 0.36652654 -1.0410215 0.22287278
1.0521729 -0.031196827 -0.4055699 -0.21081349 -0.98569435 0.3503866 0.09983729 -0.34490487
0.4626017 -0.19736013 -0.2069733 -0.22650082 0.062558666 -0.3818666 -0.74878854 0.24948871
0.020374672 0.52891695 -0.23978867 -0.17362942 -0.20094313 1.0181144 -0.13276087 0.07606031
-0.105216816 0.33278626 0.07700524 -0.50822794 0.6994455 0.89615196 -0.5218144 0.27041373
0.6624711 -0.44184896 -0.18813175 0.36770493 0.37766618 0.7828009 0.24554333 -0.2968756
0.7461021 -0.35777342 -1.1453558 0.6594915 -0.8994214 0.041039396 -0.03164768 -0.19921511
-0.28246817 -0.49419066 -0.7622815 0.5940166 -0.81606245 0.21490705 -0.91335887 0.2075778
0.4084298 0.6953448 -0.57285076 0.67080325 -1.0360985 0.029289216 -0.24548523 0.5097772
-0.6994274 -1.092154 -1.8485324 -0.36228237 -0.4992248 0.5296853 -0.69565773 -0.15112549
-0.95875335 -0.701396 0.12940025 -0.6120119 -0.20644103 0.50345486 -0.44139165 -0.515404
1.7156531 -0.0018546138 0.16329229 0.03126215 0.7095591 -0.57134455 0.6631513 -0.17778242
-0.35270575 0.0052873953 0.09017155 0.8886282 0.5485887 0.56989574 0.039284427 -1.0976791
-0.8974466 -0.027454687 0.07475993 -0.28310698 -0.74462634 0.24459887 0.20437649 -0.5217623
0.025479048 -0.5549054 0.41001284 0.46944565 0.45914713 -0.30942804 -0.5214041 -0.27539945

model.2.bias f4 [128]
00000000: 0cd8 483d 2d6f 71bd b64f 82be 73e5 12be
00000010: 2a79 a13e 94af c6bc 836b 273e 66db f13c
00000020: fe16 543e 57da 7cbd 36fb 613e 0444 99be
00000030: c414 0f3e f37e 5bbe 9ff4 3dbc b85f 82be
00000040: 50b4 71be b4e3 b43e b130 503e 2dbf c5be
00000050: 3b79 163e 41fb f7bd bb66 653e 9d27 a83d
00000060: 848c 39be 6e42 5a3c c748 1d3e 6b6b 8fbe
00000070: be67 febd 8eaf 283e 9763 a2bb 66a2 b5bd
00000080: b19c a13e 7c4f 6bbe 59cf edbe f964 95be
00000090: 3377 213e f2fa 9b3d 92f9 203d 2a38 363e
000000a0: f0a4 d73d 2ae1 77bd 2a0c 1e3e 4815 393e
000000b0: 42b6 a03d a639 973e e1ef fabe 7804 a0be
000000c0: f0ca c03e 0089 34bd 0b97 a73b 823e 583d
000000d0: 4880 a73e a7a3 583c ad31 4abe 99ad 4c3d
000000e0: 0d70 043d 0a88 17be eef1 e53e 52cc a23e
000000f0: c0aa 123c 0931 51bd 0204 81be 1ed9 ddbd
00000100: 9776 61be 1e3e 463e 7f4f e73e fe01 00be
00000110: 198b 0d3c 0b2a 1cbd 80ab 443d 72bc 423e
00000120: 33ef 113e 290d a1be 259f 0abe cae8 383d
00000130: 90d7 7f3e 4ef6 2c3d e18d 153d e278 12be
00000140: 8bd8 20be b5c7 d23d d44e babd 0aff 1b3c
00000150: f0d0 3ebe de69 2d3e a8e9 fabc 0943 f03d
00000160: d24f 0dbf cf84 c6bd f530 cfbd 2872 023d
00000170: 511b 3e3e 4936 0d3e b0fe ad3e fe56 7fbe
00000180: c721 6ebd bd59 87be 71fd 3a3e 5b3e 8bbe
00000190: e780 aabb e6cc 053e 1539 df3d 299a b03e
000001a0: edae 3fbe e269 97be ca1e b1bd 9f3b 543e
000001b0: 59c2 0cbe 9ddc 62be c63d 64be 3195 033d
000001c0: 1c28 46bc 8034 c13c 4768 0f3e 0130 f2be
000001d0: 34fd 21be 9a13 48be 2605 ad3d fe1c fd3c
000001e0: 415c 5b3e d1fd cc3c 2f37 8ebd 3cb6 92bc
000001f0: 1530 b3be 7b43 adbe c5b5 91be f1a9 fe3d
0.049034163 -0.058943916 -0.2545144 -0.1434534 0.31537753 -0.024253644 0.16349606 0.029523563
0.20711896 -0.061731663 0.22068486 -0.29934704 0.13972765 -0.21435146 -0.011593967 -0.25463653
-0.2360394 0.35329974 0.20331074 -0.38622418 0.14694683 -0.1210847 0.2240247 0.08210681
-0.18120009 0.013321502 0.15359794 -0.2801164 -0.12422131 0.16473219 -0.0049557197 -0.08868866
0.3156486 -0.2297954 -0.46447256 -0.291786 0.15768127 0.076162234 0.03930051 0.17794862
0.10529506 -0.060517468 0.15434328 0.18074524 0.07847263 0.2953617 -0.49011138 -0.3125341
0.3765483 -0.044075966 0.0051144413 0.052793987 0.32715058 0.0132226115 -0.19745512 0.049970243
0.032333422 -0.14797989 0.4491114 0.3179651 0.008951843 -0.051072154 -0.2519837 -0.108324274
-0.22017895 0.19359633 0.45177838 -0.1250076 0.0086391205 -0.038126033 0.048015118 0.19017199
0.14251404 -0.31455353 -0.13537271 0.04514388 0.24984574 0.042227082 0.03651226 -0.14303926
-0.15707605 0.10291997 -0.090970665 0.009521255 -0.18634391 0.16934916 -0.030628994 0.11731536
-0.5519992 -0.096933 -0.1011676 0.03184715 0.18565108 0.1379024 0.33983374 -0.24935529
-0.05813768 -0.26435652 0.18260743 -0.2719601 -0.0052033546 0.13066444 0.108995594 0.34492615
-0.18719073 -0.2957297 -0.08648451 0.20725869 -0.13746013 -0.2215447 -0.2228919 0.032124702
-0.012094524 0.023584604 0.14004622 -0.4730225 -0.15819246 -0.19538727 0.084482476 0.030897614
0.21421911 0.025023373 -0.06944119 -0.017909162 -0.3499762 -0.33840546 -0.28458992 0.124347575

model.4.weight f4 [5, 128]
00000000: b57c 8bc0 6e64 9cbf 39ec 2e3f 7cf4 483f
00000010: 9e03 873f 4012 f9bf 53cb 2540 c1d6 613f
00000020: e243 2d40 1744 d0bf e712 443f 469e 063f
00000030: 5bfa b1be 6973 a43f b24e d43f b7f1 60bf
00000040: 48fb 44c0 c1e2 50bf 7166 e7bf fff8 e9be
00000050: 9816 aebf d98d 933f 7b9e 4140 8edc f8bf
00000060: 1935 9bbe 6b47 b03d bc26 42bf 8d31 ec3e
00000070: 7f37 ccbf fa12 bebe f293 84bf 0908 18bf
00000080: 281a 973f 5f83 a6be 304e 3ec0 100d 813f
00000090: 763d 2740 e87c 3c40 d874 ab3f b958 a53e
000000a0: adc5 cc3f b1c2 40bf 73c4 6dbf 31c1 9b3d
000000b0: 1805 2240 e94d bc3e a595 d5be ae88 00bf
000000c0: 5b71 823e e49c 90be f34a 9b40 dbf4 9e3f
000000d0: ae03 083f 4671 f93f c1e8 5bc0 84a8 623f
000000e0: 0434 083f ad03 1cc0 e306 283d 61c2 093d
000000f0: d963 3d40 fa03 7b3f 24e1 db3d 94c1 8a3c
00000100: c5dc 8e3e d439 5cc0 ac52 08c1 2315 3fc0
00000110: a3e9 8e3e 79d9 0ac0 0626 1f40 995e 8b3e
00000120: b95c edbf 8128 5240 c372 aa3e 157a d1bf
00000130: 059c cbbe ea26 1d3e e252 fcbe 603c 18c0
00000140: 3341 06bf f437 5dbf c185 89bf 0d4d c6be
00000150: ecfc 4dc0 cd7f a43f f4d7 5f3f 1944 42be
00000160: 463e bdbf b2e7 9cbf 8af4 71bf 39b3 e3be
00000170: 5aac 5abf 383a 9d3f 6a57 0dc0 e928 47be
00000180: 8b1e 1140 2c6a 483d 0b22 a73f e458 813f
00000190: b65c 3ac0 d830 e03f e5af 1c40 5989 473f
000001a0: b389 9f3f 6328 2f40 6d8f 933f 3bc9 0540
000001b0: c18f 1abe 817e e6bf 5021 26bc 5fec e4bf
000001c0: 14ac 14c0 0157 5dbf 774a 8240 e2f7 16c0
000001d0: 2b34 30bf cad8 dfbe 5e44 ff3e fec6 803e
000001e0: 2959 f73f 07a1 f7bf 1ea2 88bf 3268 76bf
000001f0: ff7c 1fc0 dead edbd 5ea4 bdbf a83a 30be
00000200: 6e88 6340 d701 783f f2e4 86bf edfa 223d
00000210: 48b2 acbf fd9d 09c0 6e42 d93f c106 e2bf
00000220: e421 1240 5a43 ccbf 135a a23f 84b2 c1bf
00000230: c30a c8bf 9da6 4140 7147 cabc aad8 5fbf
00000240: a906 723f d9c6 f0bf 1821 2cbe fd94 bb3f
00000250: b2d7 08c0 7cf8 4ebf ab99 4140 83f9 30c0
00000260: be14 b9be 23b7 b83f cb69 ddbf b9bd 9f3e
00000270: d40e 0ec0 9511 31c0 5595 243f 482c 66c0
00000280: 298b ba3f 3f1d 70c0 e2b4 edbf 50d9 dc3f
00000290: 26e8 22bf 0502 ec3f 136d 21be 4a64 d3bf
000002a0: f69c 22be ed42 26c0 46b5 d9bd 809a 553d
000002b0: 3165 bc3e c067 fe3b 1288 a4be 88cc 2340
000002c0: 008e 333f e538 0f3f c85a 7a40 c23c cb3e
000002d0: dac5 6d3e d21d 6ebe c383 acbf f29b cc3f
000002e0: 602d 2740 c746 b43e 6ebc 1bc0 e12a f03f
000002f0: b591 e7bf 9110 8cbe 2b99 16c0 1a93 e93c
00000300: 937e 0140 23ad 1a3f 8387 0b40 4c7c d53f
00000310: a1bf e73d 0009 f8be 59df df3e 7536 6a3e
00000320: 7cc0 5e40 d770 5dc0 7c2c 3fbd c5ae 93bf
00000330: 2bd3 9c40 1822 4a40 e2eb 6bbf 246a a33f
00000340: 6cf0 9ebf e709 2f40 7bf1 49c0 3b1f bb3f
00000350: ada3 fb3f ff0d d6be ecef 07c0 a84c 83c0
00000360: b715 58bf 42c7 d6bf 2998 823f 7415 e13f
00000370: 488f 15c0 80e8 61bf 23ef 7f3f 2789 6abe
00000380: a402 1e40 a894 13c0 16a5 7ec0 a452 24bf
00000390: 05de fabf de66 2ebf 9f63 ebbf ea89 ff3f
000003a0: 4027 3140 0fbd 2940 0e18 e03f 4af4 cf3e
000003b0: 26f5 05c0 5d9e 10c0 7660 1a40 93f1 20c0
000003c0: ba08 87bf 56d1 0040 6b0d 7a3f 98fb c3bf
000003d0: 26bb 5bbf 3168 d5bf 4068 8440 cdd4 043f
000003e0: 629a 8c3f 5e6d b0bf 46a6 9c3f bbbb 9d3f
000003f0: aca3 f7bf 1500 19c0 2585 af3f 4510 1cbf
-4.358973 -1.2218149 0.683292 0.78498054 1.0547979 -1.9458694 2.590535 0.88218313
2.7072682 -1.6270779 0.7659134 0.52585256 -0.3476132 1.284772 1.6586516 -0.8786883
-3.077837 -0.81596 -1.8078138 -0.4569778 -1.3600645 1.1527663 3.0252979 -1.9442308
-0.30313948 0.08607372 -0.75840354 0.46131554 -1.5954436 -0.37123853 -1.0357649 -0.5938726
1.1804857 -0.32522103 -2.9735222 1.0082111 2.6131263 2.9451237 1.3395033 0.32294253
1.5997826 -0.75297076 -0.9287788 0.07605208 2.531561 0.3677819 -0.41715732 -0.50208557
0.25477108 -0.28244698 4.852899 1.2418474 0.53130615 1.9487693 -3.4360812 0.88538384
0.5320437 -2.4377244 0.041022193 0.03363264 2.9592192 0.9805294 0.107363015 0.016938008
0.2790281 -3.4410295 -8.520184 -2.985665 0.27912626 -2.1695235 2.4866958 0.2722061
-1.8543922 3.2837222 0.3329068 -1.6365381 -0.3976747 0.15346876 -0.49281985 -2.378685
-0.52443236 -0.864135 -1.0743943 -0.3873066 -3.2185621 1.2851502 0.87438893 -0.1897129
-1.4784629 -1.2258208 -0.9451376 -0.44472674 -0.8541924 1.2283392 -2.2084603 -0.194492
2.2674892 0.04892938 1.3057264 1.0105252 -2.9119086 1.7514906 2.4482358 0.7794395
1.2463897 2.73684 1.1528145 2.0904071 -0.150939 -1.8007356 -0.010139778 -1.7884635
-2.3230028 -0.8646088 4.07159 -2.3588796 -0.688296 -0.43720084 0.49856848 0.2515182
1.9324085 -1.9346017 -1.0674474 -0.9625274 -2.4920042 -0.11605428 -1.4815786 -0.17209876
3.555202 0.9687781 -1.0538619 0.039790083 -1.3491907 -2.1502678 1.6973398 -1.7658311
2.2833185 -1.5958054 1.2683738 -1.5132604 -1.5628284 3.0257943 -0.024692269 -0.8743998
0.9454141 -1.8810683 -0.168095 1.4654843 -2.138165 -0.8084791 3.0250041 -2.765229
-0.36148638 1.4430889 -1.729791 0.31199434 -2.219655 -2.7666981 0.6429036 -3.5964527
1.4573718 -3.751785 -1.8570826 1.7253819 -0.6363548 1.8438116 -0.15764265 -1.6514981
-0.15880188 -2.5978348 -0.10630278 0.052149296 0.36795953 0.007763833 -0.32135063 2.5593586
0.7013855 0.5594619 3.9117908 0.39694792 0.23220006 -0.23253563 -1.347771 1.5985091
2.6121445 0.3521025 -2.4333758 1.8763086 -1.8091341 -0.2735639 -2.3530986 0.028512526
2.0233505 0.60420436 2.180146 1.6678557 0.11315847 -0.48444366 0.43725088 0.22872336
3.4804983 -3.4600122 -0.046673283 -1.153771 4.9007773 3.158331 -0.92156804 1.2766767
-1.2417121 2.7349794 -3.1553638 1.4618906 1.9659325 -0.41807553 -2.1240187 -4.1031075
-0.84408134 -1.6779559 1.0202686 1.7584672 -2.3368702 -0.8824539 0.9997427 -0.22903882
2.4689112 -2.3059483 -3.978826 -0.641886 -1.9599005 -0.6812571 -1.8389777 1.9963963
2.7680206 2.6521642 1.7507341 0.40616065 -2.0930877 -2.2596657 2.4121375 -2.5147445
-1.0549538 2.0127769 0.97676724 -1.5311155 -0.8583244 -1.6672422 4.137726 0.5188721
1.0984614 -1.3783376 1.2238243 1.2322916 -1.9346824 -2.39063 1.3712507 -0.60962325

model.4.bias f4 [5]
00000000: 3fc6 0140 a649 ea3e 0bfc 053f 0366 b73e
00000010: 8a10 eebe
2.027725 0.45759314 0.5233771 0.35820016 -0.46496993
