results/palindrome/rql_3.pt (torch, 84325 bytes, 6 tensors)

model.0.weight f4 [128, 25]
0.976737 -1.3276298 1.0356802 -0.50955397 3.3071795 0.08593317 0.061014928 -0.46818548
-0.14099269 -0.30939916 0.8732237 -0.63941884 -0.6042565 0.1981787 -0.16263641 1.225432
0.51708513 1.322049 0.32035807 0.47201186 -0.05183781 1.2161903 -1.0919846 2.6348388
-0.62007403 0.019702956 1.763936 0.24441674 -2.7478034 2.6769552 1.2092757 1.438015
0.020406373 0.0031080218 -0.012231044 -0.007909042 0.0018377642 0.013104791 0.014865837 0.028187318
-0.030369312 -0.0015765368 0.0077566123 -0.060784947 0.018204052 -0.050698668 -0.0339158 0.007601525
-0.012981902 0.027050832 -0.25385746 -1.0050831 1.9765335 -0.12124231 -4.2335124 -0.17221992
-0.14236961 1.3037044 0.9350506 1.3595592 1.4019392 1.572198 1.5183182 0.36497027
0.6355705 0.6096469 0.5511656 1.0900401 0.5418388 0.21602008 -0.08073648 0.6382425
-0.09973933 0.9746539 0.040170692 0.4720249 -0.8073488 -1.1125964 0.2479257 -0.3338448
0.49592865 0.38501275 0.52057844 0.8193875 0.9553759 1.3046677 1.2237172 1.4747918
0.9481414 0.8760968 1.0257405 1.184301 1.1588365 1.5975944 1.0308704 0.75802374
1.2252011 0.9442543 1.3308543 1.5075867 -3.9558353 0.76225907 0.32295397 0.6646654
1.9215705 0.46130234 0.46204692 0.14306548 0.06733958 -0.07812667 -0.039709654 0.1289929
0.048260476 0.031978965 -0.116033666 -0.009148416 -0.12059516 -0.124747396 0.049566284 0.09687367
0.069776505 0.14261727 -0.23324424 0.15869622 0.06520463 2.5859551 0.008148465 0.36603096
1.7361667 13.047263 0.6290862 0.5593179 0.13793702 -0.37773162 -0.2012393 0.0891494
0.078533955 -0.14481574 -0.074668996 0.29907107 -0.231432 0.22445914 0.022491865 0.3341807
-0.0043592285 -0.18905668 0.23838288 -0.023414653 0.18849057 0.0978856 0.6755469 -0.6425367
1.9693989 0.82666427 -1.9487101 0.2636683 0.19356789 1.5471317 0.5035785 1.4997426
1.6600845 0.4452614 2.5616934 -0.14446142 1.0018687 0.23462701 0.52015066 0.56943935
0.7634474 -0.8095991 0.27666828 -0.07872193 0.57952803 0.55233866 -0.31770408 -2.2388608
1.1066746 -0.3495151 0.059983235 0.3067592 1.0407255 1.08009 -0.15389803 -0.12361096
-0.17334932 -0.27546182 -0.09983453 0.11063569 -0.36308968 1.146163 -0.3423648 0.67705613
-0.55050206 0.29177192 -0.0019242004 0.90414476 -0.4511609 0.45008692 0.42601734 0.5054952
-0.6038519 0.8085435 0.31403098 -0.015252761 -1.066449 0.18851371 0.30826986 -0.10899776
1.3672252 0.66069007 -0.1607032 -0.51449263 0.23021522 0.09821887 -0.27232382 -0.3956312
-0.69293463 -0.18387626 0.55001 -0.50107926 0.5078311 -0.1879346 0.27944267 0.5501951
0.30226788 0.26705214 -2.7771764 2.9279664 0.50061494 3.7172718 -0.40637964 -0.5743278
-0.0019250343 -0.25285578 0.62634146 0.07141176 0.1525884 0.053066995 0.05619516 0.13000648
-0.040263437 0.5673163 0.2846163 -0.21948603 -0.42877585 0.2396403 0.057369597 0.21515004
-0.021536462 0.10231556 2.125061 1.4535302 1.1206979 -1.202745 4.318078 0.012617365
00000000: 700b 7a3f c6ef a9bf 2b91 843f 2172 02bf
00000010: d4a8 5340 bbfd af3d caea 793d 02b6 efbe
00000020: 6360 10be 9169 9ebe 978b 5f3f f4b0 23bf
00000030: 8eb0 1abf 5bef 4a3e 298a 26be f5da 9c3f
00000040: b15f 043f e738 a93f f905 a43e 8aab f13e
00000050: e253 54bd 20ac 9b3f 27c6 8bbf 33a1 2840
00000060: 2cbd 1ebf 1868 a13c a8c8 e13f 6248 7a3e
00000070: 03dc 2fc0 3c53 2b40 8cc9 9a3f e010 b83f
00000080: 442b a73c f4af 4b3b b764 48bc ed94 01bc
00000090: 22e1 f03a 7ab5 563c d78f 733c 17e9 e63c
000000a0: 10c9 f8bc cca3 ceba 2e2b fe3b a3f9 78bd
000000b0: aa20 953c 68a9 4fbd 4beb 0abd 3716 f93b
000000c0: 0bb2 54bc b599 dd3c 9bf9 81be 90a6 80bf
000000d0: 0dff fc3f e34d f8bd ef78 87c0 6b5a 30be
000000e0: 57c9 11be c9df a63f 7a5f 6f3f 0906 ae3f
000000f0: be72 b33f c93d c93f 4058 c23f 62dd ba3e
00000100: c0b4 223f d211 1c3f 3019 0d3f 6f86 8b3f
00000110: f3b5 0a3f 5e34 5d3e 2b59 a5bd dc63 233f
00000120: 2244 ccbd eb82 793f 068a 243d 3fad f13e
00000130: 69ae 4ebf 8f69 8ebf 3ce0 7d3e b5ed aabe
00000140: 5cea fd3e 6420 c53e a144 053f 61c3 513f
00000150: 8493 743f 5aff a63f c4a2 9c3f fac5 bc3f
00000160: 65b9 723f e147 603f 774b 833f 2d97 973f
00000170: c154 943f f97d cc3f 90f3 833f d80d 423f
00000180: 64d3 9c3f a6ba 713f 6f59 aa3f 9af8 c03f
00000190: 682c 7dc0 6923 433f 395a a53e 8327 2a3f
000001a0: 06f6 f53f d22f ec3e 6a91 ec3e c27f 123e
000001b0: 55e9 893d e000 a0bd 97a6 22bd b716 043e
000001c0: c7ac 453d 60fc 023d 0fa3 edbd 3de3 15bc
000001d0: 98fa f6bd 907b ffbd 0406 4b3d b465 c63d
000001e0: fce6 8e3d 430a 123e 94d7 6ebe 4381 223e
000001f0: 018a 853d 4a80 2540 2481 053c 6968 bb3e
00000200: b63a de3f 97c1 5041 cb0b 213f 752f 0f3f
00000210: 5d3f 0d3e 0a66 c1be ad11 4ebe f693 b63d
00000220: 69d6 a03d 944a 14be 0fec 98bd d81f 993e
00000230: 83fc 6cbe 9ed8 653e dc40 b83c bc19 ab3e
00000240: dcd7 8ebb 1398 41be a41a 743e 16d0 bfbc
00000250: ac03 413e 3f78 c83d a4f0 2c3f 497d 24bf
00000260: 4315 fc3f 45a0 533f 556f f9bf 88ff 863e
00000270: a936 463e 6908 c63f 85ea 003f 91f7 bf3f
00000280: a67d d43f 4df9 e33e c9f2 2340 b2ed 13be
00000290: 3c3d 803f 1042 703e 9828 053f c7c6 113f
000002a0: 4a71 433f e341 4fbf 77a7 8d3e f738 a1bd
000002b0: f35b 143f 1166 0d3f 1caa a2be 7f49 0fc0
000002c0: 83a7 8d3f a5f3 b2be fbb0 753d 8b0f 9d3e
000002d0: 7e36 853f 6440 8a3f 7297 1dbe be27 fdbd
000002e0: 7c82 31be 5509 8dbe 0c76 ccbd f794 e23d
000002f0: e4e6 b9be 78b5 923f 704a afbe 8d53 2d3f
00000300: b4ed 0cbf 2163 953e 7435 fcba 0876 673f
00000310: 90fe e6be cb71 e63e f21e da3e 2268 013f
00000320: 0a96 1abf b5fc 4e3f abc8 a03e b7e6 79bc
00000330: 6781 88bf bd09 413e 8cd5 9d3e 383a dfbd
00000340: 3c01 af3f fc22 293f 618f 24be cab5 03bf
00000350: 8abd 6b3e fa26 c93d 076e 8bbe 2c90 cabe
00000360: 2a64 31bf 0f4a 3cbe 75cd 0c3f bb46 00bf
00000370: 3801 023f ee71 40be 1c13 8f3e 96d9 0c3f
00000380: dbc2 9a3e 0fbb 883e 42bd 31c0 cd63 3b40
00000390: 4d28 003f c8e7 6d40 fe10 d0be 2607 13bf
000003a0: 6f51 fcba 5076 81be ea57 203f 5440 923d
000003b0: 2240 1c3e c75c 593d e52c 663d 6b20 053e
000003c0: 46eb 24bd a43b 113f 3ab9 913e f2c0 60be
000003d0: 8288 dbbe 4464 753e 62fc 6a3d 4b50 5c3e
000003e0: 3c6d b0bc d28a d13d 0001 0840 470d ba3f
000003f0: 0773 8f3f 8cf3 99bf b22d 8a40 11b9 4e3c

model.0.bias f4 [128]
-0.1596906 1.3522537 -0.020733638 0.48973656 0.29323792 0.6341162 0.2916075 0.8880489
0.32629344 -0.43211553 0.27756077 -0.11107809 0.06081764 -0.7626781 -1.0970331 -0.44959784
-0.0842003 0.08448619 0.3575346 0.13085845 -0.39948756 0.3579263 -0.26192275 0.40735084
0.3830272 0.5638627 0.43229267 -1.1299587 -0.15796676 -0.32826823 -0.5041972 -0.3182877
-0.14124897 -0.07559466 0.085212976 -0.32176661 0.024220804 -0.3575573 -0.68077904 0.54991394
0.46201316 0.24669059 -1.0100244 -0.5397297 -0.1336781 -0.32313755 -0.48947623 1.0232551
-0.0734223 0.17831649 0.0022281387 0.43389994 0.24811603 0.011934487 0.06043638 -0.40046892
-0.6434768 -0.31138664 -0.0858454 -1.5121742 -0.33977106 -0.0541882 0.47296035 -0.15075289
-0.026869167 -0.69241285 0.73081267 -0.20795089 -0.24128115 0.18652253 -0.1680953 -0.055031925
0.009689705 0.87529105 0.15553625 -0.42618665 0.3642685 -0.23930639 -0.3625939 0.1497561
0.28955454 0.023726419 1.2839204 -1.2433962 -0.36098507 -0.91464484 0.8438919 0.42621216
0.08459706 -1.5113927 0.18332265 -0.16191107 0.42210552 0.40835214 0.0611961 0.15087299
0.008585995 -0.8306472 -0.35121542 -0.040511366 -0.05800928 -0.8348864 -0.56826687 0.22149903
0.3573391 -0.9604227 1.2271936 0.7250412 0.30656734 -0.32838073 0.031215696 0.103707455
0.64182967 0.3122179 0.103442684 -1.1557415 0.37728575 0.47607845 1.7469611 -0.026619256
-0.14238928 -0.21319826 0.10526065 -0.0055446066 -0.54403055 0.59192556 0.025666904 -0.24647886
00000000: ef85 23be a616 ad3f 97d9 a9bc c0be fa3e
00000010: 4823 963e 7055 223f 944d 953e 2c57 633f
00000020: ef0f a73e 3f3e ddbe 721c 8e3e e97c e3bd
00000030: eb1b 793d df3e 43bf 956b 8cbf b031 e6be
00000040: 3571 acbd 1807 ad3d c60e b73e c2ff 053e
00000050: a289 ccbe 1e42 b73e bd1a 86be 4a90 d03e
00000060: 241c c43e 4e59 103f 7755 dd3e 7da2 90bf
00000070: 0ac2 21be c612 a8be 1113 01bf 9bf6 a2be
00000080: 92a3 10be 60d1 9abd 2484 ae3d 98be a4be
00000090: b56a c63c c011 b7be 8947 2ebf 29c7 0c3f
000000a0: fd8c ec3e 759c 7c3e 7b48 81bf ba2b 0abf
000000b0: e9e2 08be 4972 a5be a19c fabe 06fa 823f
000000c0: 6e5e 96bd 9998 363e f705 123b 2228 de3e
000000d0: 2112 7e3e de88 433c 238c 773d 430a cdbe
000000e0: e5ba 24bf 126e 9fbe b7cf afbd ed8e c1bf
000000f0: 79f6 adbe 72f4 5dbd dc27 f23e f75e 1abe
00000100: ba1c dcbc f841 31bf 8a16 3b3f 14f1 54be
00000110: 6812 77be c3ff 3e3e 2d21 2cbe 2869 61bd
00000120: 92c1 1e3c 1313 603f e544 1f3e 2335 dabe
00000130: 6781 ba3e bc0c 75be e8a5 b9be aa59 193e
00000140: 7e40 943e e85d c23c 8157 a43f 9b27 9fbf
00000150: 09d3 b8be 2a26 6abf 4d09 583f 7b38 da3e
00000160: 3941 ad3d 5175 c1bf efb8 3b3e 04cc 25be
00000170: 371e d83e 8813 d13e c3a8 7a3d 737e 1a3e
00000180: 46ac 0c3c 4ba5 54bf 82d2 b3be 3fef 25bd
00000190: 249b 6dbd 1dbb 55bf f079 11bf a4d0 623e
000001a0: 27f5 b63e 43de 75bf ae14 9d3f 4d9c 393f
000001b0: 65f6 9c3e 8521 a8be 0fb8 ff3c 9364 d43d
000001c0: f34e 243f 06db 9f3e c2d9 d33d 56ef 93bf
000001d0: 992b c13e 8ec0 f33e 6c9c df3f a010 dabc
000001e0: 7fce 11be a550 5abe e592 d73d 88af b5bb
000001f0: 9645 0bbf 6f88 173f 6643 d23c f464 7cbe

model.2.weight f4 [128, 128]
1.6266484 0.07185253 -0.19513224 0.6702414 -0.83999157 0.060224272 -0.026307212 -1.0323081
-0.85952455 0.13194026 0.2231413 0.21093462 -0.7288807 0.018029353 0.019486751 0.36390868
-0.21036603 -1.4008796 -0.7372818 0.6201428 -0.21627368 -0.005346249 0.00996691 0.8958432
0.08986119 0.082335636 0.04366434 0.5660415 1.0085417 -0.9478953 -0.58089364 -0.93050164
-0.14719944 1.4221286 0.1112821 -0.043006636 1.8165883 -0.27468213 -0.033299655 0.56452656
-1.1751208 -0.045913495 0.5511012 -0.09199194 0.36333558 0.13915275 -0.07080715 0.07409462
-0.90618336 -0.73179966 -0.97554946 -0.9289744 0.0036377136 -1.4061215 -0.56068754 0.40865746
0.16462146 -1.4784253 1.7199718 0.9602234 1.3552843 -0.06687305 0.31270316 -0.42677653
0.21166304 -0.28673124 -0.18855214 0.16529606 0.044950012 -0.11095179 0.5051834 1.679223
0.10382377 0.2730669 -0.5739218 -1.9554824 -0.13636135 1.4697759 1.225484 0.073392436
-0.76595926 -0.974112 0.16064645 -0.8523524 -0.86853963 -0.04899315 0.4760105 -0.4869131
0.9565347 -0.041163426 -0.27397484 -0.07327138 0.07652922 -0.06236129 0.49576893 0.37986702
-0.083543025 0.19554205 0.004818795 0.0340205 -0.08052473 0.22606988 -0.08158341 0.9258011
-1.124185 -0.6611776 -0.36871386 -0.1579365 0.550964 0.053154983 1.204054 -0.07784769
-0.2022308 1.1897324 -0.85164046 -0.42642915 -0.1241575 -0.81464964 0.052921318 0.7308106
0.20014971 -1.45158 -0.16394666 0.24261145 -1.3270898 0.6342748 0.6194251 -0.67160606
0.43671873 -1.8386257 0.08608367 0.28605983 0.5090458 1.2065841 0.37184942 0.5892478
0.35756183 -1.260401 -0.6347614 -0.35459897 0.029949568 1.5245664 -0.50643545 -1.1274574
0.6063299 0.77745587 -0.27155897 0.24864182 0.16439302 0.1765968 -0.030325571 0.5660181
0.20538682 -1.006265 2.740729 0.53734004 0.37813035 -0.121431835 -0.34967637 -0.06009936
-0.18992588 0.048270263 -0.4410322 0.48859146 0.013624874 -0.016400341 0.3889116 0.13987601
0.8024468 -0.30647883 0.23060443 -0.4160529 -1.342144 0.45550624 -0.88575727 0.50568295
0.26562452 -0.512175 -0.13725032 0.20959353 3.1053658 0.65724546 0.125167 -0.14135319
-0.19517271 -0.22053462 -0.044375736 -0.79023504 0.05231642 -0.68610257 0.27191252 0.030052736
0.029613376 -0.5012746 0.111178115 -0.33461264 -0.35729083 0.3177032 0.022254944 0.08007071
0.1710988 0.20278242 -0.25280774 -0.75510436 -0.22805259 0.3191767 0.2825199 2.098427
-0.5306025 0.07240954 -1.5578712 -0.22266144 -0.007904034 -0.18903309 0.22470811 0.36890808
0.25974983 1.2756974 0.30492043 0.6743431 -0.010785255 0.06387693 0.7701187 -0.7051106
0.02909223 0.46658063 0.07441621 0.048039597 0.9569775 -0.46013775 -0.28939655 0.24138486
0.4186164 0.17148046 0.65734786 1.718223 0.43023235 -0.91981727 1.6896 -0.48248556
0.40172806 0.24284282 0.30944985 -0.5171555 0.7855886 -0.11623168 0.83540136 -0.3659841
0.23551768 -0.24095908 1.1752682 -1.9558766 -0.6091749 -0.1951603 0.2801359 0.8447764
00000000: 0436 d03f 6b27 933d bfd0 47be f194 2b3f
00000010: b009 57bf baad 763d 3982 d7bc ac22 84bf
00000020: cd09 5cbf 591b 073e 277f 643e 3fff 573e
00000030: ed97 3abf 4bb2 933c aea2 9f3c 3d52 ba3e
00000040: 316a 57be 0650 b3bf 80be 3cbf aec1 1e3f
00000050: d976 5dbe 962f afbb 404c 233c fb55 653f
00000060: 2509 b83d 969f a83d 61d9 323d 19e8 103f
00000070: e517 813f 44a9 72bf 72b5 14bf 5b35 6ebf
00000080: 73bb 16be 4f08 b63f dfe7 e33d ba27 30bd
00000090: f785 e83f 23a3 8cbe 3865 08bd d084 103f
000000a0: 5c6a 96bf ca0f 3cbd f814 0d3f 4566 bcbd
000000b0: 1f07 ba3e 0f7e 0e3e 5703 91bd ecbe 973d
000000c0: a2fb 67bf 3957 3bbf 9cbd 79bf 44d1 6dbf
000000d0: b566 6e3b cafb b3bf 3889 0fbf 8d3b d13e
000000e0: 8792 283e 0a3d bdbf 0928 dc3f 33d1 753f
000000f0: f579 ad3f bdf4 88bd a11a a03e 7482 dabe
00000100: 32be 583e 70ce 92be d013 41be 5f43 293e
00000110: 811d 383d b13a e3bd b353 013f c7f0 d63f
00000120: 8fa1 d43d 6dcf 8b3e 8aec 12bf 3f4d fabf
00000130: 4fa2 0bbe 9e21 bc3f a9dc 9c3f c64e 963d
00000140: e815 44bf 675f 79bf 8180 243e c433 5abf
00000150: 9d58 5ebf 0bad 48bd a6b7 f33e ad4c f9be
00000160: 75df 743f fb9a 28bd 6e46 8cbe 4e0f 96bd
00000170: 5abb 9c3d 8d6e 7fbd 6dd5 fd3e ee7d c23e
00000180: 9b18 abbd 2d3c 483e fbe6 9d3b 1459 0b3d
00000190: 26ea a4bd dd7e 673e 3415 a7bd 4d01 6d3f
000001a0: 4be5 8fbf ef42 29bf 10c8 bcbe 1bba 21be
000001b0: fa0b 0d3f 0ab9 593d 711e 9a3f 9c6e 9fbd
000001c0: 9715 4fbe 2749 983f 1c05 5abf ec54 dabe
000001d0: 4a46 febd e18c 50bf 06c4 583d 6716 3b3f
000001e0: 0cf4 4c3e 60cd b9bf a2e1 27be 236f 783e
000001f0: 14de a9bf d55f 223f a592 1e3f 60ee 2bbf
00000200: 9999 df3e 1658 ebbf a34c b03d 6f76 923e
00000210: d350 023f 5971 9a3f 0c63 be3e f2d8 163f
00000220: 5812 b73e d254 a1bf b97f 22bf ff8d b5be
00000230: cc58 f53c fe24 c33f c1a5 01bf 8650 90bf
00000240: 7038 1b3f 5907 473f c709 8bbe f69b 7e3e
00000250: a556 283e cbd5 343e 556d f8bc 90e6 103f
00000260: ec50 523e 4bcd 80bf 1b68 2f40 1e8f 093f
00000270: 4d9a c13e 41b1 f8bd c808 b3be bf2a 76bd
00000280: ee7b 42be 0ab7 453d f9ce e1be a928 fa3e
00000290: dd3a 5f3c 025a 86bc 6c1f c73e a83b 0f3e
000002a0: 276d 4d3f cbea 9cbe 9123 6c3e e304 d5be
000002b0: 60cb abbf 1d38 e93e fdc0 62bf 7074 013f
000002c0: f0ff 873e e71d 03bf 598b 0cbe b09f 563e
000002d0: 50be 4640 3d41 283f c72b 003e e4be 10be
000002e0: 5bdb 47be d4d3 61be 55c3 35bd d84c 4abf
000002f0: be49 563d 6ba4 2fbf 1e38 8b3e 2831 f63c
00000300: c097 f23c 8853 00bf 5ab1 e33d 5952 abbe
00000310: d3ee b6be fea9 a23e 0050 b63c 1dfc a33d
00000320: 8634 2f3e 32a6 4f3e 0470 81be 854e 41bf
00000330: 9e86 69be 216b a33e 73a6 903e a14c 0640
00000340: 91d5 07bf 744b 943d 5368 c7bf 5c01 64be
00000350: ec7f 01bc e491 41be e219 663e 85e1 bc3e
00000360: eefd 843e 0d4a a33f 881e 9c3e c0a1 2c3f
00000370: a3b4 30bc e8d1 823d 8026 453f 2182 34bf
00000380: d452 ee3c a8e3 ee3e 8767 983d 2bc5 443d
00000390: 7afc 743f 2d97 ebbe c92b 94be 982d 773e
000003a0: e454 d63e 9398 2f3e f347 283f bbee db3f
000003b0: 6a47 dc3e 2579 6bbf d044 d83f 5908 f7be
000003c0: 4daf cd3e caab 783e 3670 9e3e 4e64 04bf
000003d0: 561c 493f e00a eebd dddc 553f 4562 bbbe
000003e0: 8c2b 713e fabd 76be 306f 963f 2a5a fabf
000003f0: e3f2 1bbf 1ad8 47be f96d 8f3e 4443 583f

model.2.bias f4 [128]
0.023341307 0.36436144 -0.013302208 -0.06674116 0.026229132 -0.084200725 0.25219554 -0.3759488
-0.09809188 0.12818147 0.039461784 -0.19858748 0.60701746 0.014566152 0.35637555 -0.04208606
-0.27671942 0.009417448 0.19038992 -0.07478988 -0.044483963 0.006895556 0.24456163 -0.026140083
0.21770759 0.10423796 0.3249751 -0.15002061 -0.10540343 -0.07235293 0.2941717 -0.24057466
-0.10033955 0.28447515 -0.076976456 0.06902054 -0.11169706 0.38272083 0.14976282 -0.02817625
0.07183393 0.0681384 0.042848162 -0.064416565 0.13026762 -0.021661231 0.24826674 0.044386927
0.13576674 0.35529527 0.30419427 0.034823183 -0.2670639 -0.6355013 0.1610703 -0.1460717
-0.3911796 -0.11561647 -0.26444986 -0.21681587 0.100257985 -0.105851285 -0.2176263 0.16279107
-0.4564817 -0.020099448 -0.00927418 0.20956394 -0.31775662 -0.30162773 0.029856456 0.15102701
0.2415236 -0.1336759 -0.044713266 -0.3400327 -0.024576806 0.064487636 0.20994534 -0.15736888
0.26887995 -0.13949296 -0.098085284 0.0839596 0.03596063 -0.06336319 0.066898294 0.6489303
-0.5577671 -0.33173463 -0.12359466 -0.24215075 0.47301212 0.042310987 -0.13752066 -0.107958816
-0.045915373 0.020397183 -0.6212847 0.21538828 -0.18846326 0.07882074 -0.15800056 -0.07943159
-0.11220732 0.50590974 0.268887 0.03654226 -0.20967928 0.2566254 -0.18816121 -0.47990116
-0.26489553 0.21631624 0.26926395 -0.11609342 -0.18896437 -0.14227855 0.23808222 -0.16919564
-0.07041066 0.264824 0.122654095 -0.031739242 -0.019201482 0.10838446 0.3221874 -0.3179781
00000000: 4536 bf3c 958d ba3e 81f1 59bc 97af 88bd
00000010: 7ade d63c 6e71 acbd c61f 813e 5c7c c0be
00000020: 65e4 c8bd 0142 033e aea2 213d 845a 4bbe
00000030: 7f65 1b3f dfa6 6e3c db76 b63e 6f62 2cbd
00000040: 2bae 8dbe a44b 1a3c 93f5 423e 702b 99bd
00000050: d134 36bd 1ef4 e13b 5d6e 7a3e ba23 d6bc
00000060: bdee 5e3e b67a d53d 2363 a63e 019f 19be
00000070: c1dd d7bd c62d 94bd ac9d 963e 3459 76be
00000080: d27e cdbd baa6 913e d5a5 9dbd a45a 8d3d
00000090: 6ec1 e4bd fcf3 c33e 6d5b 193e e1d1 e6bc
000000a0: ab1d 933d 258c 8b3d 8e81 2f3d d5ec 83bd
000000b0: e064 053e e572 b1bc a339 7e3e 11cf 353d
000000c0: 7006 0b3e 43e9 b53e 5abf 9b3e c1a2 0e3d
000000d0: 99bc 88be 37b0 22bf 9def 243e d293 15be
000000e0: b148 c8be 54c8 ecbd f965 87be fb04 5ebe
000000f0: 0f54 cd3d 8fc8 d8bd 6ed9 5ebe b4b2 263e
00000100: f8b7 e9be 99a7 a4bc bbf2 17bc ee97 563e
00000110: ffb0 a2be f36e 9abe 8795 f43c d3a6 1a3e
00000120: f651 773e 56e2 08be 4225 37bd c418 aebe
00000130: 4c55 c9bc 1812 843d e9fb 563e 4f25 21be
00000140: a2aa 893e 3ed7 0ebe f0e0 c8bd 03f3 ab3d
00000150: 744b 133d 8fc4 81bd f901 893d 4c20 263f
00000160: d3c9 0ebf 1fd9 a9be 321f fdbd 5ef6 77be
00000170: a52e f23e 494e 2d3d 37d2 0cbe 8319 ddbd
00000180: c211 3cbd fe17 a73c 840c 1fbf bf8e 5c3e
00000190: 83fc 40be c56c a13d e6ca 21be 08ad a2bd
000001a0: f4cc e5bd 4d83 013f 8fab 893e 56ad 153d
000001b0: 2ab6 56be 6864 833e 55ad 40be 9bb5 f5be
000001c0: 63a0 87be 0182 5d3e f7dc 893e 63c2 edbd
000001d0: e07f 41be 78b1 11be d3cb 733e 9f41 2dbe
000001e0: 7733 90bd 0397 873e 1232 fb3d 0201 02bd
000001f0: 6d4c 9dbc acf8 dd3d bff5 a43e 07ce a2be

model.4.weight f4 [5, 128]
-0.04028987 0.38068238 0.13032866 0.5528237 0.041988954 -2.8707738 -1.1278177 2.0253227
-0.8414924 -0.009595153 0.068604045 0.042902946 -5.4282813 -1.4610621 0.87137413 -1.2335609
-2.5227714 -0.008640566 -2.5250323 -0.8578425 -0.16132724 0.0548227 -1.4457272 -0.037880763
0.0054228455 -0.030163232 3.322377 3.9277513 -0.16923371 2.431432 1.3075203 -1.443727
1.7083704 1.0549686 2.4649103 2.9560022 0.29325652 0.58291495 1.1404873 -0.026990024
0.8749995 -0.16932788 -0.36003748 0.07311017 0.57745206 1.1055609 -0.05651536 0.007213696
0.101129115 1.5041281 2.8152082 0.02054633 -2.320623 -0.7521901 -1.7921152 -2.5059853
-3.1686132 -3.4128785 -0.029708393 2.0602825 3.0284448 -0.0033396333 1.9317315 0.12858398
-5.1008143 1.2729342 -2.012725 -2.5232244 -1.7460871 -0.6600482 -0.08510015 1.3950412
-0.3627561 -1.4173282 -2.9677985 0.17805198 2.980672 2.163999 3.3342059 -0.025670815
1.5454992 -0.50215966 0.13389915 -2.3149872 0.032440025 0.5035286 0.12219423 1.4110006
-2.544066 4.951477 -1.8431734 -1.2995883 4.8951697 -0.045327097 0.0875013 3.73992
-1.1079881 1.235317 5.7880125 0.6483157 -1.2923927 0.8377592 -1.9259424 -0.5846547
-2.7919323 1.851549 1.6304946 -0.020127814 2.0345602 -2.6130228 -0.46483696 0.34573606
-1.0655363 -0.01867118 -2.7453873 1.1934955 -1.2633749 -2.5644915 -1.3305591 0.051087257
-1.375864 2.6360168 -0.0021376396 0.5351504 2.8413239 -0.22629982 2.0173671 2.7088969
0.35638964 -4.3341584 -0.042577438 -3.640025 0.10924752 0.03755456 -1.4557022 3.8164678
-0.32040206 0.2542236 0.39054394 -0.44747335 0.60082805 -0.74799436 1.7641708 5.1940074
-0.49371278 4.550252 2.7874918 -1.915111 -0.5173399 0.8189055 0.4372991 0.23561126
-0.071006514 0.042228054 0.9000375 -1.1940546 -0.48096535 2.6341555 1.8888427 -1.6411588
-0.23049156 1.8299856 1.7458614 -0.98982096 -3.2274237 0.17211427 0.27784285 -0.10137204
1.7088495 -0.73153013 -1.0455817 -1.5319755 0.20170453 2.9866393 -2.7978458 0.21736974
0.80243266 0.047084656 0.33932167 -0.89020354 -2.1911767 -1.794018 -2.443429 -0.42591763
-1.1124105 -0.15219617 2.7024868 0.84929776 -1.0654615 -1.0582929 -0.15396123 -0.03530327
1.0232149 0.75486386 -0.36116654 -2.816382 -3.5954382 4.2478967 -0.0036467412 -1.219846
-0.7212341 -1.0633445 -0.36199123 -0.9240906 -2.4662204 -0.73092186 -4.1985335 -0.9220901
-0.73518544 -0.98170054 0.12816656 0.80055916 -0.32176247 0.335099 0.39233252 2.400402
0.7290224 1.047796 0.7870806 0.9992149 0.8065667 -0.2675018 0.08204855 -2.8012292
-2.725271 2.0144777 -0.81029224 -0.5723 -1.1403074 -4.563188 -1.0307257 -4.602242
-0.94478333 -0.019642346 -2.3890326 -0.0074847587 2.0973725 7.751147 -0.91512805 -2.3411083
-1.0810167 0.7143541 1.198834 6.5995984 -0.026966719 0.09313403 -3.1924255 -1.2023358
-1.8824412 0.77053946 0.2618787 3.370505 -2.1521926 0.03351965 2.9084263 0.19275503
00000000: fe06 25bd cde8 c23e e074 053e db85 0d3f
00000010: 9cfc 2b3d c2ba 37c0 555c 90bf e39e 0140
00000020: 0c6c 57bf fd34 1dbc 4780 8c3d 00bb 2f3d
00000030: 7bb4 adc0 1504 bbbf 6012 5f3f 53e5 9dbf
00000040: 1675 21c0 2991 0dbc 219a 21c0 919b 5bbf
00000050: f832 25be c48d 603d 970d b9bf dc28 1bbd
00000060: 20b2 b13b e218 f7bc d3a1 5440 4760 7b40
00000070: 9a4b 2dbe 959c 1b40 d35c a73f 0ccc b8bf
00000080: e2ab da3f 3609 873f 17c1 1d40 242f 3d40
00000090: b825 963e ea39 153f 7dfb 913f 2f1a ddbc
000000a0: f8ff 5f3f 4a64 2dbe d556 b8be c9ba 953d
000000b0: e6d3 133f 0583 8d3f a67c 67bd de60 ec3b
000000c0: c81c cf3d 4587 c03f 5f2c 3440 c750 a83c
000000d0: 1685 14c0 888f 40bf 0864 e5bf 1062 20c0
000000e0: 8fca 4ac0 9a6c 5ac0 045f f3bc abdb 0340
000000f0: 0ad2 4140 c0dd 5abb fa42 f73f 85ab 033e
00000100: df39 a3c0 82ef a23f 7dd0 00c0 827c 21c0
00000110: c87f dfbf ebf8 28bf fd48 aebd b690 b23f
00000120: 2bbb b9be 036b b5bf 69f0 3dc0 4253 363e
00000130: 54c3 3e40 f67e 0a40 a163 5540 9a4b d2bc
00000140: ebd2 c53f 898d 00bf dc1c 093e c028 14c0
00000150: d5df 043d 40e7 003f f840 fa3d ab9b b43f
00000160: fad1 22c0 8072 9e40 1bed ebbf e958 a6bf
00000170: 3ba5 9c40 e8a8 39bd e233 b33d d95a 6f40
00000180: 8ed2 8dbf de1e 9e3f 6637 b940 05f8 253f
00000190: 206d a5bf 6377 563f 4885 f6bf eeab 15bf
000001a0: 05af 32c0 8fff ec3f 0cb4 d03f 16e3 a4bc
000001b0: 3c36 0240 c43b 27c0 1cff edbe 5104 b13e
000001c0: 7e63 88bf 4df4 98bc 6db4 2fc0 76c4 983f
000001d0: 45b6 a1bf a120 24c0 c34f aabf df40 513d
000001e0: 501c b0bf 80b4 2840 a417 0cbb 9eff 083f
000001f0: 40d8 3540 24bb 67be 8b1c 0140 915e 2d40
00000200: b478 b63e 6db1 8ac0 ae65 2ebd 2bf6 68c0
00000210: 2abd df3d cfd2 193d 7354 babf 0241 7440
00000220: bd0b a4be 9829 823e 60f5 c73e 3a1b e5be
00000230: decf 193f 8f7c 3fbf 59d0 e13f 4f35 a640
00000240: ecc7 fcbe aa9b 9140 4466 3240 5b22 f5bf
00000250: 6370 04bf caa3 513f abe5 df3e 1444 713e
00000260: dd6b 91bd 53f7 2c3d dc68 663f c8d6 98bf
00000270: 1741 f6be 0196 2840 99c5 f13f 7e11 d2bf
00000280: fb05 6cbe f83c ea3f 6378 df3f e864 7dbf
00000290: 1c8e 4ec0 b93e 303e 6b41 8e3e 259c cfbd
000002a0: 95bb da3f 8f45 3bbf 9fd5 85bf c617 c4bf
000002b0: a28b 4e3e 1925 3f40 e80f 33c0 2c96 5e3e
000002c0: 3a6c 4d3f d7db 403d 92bb ad3e 61e4 63bf
000002d0: 3d3c 0cc0 62a2 e5bf 2461 1cc0 e011 dabe
000002e0: 7863 8ebf 50d9 1bbe 8bf5 2c40 946b 593f
000002f0: 0b61 88bf 2476 87bf 03a8 1dbe 299a 10bd
00000300: b5f8 823f c23e 413f d2ea b8be 9a3f 34c0
00000310: a91b 66c0 c5ee 8740 2afe 6ebb ea23 9cbf
00000320: cca2 38bf ac1b 88bf ea56 b9be 3491 6cbf
00000330: 8ed6 1dc0 b21d 3bbf 635a 86c0 190e 6cbf
00000340: 1d35 3cbf ba50 7bbf 183e 033e 72f1 4c3f
00000350: 0dbe a4be 1992 ab3e cfdf c83e 30a0 1940
00000360: 36a1 3a3f 2e1e 863f 1d7e 493f 8ccc 7f3f
00000370: 287b 4e3f fff5 88be 1209 a83d 5747 33c0
00000380: d76a 2ec0 34ed 0040 506f 4fbf 4182 12bf
00000390: 98f5 91bf a305 92c0 d2ee 83bf 9145 93c0
000003a0: 52dd 71bf fce8 a0bc e9e5 18c0 b542 f5bb
000003b0: 5a3b 0640 6509 f840 d545 6abf b8d4 15c0
000003c0: c15e 8abf e9df 363f 6473 993f e92f d340
000003d0: 4fe9 dcbc 0ebd be3d b350 4cc0 24e6 99bf
000003e0: d5f3 f0bf 1342 453f f714 863e 5bb6 5740
000003f0: 86bd 09c0 e74b 093d a823 3a40 9361 453e

model.4.bias f4 [5]
0.7048008 0.80515724 0.5823058 0.4974127 0.3300544
00000000: d36d 343f c91e 4e3f fe11 153f e1ac fe3e
00000010: e4fc a83e
