results/palindrome/rql_9.pt (torch, 84325 bytes, 6 tensors)

model.0.weight f4 [128, 25]
0	0xbfb27025	-1.3940474
1	0xc05b1c61	-3.423607
2	0x3ff2d916	1.8972499
3	0x3fd44f32	1.6586668
4	0xbf900bfe	-1.125366
5	0x3e273f74	0.16332799
6	0x3d251ad7	0.0403088
7	0xbcddb6c4	-0.027064689
8	0x3e102da9	0.14079918
9	0x3d81d742	0.06339885
10	0x3db6a605	0.089183845
11	0xbcd2f1b4	-0.025750019
12	0xbeac3d74	-0.33640635
13	0xbc906767	-0.017627431
14	0xbe884e34	-0.26622164
15	0xbdc7f8e5	-0.0976427
16	0x3e00c4b4	0.12575036
17	0xbd3735a4	-0.04472889
18	0x3ec32700	0.38115692
19	0xbcc70995	-0.024296561
20	0x3e687731	0.22701718
21	0x3ea133b3	0.31484756
22	0xbd0a72ff	-0.033801075
23	0xbe0c9fbe	-0.13732812
24	0xbe38de93	-0.18053655
25	0xbf8aa5ef	-1.0831889
26	0xbe890046	-0.2675802
27	0xbfcff278	-1.624587
28	0x3ed19940	0.40937233
29	0xc0a9dc40	-5.308136
30	0xbf090392	-0.5352107
31	0xbf5190fa	-0.8186184
32	0x3e732862	0.23745874
33	0xbf2a0676	-0.6641611
34	0xbea30054	-0.31836188
35	0x3e148d7a	0.14507094
36	0xbf420fee	-0.75805557
37	0x3eaa30f5	0.33240476
38	0xbf234cb8	-0.6378894
39	0xbf58aa9d	-0.84635335
40	0xbcd44a41	-0.025914313
41	0xbf0373d1	-0.51348597
42	0xbcc1b687	-0.023646606
43	0x3e0d688c	0.13809413
44	0xbdac1de3	-0.08404138
45	0xbf9fde46	-1.2489707
46	0x3ebbe4de	0.3669805
47	0xbf3c5481	-0.7356644
48	0x3f1cd8ba	0.612682
49	0x3d2b8dfc	0.041883454
50	0x3fac6a01	1.346985
51	0x3e8050a8	0.25061536
52	0x3fc28e9e	1.5199773
53	0xbf1cc147	-0.6123242
54	0x3f0c11d3	0.547147
55	0xbeac4f6d	-0.33654347
56	0xbe215e3c	-0.15758604
57	0x3fe20106	1.7656562
58	0x3f6b61d6	0.9194616
59	0x40008ffb	2.0087879
60	0x3fb29df9	1.395446
61	0x3fc4c5fe	1.5372922
62	0x3f9e368a	1.2360394
63	0x3f828e6b	1.0199713
64	0x3f05222f	0.52005285
65	0x3fcb7bfd	1.5897213
66	0x40007307	2.0070207
67	0x3fd4b398	1.6617308
68	0x3fd30121	1.648472
69	0x3f1d2233	0.6138031
70	0x3f107676	0.5643076
71	0x3f7527b7	0.95763725
72	0x3fe1d1fb	1.7642206
73	0x3f8e5564	1.1119809
74	0x3fe82fee	1.8139627
75	0xbf5b7686	-0.8572773
76	0xbf00ab0c	-0.50260997
77	0x40228f66	2.5400023
78	0x3e3d2aa1	0.18473293
79	0x4012f676	2.2962928
80	0xbb91eaf6	-0.0044530584
81	0x3ced068f	0.028933791
82	0x3f8e89b3	1.1135772
83	0xbde5d924	-0.11223057
84	0xbc1a809b	-0.009430076
85	0x3efc3040	0.49255562
86	0xbe8e91d2	-0.27845627
87	0xbe7fe000	-0.24987793
88	0x3ec051d4	0.3756243
89	0xbe8ebde2	-0.27879244
90	0x3e7d123e	0.2471399
91	0x3ed2fde5	0.4120933
92	0x3ee74e2c	0.45176828
93	0xbd462e9d	-0.048384298
94	0xbe59be4e	-0.21264002
95	0xbe79ec45	-0.24406536
96	0x3dd96165	0.1061428
97	0x3e30bdb8	0.17259872
98	0xbee9f4aa	-0.45694476
99	0x3f523e9a	0.8212677
100	0xbf3a6f63	-0.7282621
101	0xbc3ad200	-0.011402607
102	0xbfd9e938	-1.7024298
103	0xbe19bc4d	-0.15013237
104	0x403edce4	2.982232
105	0x3d56c99f	0.052438375
106	0xbddf34d1	-0.10898746
107	0xbeca9fad	-0.39574948
108	0x3fac1dd6	1.3446605
109	0xbe9837a1	-0.2972994
110	0x3ef8f53f	0.48624608
111	0xbf14006c	-0.57813144
112	0x3d86a83e	0.065750584
113	0xbf3cddca	-0.73775923
114	0x3f169499	0.5882049
115	0xbf644221	-0.89163405
116	0x3fd06299	1.628009
117	0xbdbeb0bd	-0.09311054
118	0x3e91ab56	0.2845103
119	0xbefce943	-0.49396715
120	0xbc8ff9be	-0.017575141
121	0xbf21e430	-0.6323881
122	0x3ef837c7	0.48480055
123	0xbf72b6a5	-0.94809943
124	0x3e39ff22	0.18163732
125	0xbfcaf0af	-1.5854701
126	0xbfb3b98b	-1.4040998
127	0x404cabc9	3.197985
128	0xbc10ad01	-0.00883031
129	0x4082cd44	4.087557
130	0x3f79c172	0.975608
131	0x3f7a426c	0.977576
132	0x3dfe4941	0.12416316
133	0x3e6d8afa	0.23197547
134	0x3cdc83fe	0.026918408
135	0xbe7b2707	-0.24526607
136	0xbdbb6a12	-0.09151091
137	0x3e718a02	0.23587802
138	0xbd89bae3	-0.06725099
139	0xbb1f5e0f	-0.0024317538
140	0x3e5d0dfe	0.21587369
141	0xbed8dec3	-0.42357454
142	0x3d1d349d	0.038380254
143	0xbd41b02f	-0.047287162
144	0xbd9276b3	-0.07151546
145	0xbd6ed50a	-0.05830864
146	0xbdabff8b	-0.0839835
147	0xbdf12365	-0.11774329
148	0xbcab7102	-0.02092791
149	0x3e769079	0.2407855
150	0xbfc58e16	-1.5433986
151	0xbed897f2	-0.42303425
152	0xbf5b2ee7	-0.8561844
153	0x3f024550	0.5088701
154	0x400158c4	2.0210428
155	0x3e1b5a46	0.15171155
156	0x3ee6a0e0	0.45044613
157	0xbfbac885	-1.4592444
158	0xbf824a26	-1.0178878
159	0xbfcaf82e	-1.5856988
160	0xbf9c15dd	-1.2194172
161	0xbfb3f9e8	-1.406064
162	0xbf83005c	-1.0234485
163	0xbf5a2491	-0.85212046
164	0xbf4761b5	-0.77883464
165	0xbfc81e0a	-1.5634167
166	0xbf786bbb	-0.97039384
167	0xbfae688b	-1.3625654
168	0xbf5bdc1e	-0.8588275
169	0xbf3dddcd	-0.74166566
170	0xbf16e0cf	-0.5893678
171	0xbf443f7e	-0.7665938
172	0xbf6cd514	-0.9251263
173	0xbfb7a432	-1.4346983
174	0xbf7f394e	-0.99696815
175	0xc07a06a9	-3.9066565
176	0xbedaecb7	-0.42758724
177	0x3eb13385	0.3460962
178	0x3f588025	0.84570533
179	0x40a5a80a	5.1767626
180	0x3f79c4aa	0.9756571
181	0x3f6df74e	0.9295548
182	0x3d1ebe9e	0.038756005
183	0x3c98c429	0.018648224
184	0x3dbc2c16	0.09188096
185	0x3e00d997	0.12583004
186	0x3c85a9ef	0.016316382
187	0xbc61da2e	-0.013784928
188	0xbd6ad1c6	-0.05732896
189	0xbdb5bfb5	-0.08874456
190	0xbd1806ed	-0.03711598
191	0xbe008419	-0.12550391
192	0xbd4e7584	-0.05040504
193	0x3d07cb8c	0.0331531
194	0xbbd3f684	-0.006468596
195	0x3b2a3680	0.0025972426
196	0x3c6be2e0	0.014397353
197	0x3d7da3ad	0.06192367
198	0x3d175581	0.036946777
199	0xbcf6839a	-0.03009205
200	0xbfc22a15	-1.5169092
201	0x3db485aa	0.08814557
202	0xbe5d3553	-0.21602373
203	0x3eb7d12f	0.35901782
204	0xbb905204	-0.0044043083
205	0xbdbe01f0	-0.09277713
206	0x3d52c178	0.051454037
207	0x3f697425	0.9119285
208	0x3f01a7d1	0.5064669
209	0x3fb7b68d	1.4352585
210	0x3f976bf8	1.1829824
211	0x3f3abd9e	0.7294558
212	0x3f11104d	0.566655
213	0x3f0f76e2	0.56040776
214	0x3eddfa8f	0.43355224
215	0x3fab57ee	1.3386209
216	0x3f9abe67	1.2089356
217	0x3ee4fa50	0.44722223
218	0x3efd75ff	0.49504086
219	0x3ef24fad	0.47326413
220	0x3f4f1e13	0.80905265
221	0x3f4b2793	0.7935726
222	0x3fcba772	1.5910475
223	0x3e97e6d6	0.296683
224	0x3fb7b9cd	1.4353577
225	0xbf5d5564	-0.8645842
226	0x3f561568	0.83626413
227	0xbeb62434	-0.35574496
228	0xbfe1e579	-1.7648154
229	0x4031d84b	2.7788265
230	0xbfa1859e	-1.2618902
231	0xbf985a8c	-1.1902633
232	0xbf098de9	-0.5373216
233	0xbf585592	-0.8450557
234	0xbefc3ea1	-0.49266532
235	0x3e8dbc45	0.276827
236	0xbdb7457a	-0.089487985
237	0xbf01302f	-0.5046415
238	0x3ed5275e	0.41631597
239	0xbe108ca0	-0.14116144
240	0x3d5130d5	0.05107196
241	0xbcaa5220	-0.020791113
242	0x3ed7a068	0.42114568
243	0x3f124541	0.57136923
244	0x3cfa11a0	0.030525982
245	0x3e23a40b	0.15980546
246	0x3eed2ae6	0.4632179
247	0xbf509a54	-0.81485486
248	0xbd9cf748	-0.07664353
249	0x3e459bf0	0.19297767
250	0xbf2837f2	-0.65710366
251	0x3f0c96c1	0.5491753
252	0xc0993eac	-4.7889004
253	0x3ffc34df	1.9703635
254	0x3f05a5fc	0.522064
255	0x3cf877e6	0.03033061

model.0.bias f4 [128]
0	0xbde14f52	-0.11001457
1	0xbf302bf4	-0.6881707
2	0xbd5dfc94	-0.054195955
3	0xbea63fbf	-0.3247051
4	0xbca272d3	-0.019830143
5	0x3f67d66e	0.9056157
6	0x3dec2d48	0.11532074
7	0x3fa413d6	1.2818553
8	0x3dc46b29	0.09590752
9	0xbf9bf062	-1.2182734
10	0xbdc48844	-0.09596303
11	0x3f9b66d8	1.214076
12	0x3e8e2b16	0.27767247
13	0x3ee903b0	0.45510626
14	0x3e165d0e	0.14683935
15	0xbf1eb3c9	-0.6199308
16	0xbecbb002	-0.3978272
17	0xbf003f21	-0.5009633
18	0xbf8b24d0	-1.0870609
19	0x3ee42b3c	0.44564235
20	0xbe4197b8	-0.18905532
21	0x3f065396	0.5247129
22	0x3e91f46c	0.28506792
23	0x3f22ee73	0.63645095
24	0xbde4a727	-0.11164694
25	0xbeb6f743	-0.3573552
26	0xbf117ec5	-0.5683406
27	0x3f1f379e	0.6219424
28	0x3eb1ba71	0.34712556
29	0x3f9505e6	1.1642425
30	0x3ebc52a9	0.36781815
31	0xbf50a097	-0.8149504
32	0x3cfe21ca	0.031021971
33	0xbd8358bc	-0.06413409
34	0xbe7ed4fd	-0.24885936
35	0x3eb9f8d4	0.36322653
36	0x3ee96bf5	0.45590177
37	0xbecdac1d	-0.40170375
38	0x3e928cdb	0.2862309
39	0x3fadb8c3	1.357201
40	0x3e5a98b9	0.21347322
41	0xbe5f0cd8	-0.21782243
42	0x3f8d08c6	1.1018302
43	0x3cd93845	0.02651609
44	0xbe6e38bc	-0.2326383
45	0xbef0d304	-0.47035992
46	0x3f96f8ec	1.1794715
47	0xbe72c440	-0.23707676
48	0xbe1c654e	-0.1527302
49	0xbe85d312	-0.26137596
50	0xbfb2923a	-1.3950875
51	0xbeb7377b	-0.35784516
52	0x3d028322	0.03186334
53	0xbfb05d0e	-1.3778398
54	0xbe0aed18	-0.13567007
55	0x3f832987	1.0247048
56	0xbea4b0fb	-0.32166275
57	0xbf48304f	-0.78198713
58	0xbf2e28bb	-0.680309
59	0xbec1adbb	-0.37827858
60	0x3f5d1ad2	0.8636905
61	0x3ed85589	0.42252758
62	0x3f13956e	0.57649887
63	0xbf814651	-1.0099584
64	0xbe86db31	-0.26339105
65	0x3e173ebf	0.1477003
66	0xbea78a39	-0.32722643
67	0x3ec0bd2a	0.3764432
68	0xbdf22e4e	-0.11825238
69	0xbf09ee12	-0.5387889
70	0xbe05186d	-0.12997599
71	0xbe613bcb	-0.21995465
72	0x3f81f62f	1.0153254
73	0x3da26886	0.079300925
74	0xbeb82871	-0.35968354
75	0x3e7a9daf	0.24474214
76	0x3f92a0f9	1.1455375
77	0x3e3d7a2d	0.18503638
78	0xbf10e701	-0.56602484
79	0xbf09005d	-0.5351618
80	0x3f080cb9	0.53144413
81	0xbefff83d	-0.49994078
82	0xbf5f7923	-0.87294215
83	0xbf184b5a	-0.5948998
84	0xbe5e1835	-0.21688922
85	0xbf0dc889	-0.5538412
86	0x3cfba380	0.030717611
87	0x3da046d9	0.07826013
88	0xbdb8b091	-0.09018052
89	0xbfa77c5e	-1.3084829
90	0x3bf09fb9	0.007343259
91	0xbd8efec7	-0.06982189
92	0xbfb8732b	-1.4410146
93	0xbbb61750	-0.0055569783
94	0xbe2fbe11	-0.17162348
95	0x3e8a190c	0.26972234
96	0x3f85c0e6	1.0449493
97	0xbe521801	-0.2051697
98	0x3fa59698	1.2936583
99	0x3f0bf626	0.5467247
100	0xbf157939	-0.58388096
101	0xbdaf5130	-0.08560407
102	0x3e2397fe	0.15975949
103	0x3dcfc098	0.10144156
104	0x3fb35fb6	1.4013584
105	0x3eaa3609	0.3324435
106	0x3f16180f	0.5863046
107	0xbf1c8d6f	-0.6115331
108	0x3fac4c37	1.3460759
109	0x3e559074	0.20855886
110	0xbf2a60c2	-0.6655389
111	0xbed0f3e3	-0.4081107
112	0x3df4ce04	0.11953357
113	0xbf18b9cb	-0.596585
114	0x3f2e8fe2	0.681883
115	0x3eeb3a1b	0.45942768
116	0x3e79ded3	0.24401407
117	0x3e8ee43f	0.27908513
118	0x3ebb835b	0.36623654
119	0x3ae26108	0.0017271349
120	0x3ebfa1b1	0.37428048
121	0xbf8dda3d	-1.1082226
122	0xbf319cbf	-0.693798
123	0xbef12b37	-0.47103283
124	0x3e377b4e	0.17918131
125	0xbe0001a8	-0.12500632
126	0xbe31bf4e	-0.17358133
127	0xbc77bc09	-0.015120515

model.2.weight f4 [128, 128]
0	0xbeba6e8b	-0.36412463
1	0xbed8f568	-0.4237473
2	0x3f001561	0.5003262
3	0x3e63ae1d	0.22234388
4	0x3ef6d41b	0.482087
5	0x3df80b3f	0.1211152
6	0xbbb424ce	-0.0054975515
7	0xbf3c5b1c	-0.7357652
8	0x3e9cd898	0.30633998
9	0xbf03dd22	-0.51509297
10	0xbfc2f6c8	-1.5231562
11	0xbea1981d	-0.31561366
12	0x3f5c4383	0.86040515
13	0xbea6a220	-0.32545567
14	0x3e473da4	0.19457108
15	0xbecea0ae	-0.40356964
16	0x3e9169ef	0.28401133
17	0x3dcd38e2	0.10020615
18	0xbf10d00e	-0.56567466
19	0xbfa6daa6	-1.3035476
20	0x3e7e7c82	0.24852183
21	0xbefcb0b0	-0.49353552
22	0x3d7afa49	0.061273847
23	0x3e676579	0.22597302
24	0x3ef1c2f0	0.47219038
25	0x3c8b9626	0.01703937
26	0xbe816c55	-0.25277963
27	0x3f38f5db	0.72250146
28	0xbd841b59	-0.06450529
29	0x3fae3077	1.360854
30	0x3eca9882	0.3956948
31	0xbf8ee95c	-1.1164966
32	0xbf59d516	-0.8509077
33	0x3ec78c40	0.3897419
34	0x3e9bc3f8	0.3042295
35	0x3f0173e2	0.5056745
36	0xbe2326a2	-0.15932706
37	0xbd1f14c7	-0.038838174
38	0x3e02e11b	0.12781183
39	0x3e67b2a6	0.22626743
40	0x3d84c7ee	0.06483446
41	0x3f36beae	0.71384704
42	0x3f990f51	1.1957799
43	0xbb9b0357	-0.0047306227
44	0xbf1d1afb	-0.61369294
45	0xbfaa562d	-1.3307549
46	0x3f84eb25	1.038426
47	0x3e9825d9	0.29716375
48	0x3e79e358	0.24403131
49	0xbf3f1582	-0.74642193
50	0xbf339568	-0.7014985
51	0xbf44aa70	-0.76822567
52	0x3ef71e07	0.48265097
53	0xbf2d0d58	-0.67598486
54	0x3eb6194c	0.35566175
55	0xbf8eb8c4	-1.1150136
56	0xbeef1730	-0.46697378
57	0x3ee285ee	0.44242805
58	0xbf26980b	-0.6507575
59	0xbd4c25e9	-0.04984084
60	0x3edf27ab	0.43584952
61	0xbd279b35	-0.0409195
62	0xbdac23f3	-0.08405294
63	0x3f425f4a	0.7592665
64	0x3fa1b661	1.2633783
65	0x3f34d3ca	0.70635664
66	0x3eb388d3	0.35065326
67	0x3ef3fb58	0.47652698
68	0xbf14b83c	-0.5809362
69	0xbe23f09d	-0.16009755
70	0x3e58fdd0	0.21190572
71	0x3f1ea010	0.61962986
72	0xbe7fd9f3	-0.24985485
73	0x3ef767fa	0.48321515
74	0xbf464784	-0.77452874
75	0xbccfbdbc	-0.025359027
76	0xbf57dcb9	-0.8432117
77	0x3f097734	0.53697515
78	0x3ee6df09	0.45092037
79	0x3f0adb66	0.54241025
80	0xbe8aee67	-0.27135012
81	0x3ea50786	0.32232302
82	0xbe823e4d	-0.25438157
83	0xbd9614b7	-0.0732817
84	0x3fb4baf9	1.411956
85	0xbe73cdb7	-0.23808943
86	0x3e2ec48d	0.17067166
87	0x3f81a2ff	1.0127867
88	0x3e98c785	0.2983972
89	0xbe47e69e	-0.19521567
90	0xbd6183d2	-0.055057354
91	0x3dc15864	0.09440687
92	0xbefab431	-0.489656
93	0xbf471df1	-0.7778006
94	0x3f0c7352	0.54863465
95	0x3f5781ef	0.8418264
96	0x3ecbccce	0.3980469
97	0xbf2a5ea9	-0.6655069
98	0x3eb9feb2	0.3632713
99	0x3d23c471	0.039982263
100	0x3ea43a74	0.32075846
101	0xbf3f76e5	-0.74790794
102	0xbed77fe4	-0.4208976
103	0xbd9270b2	-0.07150401
104	0x3dec82f4	0.11548415
105	0xbf132db4	-0.5749161
106	0x3efa4f10	0.48888445
107	0x3f396105	0.72413665
108	0xbd614a80	-0.05500269
109	0xbfdc5e18	-1.7216215
110	0x3f5da59f	0.8658084
111	0x3f83ca4c	1.0296111
112	0x3f11775b	0.56822747
113	0xc00e0b03	-2.219422
114	0xbe8582bf	-0.26076314
115	0x3ea05286	0.3131296
116	0xbe8bf634	-0.27336276
117	0x3e94a800	0.29034424
118	0xbf06b7fa	-0.52624476
119	0x3f307c64	0.68939805
120	0xbc1edec1	-0.009696663
121	0x3ecb4d8a	0.39707595
122	0xbe346c8e	-0.17619535
123	0xbe2391ee	-0.15973637
124	0xbdb6ad6a	-0.08919795
125	0x3eb30e20	0.34971714
126	0xbf2504d3	-0.64460486
127	0x3ead4c66	0.3384735
128	0xbcbeeb76	-0.023305636
129	0xbf0d2253	-0.551305
130	0x3e9f22ca	0.3108123
131	0xbe1f8910	-0.15579629
132	0x3dae3b8f	0.08507454
133	0xbee96f27	-0.45592615
134	0xbdc1910f	-0.09451496
135	0xbf31a413	-0.6939098
136	0xbe158490	-0.1460135
137	0xbeb45aa1	-0.35225394
138	0xc0199eaa	-2.400309
139	0xbf80d65e	-1.006542
140	0x3f74f353	0.95683783
141	0x3e03c4c4	0.12868029
142	0x3f06eac6	0.52701986
143	0xbfcd5981	-1.604294
144	0x3f209ccc	0.62739253
145	0x3d9906e9	0.07472021
146	0xbfaed863	-1.3659786
147	0xbf23884c	-0.6387985
148	0x3ebfdfb8	0.3747537
149	0x3bffc9af	0.007806025
150	0xbe8894eb	-0.26676115
151	0x3ec67796	0.38763112
152	0x3db82971	0.08992279
153	0xbe688ed0	-0.22710729
154	0xbe7c1e32	-0.24620894
155	0x3f599278	0.8498912
156	0xbf5330cd	-0.8249634
157	0x3fcc4be8	1.5960665
158	0xbfbd6e42	-1.4799273
159	0x3ede4d9f	0.43418595
160	0x3f921cdc	1.1415057
161	0xbee94f07	-0.45568106
162	0xbe23c924	-0.15994698
163	0x3e533b95	0.20628197
164	0xbe57dcc3	-0.21080308
165	0x3eeb87e2	0.46002108
166	0x3db1266a	0.08649905
167	0x3eb1920e	0.34681743
168	0x3ea67bd2	0.32516342
169	0x3eb754ec	0.35806978
170	0x3e90e0d7	0.2829654
171	0xbe87ac07	-0.26498434
172	0x3e6ebce1	0.23314239
173	0xbec790d6	-0.3897769
174	0x3f815a31	1.0105649
175	0x3dc3aeed	0.09554849
176	0xbc9cbd45	-0.01913322
177	0x3bea5cca	0.0071521746
178	0xbedea84a	-0.4348777
179	0x3da22389	0.07916934
180	0xbd8c442f	-0.068489425
181	0x3f36ebe2	0.7145368
182	0xbc0f228d	-0.008736265
183	0xbdbe5370	-0.09293258
184	0xbd092065	-0.03347816
185	0x3e038a6b	0.12845771
186	0xbf893008	-1.0717783
187	0xbe71b3e0	-0.23603773
188	0x3dbf74e3	0.09348466
189	0x3f917980	1.1365204
190	0xbf1ebd2b	-0.620074
191	0x3e00e609	0.12587751
192	0x3f6f48c9	0.93470436
193	0xbe7086b1	-0.2348888
194	0x3dfce7a6	0.12348871
195	0x3e2c9cc7	0.16856681
196	0x3b0734e3	0.0020630888
197	0xbeafb5dc	-0.34318435
198	0xbdeaa001	-0.114562996
199	0x3f33017b	0.69924134
200	0xbe9fa0ab	-0.31177267
201	0x3f29b96b	0.6629855
202	0xbf740066	-0.9531311
203	0x3e093386	0.13398561
204	0x3f7cb4ee	0.98713577
205	0x3f8d87c8	1.1057062
206	0x3f77dc56	0.9682058
207	0x3e9c5d25	0.30539814
208	0xbee0bf5c	-0.43895996
209	0x3ee911f2	0.45521504
210	0xbed71e54	-0.42015326
211	0x3e4e6391	0.20155169
212	0xbebcd154	-0.36878455
213	0xbe1fe517	-0.15614735
214	0xbe9bd393	-0.30434856
215	0x3e901aa0	0.28145313
216	0xbe820675	-0.2539555
217	0xbf74c026	-0.95605695
218	0xbe9ba468	-0.3039887
219	0x3e8c1a06	0.27363604
220	0x3f02308c	0.50855327
221	0x3f0e913a	0.5569035
222	0xbcf05b20	-0.029340327
223	0x3f8c32e8	1.0953035
224	0x3f3ef79b	0.74596566
225	0xbf1ce399	-0.61284786
226	0xbe5db13c	-0.21649641
227	0x3f1da1de	0.61575115
228	0xbe187e68	-0.1489197
229	0x3d83fc1a	0.06444569
230	0xbede4239	-0.434099
231	0xbeb6ca3f	-0.35701177
232	0x3ec45ffc	0.3835448
233	0xbf025287	-0.50907177
234	0x3f251a09	0.6449285
235	0xbed186de	-0.40923208
236	0xbe6543f6	-0.22389206
237	0x3e5300cf	0.20605777
238	0x3f28ce36	0.6593965
239	0x3ec1b453	0.3783289
240	0x3f5b9762	0.85777867
241	0xbfa42600	-1.2824097
242	0x3decff72	0.1157216
243	0x3ea64416	0.3247382
244	0xbe3ce7ee	-0.18447849
245	0x3e6955fe	0.2278671
246	0xbe26dfc7	-0.16296302
247	0xbe813d6c	-0.25242174
248	0x3e7f76e8	0.24947703
249	0x3f40a84a	0.7525679
250	0xbea87944	-0.32905018
251	0x3d2ad639	0.041708205
252	0x3ed3940d	0.4132389
253	0x3e88b882	0.26703268
254	0x3f39cbf9	0.7257686
255	0x3c32c40c	0.010910999

model.2.bias f4 [128]
0	0xbca819de	-0.020520147
1	0x3e949c91	0.290257
2	0xbe930d47	-0.28721067
3	0x3e0e8b0b	0.13920228
4	0xbce91eb8	-0.02845703
5	0xbe6667e6	-0.22500572
6	0xbda766d2	-0.08173908
7	0xbe51ebb3	-0.20500068
8	0x3a35219d	0.0006909611
9	0x3e932e50	0.2874627
10	0x3dd4d5d7	0.10392349
11	0xbe22d35f	-0.15900944
12	0x3dc67ec3	0.09692147
13	0xbe2fa25c	-0.17151779
14	0xbe0dc0aa	-0.13843027
15	0xbe86bbcb	-0.2631515
16	0xbda88685	-0.082287826
17	0xbe0da575	-0.13832648
18	0x3cf2c42d	0.02963456
19	0x3dc0e6a5	0.09418992
20	0x3e36a268	0.1783539
21	0x3dc801df	0.09765982
22	0x3e9c9731	0.305841
23	0xbe2099ea	-0.15683714
24	0xbe55891a	-0.20853081
25	0x3eba989c	0.36444557
26	0xbe25bd6e	-0.16185543
27	0x3e4ab47a	0.19795409
28	0xbf01506e	-0.5051335
29	0xbd30759c	-0.04308091
30	0x3ef19533	0.47184142
31	0xbced95a9	-0.029002028
32	0xbe638af4	-0.22220975
33	0x3e247bea	0.16062894
34	0x3e648889	0.22317709
35	0x3dd81649	0.105511256
36	0x3e8abdf6	0.27098054
37	0x3dfecaa0	0.124409914
38	0x3e36e679	0.17861356
39	0xbe6c19a7	-0.2305666
40	0xbe071cac	-0.13194531
41	0x3dd5a785	0.104323424
42	0x3de678ca	0.112535074
43	0x3e9bf3a1	0.30459312
44	0xbd9ef94f	-0.077623956
45	0xbea37b11	-0.3192983
46	0x3f0a967e	0.5413588
47	0xbe609331	-0.21931149
48	0xbe832ea8	-0.25621533
49	0xbdc78006	-0.097412154
50	0x3c74aa51	0.014933185
51	0x3e89feaa	0.26952106
52	0x3e04817b	0.12940018
53	0xbe9202ce	-0.28517765
54	0xbef20c7a	-0.47275144
55	0xbec4f7a5	-0.38470188
56	0xbe33ac4c	-0.17546195
57	0x3e3a1f33	0.18175964
58	0x3e84e894	0.25958693
59	0x3e04ae44	0.12957102
60	0xbe96024f	-0.29298636
61	0x3d417657	0.047232
62	0x3ea91611	0.33024648
63	0x3d1590b7	0.036514964
64	0x3c569712	0.013097541
65	0x3dfdd7b5	0.123946585
66	0x3dcb70dc	0.099336356
67	0x3e17a99d	0.14810796
68	0x3ecf8403	0.40530404
69	0x3e8a8f62	0.27062517
70	0xbcb8aea3	-0.02254421
71	0x3df466e1	0.11933685
72	0xbd2037bd	-0.039115656
73	0x3e07313d	0.13202377
74	0xbdd4a52d	-0.10383067
75	0x3e6bdda9	0.23033775
76	0xbe33c15a	-0.17554227
77	0xbd2e53d7	-0.042560425
78	0xbe60510c	-0.21905917
79	0x3d05f24c	0.032701775
80	0xbe0ce91b	-0.13760798
81	0xbd2470ff	-0.040146824
82	0xbe76be4f	-0.24096034
83	0xbf06fb44	-0.5272715
84	0x3e21b12e	0.15790245
85	0x3d799966	0.060937308
86	0x3de5ba46	0.112171695
87	0x3e6b6fa4	0.22991806
88	0xbdd2934f	-0.10282003
89	0xbd85e63b	-0.065380536
90	0x3eb9a2d4	0.3625704
91	0xbdb6a60d	-0.089183904
92	0xbde0dff2	-0.10980214
93	0xbeca749d	-0.39542094
94	0x3ef05fbb	0.46948037
95	0xbe31e13e	-0.1737108
96	0xbe683e49	-0.2268001
97	0xbc1b7406	-0.009488111
98	0x3e045676	0.12923607
99	0x3ed0c46b	0.40774855
100	0x3ce52019	0.027969407
101	0x3dc2bafd	0.095083214
102	0x3c46647c	0.012108918
103	0x3e917f02	0.28417212
104	0xbe77542c	-0.24153203
105	0xbe36da14	-0.17856628
106	0xbc12dbaa	-0.008963505
107	0xbea9e93c	-0.33185756
108	0xbe8471f8	-0.258682
109	0xbc11fed1	-0.008910851
110	0xbda4ab29	-0.08040459
111	0xbd854505	-0.06507305
112	0x3e0b27be	0.13589379
113	0xbd614aa6	-0.05500283
114	0xbe9bdb49	-0.3044074
115	0xbd33b614	-0.043874815
116	0x3c8ad340	0.016946435
117	0xbddc186a	-0.10746844
118	0x3e1bb812	0.15206936
119	0xbe3b5a48	-0.18296158
120	0x3e98f105	0.29871383
121	0x3c1b34eb	0.009473066
122	0x3d3bf462	0.04588736
123	0x3e822729	0.25420502
124	0x3e9b88b7	0.30377743
125	0x3dc7ce93	0.09756198
126	0x3e62feaf	0.22167467
127	0x3e7733ee	0.24140903

model.4.weight f4 [5, 128]
0	0xbf80c7d2	-1.006098
1	0xbf47c7a4	-0.78039
2	0x3f87ee87	1.0619668
3	0x3ebed315	0.37270418
4	0x3f7238ee	0.9461812
5	0x3e015cb3	0.12633018
6	0xbf509245	-0.8147319
7	0xbf1d718f	-0.615014
8	0xbfaeda5b	-1.3660387
9	0xbea8feb6	-0.3300683
10	0x3fcbc3f7	1.5919179
11	0xc02d390a	-2.7066064
12	0xbf950ca7	-1.1644486
13	0x3f158e27	0.5842003
14	0xc042f7ad	-3.046367
15	0xc049fa91	-3.1559184
16	0xbea0238e	-0.31277126
17	0xc03ab7d6	-2.9174705
18	0x40435eea	3.052668
19	0xc003619b	-2.0528324
20	0x3fbf3143	1.4936908
21	0xbf23db4f	-0.64006513
22	0x3fea028c	1.8282027
23	0xbf740b68	-0.95329905
24	0xbeb8b1b1	-0.36073068
25	0x3e455f34	0.19274598
26	0xbee6db4d	-0.45089188
27	0xbd210d28	-0.039319187
28	0xbf177f02	-0.59178174
29	0xbf8deb1a	-1.1087372
30	0x3fa9915f	1.3247489
31	0xc07e83fd	-3.976806
32	0x3e166f88	0.14690983
33	0xc077b010	-3.870121
34	0xc045979a	-3.087378
35	0xbf0e9fe0	-0.557127
36	0x3f22a74a	0.6353651
37	0x405bcb98	3.4343014
38	0x3e02da3b	0.12778561
39	0xc0295a6b	-2.6461437
40	0xbee8927d	-0.45424262
41	0xbeecf157	-0.46277878
42	0xbf6997e0	-0.9124737
43	0x407407d2	3.8129773
44	0xbefa0ccb	-0.48837885
45	0x3e81b033	0.25329742
46	0xc09ac141	-4.8360906
47	0xbfe18d84	-1.7621312
48	0xbf9dc4c2	-1.2325671
49	0xbfaacab4	-1.334311
50	0xc00f1f94	-2.2363024
51	0x3ff3f47a	1.9058983
52	0x3f751207	0.9573063
53	0xbf08190d	-0.53163224
54	0xbf16fa57	-0.5897574
55	0xbfffd41b	-1.9986604
56	0x3e1b7832	0.1518257
57	0x3efc9972	0.4933582
58	0x3f6059c5	0.8763698
59	0x3f672169	0.90285355
60	0x3f8e676f	1.1125315
61	0x3f964929	1.1741077
62	0x3fe56a5a	1.7923081
63	0xc054b713	-3.323674
64	0xc04c9a89	-3.196932
65	0x40084445	2.1291668
66	0xbf72736f	-0.9470739
67	0xbf77ff20	-0.96873665
68	0xc105103e	-8.316465
69	0x3f83d84d	1.0300385
70	0x3e28ec1e	0.16496322
71	0x3fbfa646	1.4972618
72	0xbfd11703	-1.6335148
73	0x4056fc7d	3.3591607
74	0x3f1bc781	0.60851294
75	0xbff64f08	-1.9242868
76	0xbecd08ff	-0.40045926
77	0xbec5e880	-0.38653946
78	0xbecc7778	-0.39934897
79	0x405eaade	3.479179
80	0xc02cd8e6	-2.7007384
81	0xbf73217b	-0.9497296
82	0xbfa40e7b	-1.2816919
83	0xbfe1ef74	-1.76512
84	0x402c6b89	2.6940634
85	0x3e0aa762	0.13540414
86	0x3f88b1d7	1.0679272
87	0xbd5af173	-0.05345292
88	0xbf7c6c24	-0.9860251
89	0x3fee3207	1.8609017
90	0x40556192	3.3340802
91	0xbf88d73f	-1.0690688
92	0x3e61a963	0.22037272
93	0xc00c6cbe	-2.194137
94	0xbeff229e	-0.49831098
95	0xbe14fcea	-0.14549604
96	0xc00d1733	-2.204541
97	0x3e9e924c	0.3097099
98	0x3f0fa95d	0.561178
99	0x3f32bfe1	0.69824034
100	0x3ef261bf	0.473402
101	0x3fe5363a	1.7907174
102	0x3d94020c	0.07226953
103	0x3f0c4be0	0.54803276
104	0x3f41186b	0.75427884
105	0xc0895165	-4.291186
106	0x40549929	3.3218482
107	0xc00ccc68	-2.199976
108	0x4069ca7c	3.6529837
109	0x3f3cb0b6	0.7370714
110	0x400e67a5	2.225076
111	0x3f8f6c2a	1.1204884
112	0x3f87062c	1.0548759
113	0x3f56b276	0.8386606
114	0x3fb72cfd	1.4310604
115	0x3feceedb	1.8510393
116	0xc03893fb	-2.884032
117	0xbf96ada7	-1.1771744
118	0x409d0fbf	4.908172
119	0xc044c621	-3.0745928
120	0x4087f5a6	4.2487364
121	0x4013d097	2.3096063
122	0x407a1a10	3.9078407
123	0x40395c08	2.8962421
124	0x3eb20823	0.34771833
125	0x3d151ef4	0.036406472
126	0xc044525f	-3.0675275
127	0x3fc1222d	1.5088555
128	0xbf92af6a	-1.1459782
129	0xbea25939	-0.31708696
130	0x3f930e27	1.1488694
131	0x3e8bfe8f	0.2734265
132	0x3f8479f2	1.0349715
133	0x404e9e0c	3.2283964
134	0xbf4f8a9c	-0.81070876
135	0x3e8a5a09	0.27021816
136	0xc0216a6b	-2.5221202
137	0xbe7e9d49	-0.24864687
138	0x404db0f3	3.2139251
139	0xc0073b0c	-2.112979
140	0xbfc8d543	-1.5690082
141	0xbf0c524b	-0.5481307
142	0xbfa8d022	-1.3188517
143	0xbd3c7faf	-0.046020206
144	0xc09aab5d	-4.8334184
145	0xbfc22556	-1.5167644
146	0xbfdb249d	-1.7120548
147	0x3f887c96	1.0663021
148	0x3d858ef9	0.065214105
149	0x3db9f324	0.090795785
150	0x3fcbee68	1.5932131
151	0x3bfa7555	0.0076433816
152	0xc09e2683	-4.942201
153	0x4015e5c4	2.3421488
154	0x3dcff999	0.10155029
155	0xbf7845ab	-0.96981305
156	0xbfffdd39	-1.9989387
157	0x3f06ab2b	0.5260493
158	0x3f4dd037	0.80395836
159	0x3e2c9de6	0.16857108
160	0x3cd75072	0.026283477
161	0x4013f077	2.3115518
162	0xc090ef1b	-4.5291877
163	0xbbceac4c	-0.0063071605
164	0xbf41b6f7	-0.7566981
165	0x3f9b9fb4	1.2158113
166	0xbeffa4cc	-0.49930418
167	0xbf01b5af	-0.5066785
168	0xbda2de1f	-0.079525225
169	0x3d55585a	0.05208621
170	0x3ef08aa3	0.4698077
171	0x3e2bbae5	0.16770513
172	0x3e06b6f0	0.13155723
173	0x3f094642	0.5362283
174	0x4031f041	2.780289
175	0xbf2e27a1	-0.6802922
176	0xc016ea34	-2.3580446
177	0xbf1c2a5b	-0.6100213
178	0xbf4cba5d	-0.7997187
179	0xbe04d877	-0.129732
180	0x3e1e5174	0.1546076
181	0xbf357291	-0.7087794
182	0xbf2bb8eb	-0.6707904
183	0xc00348fa	-2.0513291
184	0x4005ca98	2.0904903
185	0x3e3a607a	0.18200865
186	0xbf48dda6	-0.7846321
187	0x3f02108d	0.50806504
188	0x3f304021	0.6884785
189	0xbefa3b7e	-0.48873514
190	0x3e75cfc7	0.24005042
191	0xc01134ba	-2.2688432
192	0xbf20d53a	-0.6282536
193	0x4036ee55	2.8582966
194	0xc08983fc	-4.2973614
195	0x3d35b398	0.044360727
196	0x3f36a4ab	0.71345013
197	0xbd25c832	-0.040474124
198	0xc0294c89	-2.6452963
199	0x40873e07	4.2263217
200	0xc0030230	-2.0470085
201	0x3f56b9af	0.8387708
202	0xbfa0e4ae	-1.2569788
203	0x3fde7cab	1.7381796
204	0xbf780b53	-0.9689228
205	0xbe846739	-0.25860003
206	0x3eb8aaef	0.36067912
207	0x3fc8fb7b	1.5701746
208	0x3e88274e	0.26592487
209	0xbfb567a3	-1.4172252
210	0x40797ad7	3.8981225
211	0xc02e846e	-2.7268329
212	0x3f9dc0cd	1.2324463
213	0x3c8a09d1	0.016850384
214	0xbfb9abdc	-1.4505572
215	0x3e69001b	0.22753946
216	0x3ea6eefb	0.32604203
217	0xbf2d0378	-0.6758342
218	0x3dc45235	0.09585992
219	0xbe1b3ad8	-0.15159166
220	0xbf1092ff	-0.564743
221	0xc05bf90b	-3.4370754
222	0xbf324a88	-0.69644976
223	0xbe3956d4	-0.18099529
224	0xbf110943	-0.5665476
225	0x3e7cd36b	0.24690025
226	0x3fd38f02	1.6528018
227	0xbf2cd09e	-0.67505825
228	0xbe4284ad	-0.18995924
229	0x40246003	2.56836
230	0x3d850381	0.06494809
231	0x3fb8e07e	1.444351
232	0xbd3c9b04	-0.046046272
233	0xc02de3d5	-2.7170308
234	0xbe63a20f	-0.22229789
235	0xc00b8d6f	-2.1805074
236	0xc03fa172	-2.9942288
237	0xbfc46bac	-1.5345359
238	0x409f469b	4.977369
239	0xbec1046f	-0.37698695
240	0x400b76fb	2.179137
241	0x3a208b0c	0.0006124235
242	0x400c5f01	2.1932986
243	0xbfd42d5c	-1.6576343
244	0xc0009dd7	-2.0096338
245	0xbdf0579f	-0.117354624
246	0xbf10789f	-0.56434053
247	0x3f36c23b	0.7139012
248	0xc0b363f9	-5.6059537
249	0x3ebc0ccc	0.36728513
250	0xbf3c190f	-0.73475736
251	0x3e9126bd	0.28349867
252	0x3fb79122	1.4341166
253	0xc056098b	-3.3443325
254	0xc0970868	-4.719776
255	0xbf320c97	-0.6955046

model.4.bias f4 [5]
0	0x3f7c866b	0.98642606
1	0x3e0442eb	0.12916152
2	0x3ea46045	0.32104698
3	0x3f63f783	0.8904955
4	0x3c827b1c	0.015927844
