results/palindrome/rql_4.pt (torch, 84325 bytes, 6 tensors)

model.0.weight f4 [128, 25]
-0.43660307 -0.6163966 -1.9570208 -1.1442121 -1.5721502 -0.1907181 0.17589231 -1.0027785
-0.20683435 0.0667592 0.42763785 -0.5091719 -0.47591147 -2.398694 0.5271477 -0.41839352
1.0061022 -0.49305642 0.21332167 -0.66630024 0.5943913 -0.37689915 -0.6300899 -0.15230085
-0.25434235 0.25173792 -0.77847767 -1.0315199 0.3841681 -0.20890346 0.24274184 0.098132275
-0.9111779 -1.7289643 -1.5088482 -1.212557 -1.9138141 -0.713137 -0.424026 -1.3643441
-0.8353233 -1.3760432 -1.1998869 -0.6266704 -0.45877668 -1.2065974 -1.0126699 -0.939594
-1.0602452 -0.82356733 -0.8611158 0.0720645 1.911555 0.10664946 -1.7204213 -0.22843608
-0.342113 -2.2445867 -2.0517552 -2.559504 -2.3038332 -2.5516503 -1.712563 -2.112901
-2.0719855 -2.5296779 -2.1116626 -2.253897 -1.7486011 -1.8848485 -1.2102231 -1.8195423
-1.6693615 -1.9325868 -1.3771422 -0.7377806 2.7376275 0.5710668 -0.9996411 5.260882
1.2312845 1.3217543 0.025286278 0.01530609 -0.1352764 -0.099108554 -0.03373987 -0.15783204
-0.03407072 0.18224917 -0.12509802 0.0533761 0.13592316 0.09272512 -0.050080415 0.06500832
-0.08005623 0.13428137 -0.021618351 -0.021083685 0.043706387 -0.5867662 4.096266 -1.8388765
0.07060796 0.46272185 0.14187813 0.0034399885 -0.0007468684 -0.02861342 -0.013397606 -0.025649603
0.07166719 -0.011599721 -0.033866566 -0.055050407 -0.02617481 0.019833552 -0.01642131 0.034398917
0.022010185 0.019175436 0.06559374 -0.022452846 -0.033128772 -1.7476945 -1.2623521 4.487827
0.5677124 8.976012 -0.32800034 -0.4378436 0.1264306 0.47133118 -0.020035077 -0.11922639
0.1686601 0.27348778 0.27775356 -0.18778232 0.15337782 0.1721626 0.21404177 0.054074105
-0.16475627 -0.41665676 -0.075591944 -0.10991359 0.17499305 0.2880894 -1.5699191 -0.05890724
1.8986119 -0.12457574 0.67257303 0.35271984 0.61818016 2.0244253 0.799177 0.6311155
0.48866424 1.2887667 -0.87928975 0.6262565 1.6922568 0.30927214 0.15073274 1.753825
-0.75454915 0.18404348 0.48301044 -0.1072728 -0.15280461 -0.8003456 -0.8990569 -2.4079754
0.2744164 0.07696455 1.5448431 -8.736315 -0.9375218 -0.84927535 -0.024707777 -0.009224286
-0.024027808 0.121830724 -0.0053300774 -0.035454225 0.04441454 0.042921722 0.023972433 0.0016505496
0.084303394 -0.064438924 0.01944913 -0.1274228 0.056282595 0.13133833 -0.105975375 -0.07789994
0.3624594 0.53893757 0.2501481 -3.3374615 -9.464456 0.67875636 0.8874004 -0.0024145322
0.019358052 0.016484573 -0.12585664 -0.006932457 0.101756275 -0.05534282 -0.023241991 -0.013052852
-0.011255417 0.015976995 -0.06935484 -0.04246092 0.008453313 0.09847799 0.066377416 0.038223684
0.021611506 0.3444321 -5.846366 0.42329875 0.5028249 -5.5455194 0.7483741 0.706355
-0.025718207 -0.02284488 0.0011018885 0.17448477 -0.04086705 0.008984283 -0.07339015 0.048251085
0.0047244257 0.15687412 -0.019423103 -0.02828643 -0.077533305 -0.020491136 -0.030438038 -0.12958673
0.08944803 -0.014817613 1.4785539 0.35587028 1.7951193 1.1564759 2.284449 0.7744543
00000000: 708a dfbe 2bcc 1dbf a87f fabf 8b75 92bf
00000010: 383c c9bf 9b4b 43be 1d1d 343e 0c5b 80bf
00000020: 62cc 53be 0cb9 883d 59f3 da3e 1759 02bf
00000030: abaa f3be 3484 19c0 27f3 063f ad37 d6be
00000040: f5c7 803f e471 fcbe ff70 5a3e a792 2abf
00000050: 072a 183f edf8 c0be 924d 21bf c1f4 1bbe
00000060: 2939 82be cbe3 803e 504a 47bf d808 84bf
00000070: aeb1 c43e caea 55be 5191 783e 93f9 c83d
00000080: f442 69bf b44e ddbf f021 c1bf 1135 9bbf
00000090: dcf7 f4bf 2590 36bf f019 d9be d4a2 aebf
000000a0: bfd7 55bf 2f22 b0bf e595 99bf 796d 20bf
000000b0: c7e4 eabe c971 9abf 2b9f 81bf 3b89 70bf
000000c0: 1db6 87bf 4fd5 52bf 1672 5cbf 8d96 933d
000000d0: d6ad f43f 086b da3d c436 dcbf 26eb 69be
000000e0: 6f29 afbe 4fa7 0fc0 f54f 03c0 eace 23c0
000000f0: 0172 13c0 3d4e 23c0 4435 dbbf c539 07c0
00000100: 699b 04c0 3ee6 21c0 7b25 07c0 d93f 10c0
00000110: 29d2 dfbf b742 f1bf 97e8 9abf c3e6 e8bf
00000120: a3ad d5bf 015f f7bf 3246 b0bf 30df 3cbf
00000130: 4a35 2f40 6f31 123f 7be8 7fbf 2559 a840
00000140: bb9a 9d3f 3f2f a93f 2b25 cf3c 65c6 7a3c
00000150: e685 0abe 6df9 cabd d132 0abd b99e 21be
00000160: bd8d 0bbd 879f 3a3e b219 00be e6a0 5a3d
00000170: 712f 0b3e abe6 bd3d 1f21 4dbd 1523 853d
00000180: 85f4 a3bd 0e81 093e f818 b1bc b1b7 acbc
00000190: 7805 333d 4f36 16bf 9c14 8340 4e60 ebbf
000001a0: e89a 903d e1e9 ec3e 8048 113e 6e71 613b
000001b0: 7dc9 43ba b166 eabc a281 5bbc 1e1f d2bc
000001c0: 3fc6 923d c20c 3ebc abb7 0abd 897c 61bd
000001d0: 8e6c d6bc f979 a23c fc85 86bc e1e5 0c3d
000001e0: b44e b43c ce15 9d3c 0356 863d 08ef b7bc
000001f0: 09b2 07bd 74b4 dfbf c194 a1bf 479c 8f40
00000200: 9a55 113f bf9d 0f41 a9ef a7be 092d e0be
00000210: 0677 013e 5252 f13e 9a20 a4bc f72c f4bd
00000220: 3cb5 2c3e 9706 8c3e b735 8e3e 024a 40be
00000230: 130f 1d3e 654b 303e c42d 5b3e cf7c 5d3d
00000240: deb5 28be 0954 d5be f3cf 9abd 601a e1bd
00000250: 6131 333e 7480 933e 1cf3 c8bf b848 71bd
00000260: b705 f33f 9121 ffbd bf2d 2c3f b297 b43e
00000270: 0e41 1e3f 2f90 0140 dd96 4c3f c990 213f
00000280: 3332 fa3e 4ff6 a43f 2219 61bf 5952 203f
00000290: df9b d83f eb58 9e3e af59 1a3e 567d e03f
000002a0: 222a 41bf e575 3c3e 254d f73e d7b1 dbbd
000002b0: d078 1cbe 73e3 4cbf 9828 66bf 451c 1ac0
000002c0: 4e80 8c3e 979f 9d3d 6bbd c53f f2c7 0bc1
000002d0: 6e01 70bf 1c6a 59bf f767 cabc 7621 17bc
000002e0: f7d5 c4bc 6382 f93d eea7 aebb 7338 11bd
000002f0: 05ec 353d b0ce 2f3d d661 c43c 4157 d83a
00000300: 42a7 ac3d 8ef8 83bd c853 9f3c 1f7b 02be
00000310: 9488 663d 8e7d 063e 9e09 d9bd 018a 9fbd
00000320: 4794 b93e d0f7 093f 6913 803e f898 55c0
00000330: 696e 17c1 fac2 2d3f ac2c 633f 213d 1ebb
00000340: c794 9e3c a80a 873c 90e0 00be aa29 e3bb
00000350: 9865 d03d 27af 62bd fd65 bebc a1db 55bc
00000360: a468 38bc 30e2 823c e909 8ebd 80eb 2dbd
00000370: c47f 0a3c d4ae c93d e2f0 873d 7090 1c3d
00000380: 9d0a b13c 6759 b03e 6e15 bbc0 9dba d83e
00000390: 22b9 003f e574 b1c0 7295 3f3f aed3 343f
000003a0: fdae d2bc 3025 bbbc 3e6d 903a 23ac 323e
000003b0: 3564 27bd d032 133c 934d 96bd eea2 453d
000003c0: 5bcf 9a3b 9ca3 203e 331d 9fbc f1b8 e7bc
000003d0: c8c9 9ebd 07dd a7bc 3159 f9bc 62b2 04be
000003e0: 8730 b73d 93c5 72bc 4141 bd3f a134 b63e
000003f0: 78c6 e53f 6707 943f 6a34 1240 a342 463f

model.0.bias f4 [128]
-0.15097348 0.17349301 -0.31085274 1.1824037 0.49879473 -0.2648964 0.5392177 -1.0504918
0.7252248 0.9169108 0.7142828 -0.30018535 -0.31285423 0.533588 1.076085 0.4690484
-0.12989517 0.7081643 -0.56056887 -0.5808778 -0.4317765 0.82221204 -0.27306572 -1.1592717
-1.2226181 -0.58443624 -0.28883383 -0.10284628 0.24450137 -0.36453772 0.649335 0.22294511
-1.554971 0.27274132 0.12824371 0.5756913 -0.32265514 -0.07428328 -0.21839087 0.18662684
0.12456746 -0.20852564 -0.31280553 -0.91619146 -0.783929 1.1503589 1.590384 1.1041324
0.25661927 -0.009181317 -0.028846163 0.22073635 -1.0030236 -1.7928741 0.3303468 0.124330014
0.00027586543 -0.25771996 0.59828323 0.5355786 -2.0037012 -0.1506871 0.26419118 -0.841284
-0.57798904 -0.023446541 0.09265483 0.8913771 -0.051089928 0.23747718 -0.3311705 -0.2553842
0.29671684 0.23608401 0.42143863 0.23293282 0.07130983 0.31888324 -0.8778677 0.8782019
0.96662027 0.35017502 0.44039363 -0.035718836 0.95109785 -0.12002889 0.5489561 0.59894186
-0.14854144 -0.32034478 0.6349488 -0.3485438 -0.35543513 0.471976 -0.33534428 0.58347064
0.7127853 -0.0332715 -0.57619524 -0.31237656 -1.770933 -0.37572822 -0.061626937 -0.17303316
0.44523537 -0.45682386 0.1576829 -0.27639544 1.2554929 -0.1308176 -0.27916786 -0.27692816
-0.32393813 0.30818325 0.27755255 0.55875206 -1.6923323 -0.21180119 -0.013182765 -0.28681204
-0.07641368 -0.5700725 -0.3648428 0.4506903 -0.41697577 -0.39843196 0.45408455 -0.6234488
00000000: cb98 1abe 27a8 313e 1728 9fbe 0159 973f
00000010: 0662 ff3e 80a0 87be 2c0a 0a3f 8476 86bf
00000020: 55a8 393f abba 6a3f 3ddb 363f e5b1 99be
00000030: 6e2e a0be 3999 083f 27bd 893f 1d27 f03e
00000040: 3d03 05be 414a 353f 7181 0fbf 68b4 14bf
00000050: cf11 ddbe 7d7c 523f 45cf 8bbe 0463 94bf
00000060: c07e 9cbf 9d9d 15bf 07e2 93be 12a1 d2bd
00000070: 915e 7a3e b0a4 babe d23a 263f b94b 643e
00000080: 4a09 c7bf c0a4 8b3e 5252 033e 8160 133f
00000090: 0e33 a5be d521 98bd dba1 5fbe 1b1b 3f3e
000000a0: 391d ff3d bf87 55be 0c28 a0be 868b 6abf
000000b0: 92af 48bf f63e 933f b491 cb3f 3654 8d3f
000000c0: 9a63 833e 3c6d 16bc ca4e ecbc b608 623e
000000d0: 1463 80bf e67c e5bf 3723 a93e bca0 fe3d
000000e0: 08a2 9039 dff3 83be 1729 193f ae1b 093f
000000f0: a43c 00c0 b84d 1abe 1144 873e 635e 57bf
00000100: 17f7 13bf f612 c0bc d1c1 bd3d 4a31 643f
00000110: ac43 51bd 382d 733e 2e8f a9be b8c1 82be
00000120: 45eb 973e 02c0 713e cec6 d73e f185 6e3e
00000130: e30a 923d aa44 a33e f0bb 60bf d7d1 603f
00000140: 6d74 773f 244a b33e 467b e13e ea4d 12bd
00000150: 267b 733f b5d1 f5bd 6388 0c3f 4154 193f
00000160: 3f1b 18be 3b04 a4be 018c 223f 5574 b2be
00000170: 98fb b5be d7a6 f13e 3fb2 abbe 555e 153f
00000180: 1979 363f b247 08bd 8881 13bf d2ef 9fbe
00000190: efad e2bf 735f c0be 876c 7cbd 9b2f 31be
000001a0: e4f5 e33e d1e4 e9be a077 213e b483 8dbe
000001b0: feb3 a03f 0df5 05be 17ef 8ebe 87c9 8dbe
000001c0: 38db a5be 32ca 9d3e 5e1b 8e3e 600a 0f3f
000001d0: 589e d8bf 69e2 58be 86fc 57bc 07d9 92be
000001e0: c77e 9cbd 45f0 11bf adcc babe e1c0 e63e
000001f0: d97d d5be 46ff cbbe c57d e83e 579a 1fbf

model.2.weight f4 [128, 128]
0.029113939 0.51511633 -0.27346164 -0.13969384 -0.36625436 -0.7980558 -0.91310877 -0.7872304
-0.19385922 0.15409128 0.45652342 -0.16258726 -1.1340556 -0.2997828 0.8927383 -0.090630494
0.22563267 0.8572415 0.9292367 1.1903151 -1.1298703 -0.9390389 -0.3048466 0.7364354
1.0095426 0.037746295 0.4826333 -0.095801726 -0.56569684 0.49225217 -0.0068103583 0.03506272
-0.06708065 -0.16162384 -0.5064652 -0.21273142 0.20836963 0.1435012 0.44913778 -0.43466997
-0.75039613 -0.8455482 -0.22931494 0.55956364 0.17611565 -0.3421185 0.69201154 -0.15787512
0.54742694 0.05870347 0.20370057 0.3150696 0.6289158 -0.12045125 -0.48115733 -0.262312
-0.19483082 -0.25855654 -0.40604356 -0.14906107 -0.055696048 0.17765108 -0.0069663925 -0.12687011
-0.13124168 0.7464822 0.050703805 0.107040815 1.3818401 -0.36718723 -0.27859464 0.87619233
-0.34394577 -0.88056207 -1.1840514 1.0105016 -0.042302713 0.08344507 0.44930795 0.06687352
-0.62334096 0.09137046 -0.16746084 0.8903726 -0.27623758 1.7222726 -0.2752095 0.83967954
-0.24217081 0.77726597 0.08425418 0.18614684 0.24651283 -0.46538636 0.49554855 0.36797312
0.44743508 0.2517938 -0.6079131 -0.46366867 0.7633469 -0.50747013 1.0371488 0.04650066
-1.0689516 -0.11287605 1.3192149 0.12407923 -0.17500928 0.23761469 -0.32256752 -0.14844188
0.35854772 1.3153005 1.1507658 -0.18529542 0.13035923 0.2303702 -0.14135486 0.089316145
1.7948474 -0.03151257 0.16803676 0.1560295 -0.009086581 1.8843476 -0.45573705 0.8139778
-0.08739422 -0.09139103 0.029443126 1.8310941 1.3303891 0.5804273 -0.1365794 0.6923647
-0.31038997 -1.3263633 -0.056986574 -0.70559865 0.10851179 -0.2796573 -0.055649076 0.6231254
0.02280537 -0.16613932 0.05095577 0.1690739 0.19292353 0.08285882 -0.51237524 0.5573554
-0.06381412 -0.27630264 0.33771086 0.37512553 -0.029684214 0.47877097 -0.00980046 0.30668113
0.28652808 -0.089358345 0.08812258 -0.34913743 -0.42269433 -0.39060488 0.7110125 -0.39930212
0.72335505 0.4318292 0.14798628 -0.3625431 -0.9427239 -0.14134489 -2.4353054 1.3100729
-0.19287944 -0.26817724 -0.05324884 0.1638117 -1.3340572 -0.31839153 -0.6594545 0.32836366
-0.0061136857 0.112700805 0.21816666 0.008839307 0.01939837 0.07148597 0.11609137 -0.93567914
-0.63817334 -0.3559698 0.1738841 -0.72974133 0.74190634 0.075102195 -0.06528897 -0.03951966
0.8599698 -0.15498272 -0.72178686 0.33395308 -0.49959028 0.5421393 -1.5084939 0.107089765
0.16814049 -0.13032116 -0.4020846 0.31061676 0.4032104 -0.005809383 -0.4823371 0.15057476
-0.80260867 -0.79781365 0.35534075 -0.47405457 0.6371828 -0.20234928 -0.16229653 -0.3282393
0.6276311 -0.12054892 0.43531412 -0.481122 -0.14028107 0.1900782 -0.13744591 -0.3888845
0.61163354 -0.20890532 -0.010586179 -0.45220917 1.5556716 0.5937347 0.30506977 0.8951469
0.1910566 0.5362799 -0.099031016 -0.43712556 -0.3740658 0.38786703 0.23854034 -0.45143077
-0.04542762 -0.22861095 0.5934733 -0.09787001 1.1882212 -0.023234157 -0.17319621 0.2493101
00000000: 5b80 ee3c aade 033f 2a03 8cbe e70b 0fbe
00000010: b185 bbbe 634d 4cbf 7fc1 69bf ee87 49bf
00000020: 0883 46be 1bca 1d3e 70bd e93e 467d 26be
00000030: bc28 91bf 227d 99be 7f8a 643f 7b9c b9bd
00000040: 400c 673e 2e74 5b3f 75e2 6d3f 3f5c 983f
00000050: 979f 90bf da64 70bf db14 9cbe 0887 3c3f
00000060: b138 813f dc9b 1a3d b61b f73e b233 c4bd
00000070: 82d1 10bf 7a08 fc3e 6d29 dfbb ed9d 0f3d
00000080: 9461 89bd b880 25be b4a7 01bf 44d6 59be
00000090: d95e 553e fbf1 123e 63f5 e53e 108d debe
000000a0: f619 40bf d975 58bf 89d1 6abe 903f 0f3f
000000b0: a957 343e 282a afbe ab27 313f 04aa 21be
000000c0: 2c24 0c3f 0d73 703d e296 503e cd50 a13e
000000d0: a000 213f 25af f6bd 415a f6be c24d 86be
000000e0: bb81 47be 8661 84be f1e4 cfbe 77a3 18be
000000f0: 8a21 64bd 2aea 353e 5646 e4bb 3dea 01be
00000100: 3864 06be 7519 3f3f cbae 4f3d 3738 db3d
00000110: 23e0 b03f f7ff bbbe f5a3 8ebe 244e 603f
00000120: a919 b0be 846c 61bf ff8e 97bf 1e58 813f
00000130: 9c45 2dbd 40e5 aa3d b10b e63e fcf4 883d
00000140: 4693 1fbf 7020 bb3d db7a 2bbe 75ef 633f
00000150: 036f 8dbe 6e73 dc3f 42e8 8cbe 3df5 563f
00000160: a0fb 77be e7fa 463f 758d ac3d 479d 3e3e
00000170: dc6d 7c3e 1f47 eebe 8ab8 fd3e f966 bc3e
00000180: 3616 e53e 1eeb 803e 31a0 1bbf fb65 edbe
00000190: b46a 433f 90e9 01bf 4bc1 843f 7a77 3e3d
000001a0: 68d3 88bf 8f2b e7bd 09dc a83f 401d fe3d
000001b0: a235 33be 4451 733e 9227 a5be 2601 18be
000001c0: 9193 b73e c45b a83f 4b4c 933f 15be 3dbe
000001d0: e47c 053e 2ae6 6b3e 54bf 10be 62eb b63d
000001e0: 8fbd e53f 5313 01bd d411 2c3e 32c6 1f3e
000001f0: e2df 14bc 4d32 f13f 5e56 e9be d960 503f
00000200: befb b2bd 382b bbbd b632 f13c 4b61 ea3f
00000210: 314a aa3f e296 143f 78db 0bbe d03e 313f
00000220: 6feb 9ebe 46c6 a9bf c16a 69bd 1da2 34bf
00000230: 6e3b de3d 3e2f 8fbe 49f0 63bd 2585 1f3f
00000240: 54d2 ba3c 6d20 2abe ffb6 503d b521 2d3e
00000250: bf8d 453e e3b1 a93d 062b 03bf d8ae 0e3f
00000260: fab0 82bd 8a77 8dbe 70e8 ac3e 7410 c03e
00000270: 4f2c f3bc 7821 f53e 1c92 20bc 4f05 9d3e
00000280: cfb3 923e 8201 b7bd 9c79 b43d 24c2 b2be
00000290: 646b d8be 5dfd c7be ea04 363f 5471 ccbe
000002a0: cc2d 393f b818 dd3e b789 173e 409f b9be
000002b0: 5a56 71bf b7bc 10be 0bdc 1bc0 78b0 a73f
000002c0: 3082 45be 874e 89be 751b 5abd 41be 273e
000002d0: 63c2 aabf 3704 a3be 03d2 28bf 481f a83e
000002e0: 5055 c8bb aecf e63d 1567 5f3e bed2 103c
000002f0: 55e9 9e3c 3c67 923d 50c1 ed3d ab88 6fbf
00000300: 545f 23bf ac41 b6be ac0e 323e 54d0 3abf
00000310: 93ed 3d3f 2ecf 993d 39b6 85bd 5edf 21bd
00000320: fb26 5c3f cab3 1ebe 06c7 38bf e6fb aa3e
00000330: 4cca ffbe a4c9 0a3f 5416 c1bf e151 db3d
00000340: 052d 2c3e e972 05be 08de cdbe 2909 9f3e
00000350: 9871 ce3e a35c bebb e3f4 f6be 4530 1a3e
00000360: c377 4dbf 843d 4cbf 39ef b53e 48b7 f2be
00000370: 691e 233f a634 4fbe 1031 26be fb0e a8be
00000380: 6fac 203f 5ae2 f6bd 7ee1 de3e 9f55 f6be
00000390: d7a5 0fbe dca3 423e 9fbe 0cbe df1b c7be
000003a0: 0494 1c3f 47eb 55be a771 2dbc f687 e7be
000003b0: 3f20 c73f fffe 173f 1b32 9c3e 5928 653f
000003c0: 57a4 433e a449 093f c6d0 cabd ecce dfbe
000003d0: 8d85 bfbe 8296 c63e eb43 743e ef21 e7be
000003e0: 5012 3abd fd18 6abe deed 173f 1270 c8bd
000003f0: a217 983f 8f55 bebc 595a 31be 264b 7f3e

model.2.bias f4 [128]
-0.0045606857 0.056987297 0.1151869 0.14587185 0.18479179 0.080970325 0.09380086 -0.09064704
-0.1915044 0.27049762 0.12792939 -0.18702132 -0.3143135 0.084962346 0.1729536 0.22531602
0.2302114 0.08954257 0.18072504 -0.08577183 -0.05882055 -0.10298082 0.030870484 0.37529784
0.19426222 -0.122248895 -0.11279045 0.3101156 0.15434586 -0.17592497 0.3350476 -0.05442415
0.05030486 -0.28520936 -0.19203904 -0.25924549 -0.035491228 0.2516289 0.24526258 -0.13450982
-0.17773017 -0.018242802 0.29339576 0.36914715 0.3642933 0.09520853 0.28576523 -0.20084909
0.24541992 -0.03841425 -0.19372989 -0.39140633 -0.07289835 0.20119147 -0.012288293 -0.039513975
-0.32529342 -0.2512342 0.4059196 0.19056123 -0.4500059 0.27664042 0.1049053 0.34831265
-0.12807386 0.13889503 0.091307506 0.4703332 0.35738096 -0.06793674 0.03113624 -0.587432
0.23850767 -0.10200075 -0.020280981 -0.60097873 0.23873316 0.2155043 0.1901432 -0.2587921
-0.2931793 0.1267899 0.099151716 0.21606967 0.07902 -0.31454566 -0.07826326 -0.28066054
-0.24416661 0.06044541 -0.27555493 -0.32455015 0.13769491 -0.13892823 0.30011123 -0.0847612
-0.10524124 0.41552392 -0.098266765 -0.20000285 -0.20523807 0.04294906 -0.31166956 -0.13261996
-0.094147325 -0.09199226 -0.03764159 -0.10169241 -0.034930278 0.06295679 -0.13862331 0.07144339
0.19086017 -0.31497803 0.2032403 -0.44427326 0.31541777 0.059997343 -0.096412726 -0.38915947
0.20711638 0.2661876 0.49443975 0.32323077 0.11921044 -0.07023072 -0.2650507 -0.07543138
00000000: ce71 95bb 836b 693d 1ce7 eb3d 6e5f 153e
00000010: 0f3a 3d3e c5d3 a53d aa1a c03d 28a5 b9bd
00000020: bb19 44be aa7e 8a3e ecff 023e 8482 3fbe
00000030: b3ed a0be bd00 ae3d c01a 313e 3eb9 663e
00000040: 8abc 6b3e 1862 b73d fc0f 393e 24a9 afbd
00000050: d1ed 70bd 9ce7 d2bd 19e4 fc3c 0a27 c03e
00000060: adec 463e a15d fabd aefe e6bd 79c7 9e3e
00000070: d70c 1e3e ad25 34be 5c8b ab3e dceb 5ebd
00000080: 780c 4e3d f606 92be e2a5 44be d3bb 84be
00000090: 405f 11bd 81d5 803e 1d26 7b3e f1bc 09be
000000a0: e6fe 35be ee71 95bc f837 963e db00 bd3e
000000b0: a784 ba3e b1fc c23d d24f 923e 62ab 4dbe
000000c0: 5c4f 7b3e 4358 1dbd 2161 46be 6966 c8be
000000d0: bb4b 95bd 2305 4e3e d654 49bc 68d9 21bd
000000e0: dc8c a6be c5a1 80be b2d4 cf3e 7c22 433e
000000f0: 2c67 e6be d0a3 8d3e 97d8 d63d 0956 b23e
00000100: cb25 03be 803a 0e3e 6eff ba3d 83cf f03e
00000110: a3fa b63e 6b22 8bbd 6e11 ff3c f261 16bf
00000120: 5b3b 743e c5e5 d0bd 4d24 a6bc bed9 19bf
00000130: 7776 743e 29ad 5c3e e6b4 423e 6680 84be
00000140: 991b 96be 36d5 013e 0e10 cb3d 5e41 5d3e
00000150: 3dd5 a13d 210c a1be 7d48 a0bd bdb2 8fbe
00000160: d006 7abe 9b95 773d 8915 8dbe 702b a6be
00000170: e5ff 0c3e 3443 0ebe 2ea8 993e 4897 adbd
00000180: b888 d7bd 8dbf d43e 1640 c9bd 8ccd 4cbe
00000190: ee29 52be 5beb 2f3d 2793 9fbe 87cd 07be
000001a0: 50d0 c0bd 7066 bcbd 112e 1abd 1c44 d0bd
000001b0: 0d13 0fbd 7def 803d 45f3 0dbe e950 923d
000001c0: d970 433e cd44 a1be 3a1e 503e c977 e3be
000001d0: 707e a13e c6bf 753d 0974 c5bd e93f c7be
000001e0: 5116 543e be49 883e 3527 fd3e 817e a53e
000001f0: 9a24 f43d 20d5 8fbd bab4 87be c47b 9abd

model.4.weight f4 [5, 128]
0.82926303 -0.76675 -0.06444507 -2.967985 0.18588679 2.9702942 -0.27594727 -2.1541808
-1.412614 0.4809743 -1.4105138 -3.013817 0.5812319 1.2755743 -0.6681367 -0.80280775
-1.1694041 -1.7960792 0.4775849 -0.28972057 -1.0252095 -2.903603 1.4041526 -1.220252
0.62153715 -1.1801049 0.10071156 0.06719911 -0.1817374 -1.5219468 0.5792763 -1.3856893
0.71162975 -1.2635113 0.7244976 0.33421445 -0.96532214 -0.53718495 1.1049066 -1.9403145
-3.5342941 6.1675944 0.3398198 -0.016311754 0.44031605 2.3256166 0.08410348 -2.4178834
1.2171793 -1.7150995 4.5446053 -0.70053875 -1.006281 0.8376841 -2.1584325 0.14304577
-1.331065 -0.54808825 0.5774402 -0.9149508 -0.77646977 -1.104427 -0.7537983 0.567351
-1.105502 0.44183734 -1.3833126 -0.9687386 -2.0078688 -1.4106473 1.1058046 -3.4796374
2.32215 -2.1523547 -0.5846097 -2.5948417 -1.4774303 0.9909994 0.85281163 3.5263655
-0.38554242 -0.45266244 -0.04617055 1.9186851 0.22122158 -3.5347705 -1.241885 0.65179414
1.1236327 2.3029387 0.69352365 0.37169552 -0.40955082 0.31556302 -0.022989457 3.2351558
-0.06907768 -5.308868 3.600049 -3.0998247 -0.046001803 0.07043897 -4.30467 -3.7279453
-2.125091 0.31459266 -1.408658 1.8962164 -3.9853203 -0.6736735 -1.9792956 -0.8531905
-0.62719816 -0.03073623 -0.0079258 -0.865742 -1.9826784 -1.3754274 -3.921717 -0.30726844
1.0126165 0.7314035 -1.5577718 4.8254046 1.4281853 1.3865054 -2.6893978 -1.3457797
-0.22460534 -1.9123576 -3.6447659 -0.9360155 1.5260552 -0.87895644 0.5674362 3.4101167
-0.7854625 -3.5851614 1.9613173 -2.2586603 2.195552 -0.55411375 1.8037633 -1.4432486
1.285596 -1.5972394 -0.8047168 1.0248189 1.5143805 -2.0515206 -2.0739403 -2.265485
2.8282223 -2.2780545 2.2178109 -0.005755599 0.13122371 0.5860515 -1.6608179 0.81297
-0.46508327 -2.2686844 -0.31830776 -2.2468443 2.2705438 0.17940018 -0.017798373 3.9268088
0.2701214 1.6004429 0.6818942 0.30436483 -0.44460872 -1.3873851 -3.1207798 -2.086004
-1.7501177 -1.4370213 -0.61659545 -0.9885584 -0.5029863 -0.9707429 -1.0673198 3.8332803
-3.6018753 0.18583371 -4.032459 -1.0487723 -0.41111827 4.0359497 0.22199588 3.0865355
-2.0157592 -3.825392 3.4510803 -1.4269707 2.5156448 1.0567611 0.80993086 -1.6578577
0.5761671 -0.68365556 -0.8281839 4.853115 3.146813 2.2526188 2.45939 2.4192426
4.8021927 0.84957117 -1.6696736 -1.8000332 -1.0668355 0.23149697 -1.4189945 -1.3116618
4.1660056 -1.2939224 -1.2824612 1.4162257 1.729209 -0.049699754 -0.016041191 -0.804125
-2.6724274 2.7848601 1.4810203 -1.2514709 -2.6346955 2.7085614 1.5522103 -1.6202197
-1.5964776 0.12128797 1.0298985 -1.56061 -1.2198559 0.5089279 -1.1403813 -0.17102732
-2.3079634 -2.8463738 2.901056 0.43586376 5.5248876 -3.1182804 -0.24349584 -2.4722164
-0.41236633 1.8112813 2.7644083 2.4454527 0.052364692 1.7233999 -0.89088726 2.8293142
00000000: 954a 543f ba49 44bf c7fb 83bd 77f3 3dc0
00000010: 1b59 3e3e 4d19 3e40 f648 8dbe 19de 09c0
00000020: 89d0 b4bf 4342 f63e b78b b4bf 61e2 40c0
00000030: 9dcb 143f 0546 a33f 020b 2bbf cf84 4dbf
00000040: 09af 95bf ece5 e5bf 0286 f43e 4156 94be
00000050: 113a 83bf a2d4 39c0 46bb b33f 3831 9cbf
00000060: 0f1d 1f3f ad0d 97bf dd41 ce3d b09f 893d
00000070: 5e19 3abe 27cf c2bf 744b 143f 445e b1bf
00000080: 5e2d 363f bdba a1bf ad78 393f 281e ab3e
00000090: 5a1f 77bf f484 09bf 946d 8d3f 3a5c f8bf
000000a0: e031 62c0 ef5c c540 dcfc ad3e 3aa0 85bc
000000b0: 1b71 e13e e7d6 1440 723e ac3d 9abe 1ac0
000000c0: 88cc 9b3f 6188 dbbf 686d 9140 8256 33bf
000000d0: d1cd 80bf 7772 563f c223 0ac0 977a 123e
000000e0: 5760 aabf 834f 0cbf 1fd3 133f 373a 6abf
000000f0: b9c6 46bf dd5d 8dbf edf8 40bf ea3d 113f
00000100: 1781 8dbf 8138 e23e 6310 b1bf 41ff 77bf
00000110: ec80 00c0 1790 b4bf 018b 8d3f 61b2 5ec0
00000120: 1b9e 1440 2ec0 09c0 fba8 15bf e311 26c0
00000130: 701c bdbf 23b2 7d3f dd51 5a3f f9af 6140
00000140: d165 c5be 5fc3 e7be 551d 3dbd 7997 f53f
00000150: e987 623e ae39 62c0 16f6 9ebf fbdb 263f
00000160: 32d3 8f3f 5963 1340 c48a 313f e04e be3e
00000170: a5b0 d1be 7a91 a13e 6354 bcbc cb0c 4f40
00000180: 9978 8dbd 3fe2 a9c0 3467 6640 8763 46c0
00000190: 636c 3cbd 4f42 903d dbbf 89c0 a896 6ec0
000001a0: 7e01 08c0 4a12 a13e e84e b4bf 38b7 f23f
000001b0: 7d0f 7fc0 de75 2cbf 8f59 fdbf b16a 5abf
000001c0: 0f90 20bf 8cca fbbc 37db 01bc 45a1 5dbf
000001d0: 68c8 fdbf 010e b0bf 69fd 7ac0 4a52 9dbe
000001e0: 6b9d 813f 433d 3b3f 1165 c7bf b769 9a40
000001f0: c7ce b63f 0279 b13f 181f 2cc0 8242 acbf
00000200: f1fe 65be 22c8 f4bf d843 69c0 b69e 6fbf
00000210: c755 c33f 4a03 61bf 8043 113f 5a3f 5a40
00000220: 1214 49bf 4973 65c0 720c fb3f e48d 10c0
00000230: ed83 0c40 66da 0dbf b7e1 e63f 5fbc b8bf
00000240: 698e a43f 5772 ccbf ec01 4ebf 442d 833f
00000250: 38d7 c13f 1d4c 03c0 70bb 04c0 b5fd 10c0
00000260: 9801 3540 a5cb 11c0 9df0 0d40 7799 bcbb
00000270: 825f 063e 7907 163f ae95 d4bf cd1e 503f
00000280: 651f eebe 2032 11c0 3cf9 a2be 4ccc 0fc0
00000290: 9750 1140 aeb4 373e e5cd 91bc d650 7b40
000002a0: 5a4d 8a3e 50db cc3f 9e90 2e3f b5d5 9b3e
000002b0: c1a3 e3be d695 b1bf dbba 47c0 1781 05c0
000002c0: db03 e0bf 50f0 b7bf 33d9 1dbf 2a12 7dbf
000002d0: b6c3 00bf 9b82 78bf ef9d 88bf 7754 7540
000002e0: 2085 66c0 314b 3e3e e709 81c0 2c3e 86bf
000002f0: 187e d2be 8026 8140 e352 633e cc89 4540
00000300: 3302 01c0 39d3 74c0 80de 5c40 faa6 b6bf
00000310: 5300 2140 f343 873f a157 4f3f ae34 d4bf
00000320: b07f 133f 0d04 2fbf dc03 54bf b84c 9b40
00000330: 6265 4940 e82a 1040 a566 1d40 dfd4 1a40
00000340: 90ab 9940 7f7d 593f ddb7 d5bf 7d67 e6bf
00000350: 118e 88bf 8b0d 6d3e 9da1 b5bf 89e4 a7bf
00000360: eb4f 8540 409f a5bf b027 a4bf e246 b53f
00000370: b856 dd3f f891 4bbd d168 83bc 23db 4dbf
00000380: 0d09 2bc0 263b 3240 1392 bd3f 3330 a0bf
00000390: da9e 28c0 1259 2d40 d4ae c63f 5c63 cfbf
000003a0: 6159 ccbf d465 f83d b7d3 833f 12c2 c7bf
000003b0: 3d24 9cbf 1949 023f 04f8 91bf c921 2fbe
000003c0: acb5 13c0 fd2a 36c0 e7aa 3940 8929 df3e
000003d0: e1cb b040 e891 47c0 f956 79be cb38 1ec0
000003e0: ae21 d3be 11d8 e73f 11ec 3040 4c82 1c40
000003f0: 5c7c 563d 5e98 dc3f 3011 64bf 7c13 3540

model.4.bias f4 [5]
1.2248317 0.08598381 0.5170233 0.58238995 -0.22741583
00000000: 49c7 9c3f 4818 b03d a45b 043f 8217 153f
00000010: b2df 68be
